backend/app/ai/models/lstm_best_model.pt (torch, 343621 bytes, 10 tensors)

lstm.weight_ih_l0 f4 [256, 99]
0	0x3922e257	0.00015533842
1	0xbdc7d79d	-0.09757922
2	0xbcc2cd31	-0.023779484
3	0x3a78add1	0.000948635
4	0xbd8e572b	-0.0695022
5	0xbc6f146a	-0.014592269
6	0x3a753b57	0.00093548506
7	0xbdbe1e24	-0.092830926
8	0xbba932fe	-0.0051635494
9	0x3a764b56	0.0009395381
10	0xbdc2fa29	-0.095203705
11	0xbb95152e	-0.004549644
12	0xba903352	-0.0011001623
13	0xbd56d784	-0.052451625
14	0x3bcaaa9f	0.0061848904
15	0xba76fa2a	-0.00094214326
16	0x3cd5194b	0.026013037
17	0xbc8e2a01	-0.017354013
18	0xba853507	-0.0010162898
19	0xbdb1aa93	-0.086751126
20	0x3bc50cc1	0.0060134833
21	0x3b3858b1	0.0028129036
22	0x3bb69528	0.00557198
23	0xbb1f026d	-0.002426292
24	0xbaeb33d6	-0.0017944525
25	0xbd03e21d	-0.03219806
26	0xbab07ca7	-0.0013464884
27	0x3aa6dcc2	0.0012730586
28	0xbdc48011	-0.09594739
29	0xbcc8b0c1	-0.024498345
30	0xba9466db	-0.0011322157
31	0x3c4ff8a7	0.012693561
32	0xbc4f58c8	-0.012655444
33	0x3d42ff5b	0.047606807
34	0xbc687e0f	-0.014190211
35	0x3b05e0ea	0.0020428249
36	0xbcbed070	-0.02329275
37	0xbde2085d	-0.110367514
38	0x3ac80224	0.0015259427
39	0x3d1c92d6	0.03822597
40	0x3cab865e	0.020938095
41	0xbbf85846	-0.0075788824
42	0xbd7aaad1	-0.06119806
43	0x3b71d5fa	0.0036901222
44	0xbb3f2cbe	-0.0029170956
45	0x3d96474e	0.07337819
46	0xbc65b73b	-0.014020736
47	0xbcdecaa1	-0.02719623
48	0xbcf0890d	-0.029362226
49	0xbd510aad	-0.05103557
50	0xbc5e3c63	-0.013564202
51	0xbd13c498	-0.03607616
52	0xbd6b04ac	-0.057377502
53	0xbaa23621	-0.0012375751
54	0xbb858455	-0.004074613
55	0xbd0bd68a	-0.034140147
56	0xbcc065a7	-0.023485972
57	0xbbf51c4f	-0.0074801813
58	0x3d69a8de	0.05704581
59	0xbd87eb41	-0.06636668
60	0xbc2b0226	-0.010437524
61	0xbd84a314	-0.06476417
62	0xbd59d977	-0.053185906
63	0xbc6de0bc	-0.014518913
64	0x3ccfeb2f	0.025380699
65	0x3b0ebc23	0.0021779619
66	0xbd990e08	-0.074733794
67	0xbca6d956	-0.020367306
68	0xbba3a514	-0.004994044
69	0xbb1e9180	-0.0024195611
70	0x3963eb9b	0.00021736177
71	0xb9a4245e	-0.00031307613
72	0xbb0f6154	-0.002187808
73	0xb953a2c2	-0.0002018316
74	0x39add986	0.000331592
75	0x39da965f	0.00041692235
76	0x3dada864	0.084793836
77	0xbb148c76	-0.002266673
78	0xba8ed3e5	-0.001089689
79	0x3c93c2b8	0.018037185
80	0xbbbc78c3	-0.0057517006
81	0x3c42541f	0.011860876
82	0x3e05218a	0.13001075
83	0x3be023a6	0.006840187
84	0xbc0cf0d2	-0.008602338
85	0x3df0cfde	0.117583975
86	0xbbb83dc5	-0.005622598
87	0xbaa196a8	-0.0012328224
88	0xbb1042cb	-0.0022012468
89	0x3b532cd9	0.0032222776
90	0x3a874a81	0.0010321887
91	0x3b85d167	0.0040838006
92	0x3be879e5	0.007094609
93	0xbb99c3d4	-0.004692534
94	0x3d43e6db	0.047827583
95	0xbbc7108d	-0.006074971
96	0x3bfade82	0.0076559195
97	0x3d348b0f	0.04407793
98	0xbb50ad39	-0.003184153
99	0xbaa2cc17	-0.0012420443
100	0xbe1170c4	-0.14203173
101	0xbca1bb71	-0.0197427
102	0x38d0da2f	9.958853e-05
103	0xbe22e51f	-0.15907715
104	0x3cb1f3a9	0.021722632
105	0x3a3a0d5d	0.0007097328
106	0xbd3840f6	-0.044983827
107	0xbc86d362	-0.016458217
108	0xbad96776	-0.001658662
109	0xbdbbf2fb	-0.09177204
110	0xbdc20984	-0.09474471
111	0xbac481b9	-0.0014992274
112	0x3c9210af	0.017830221
113	0xbd9386e2	-0.07203461
114	0xbbc7a655	-0.0060928264
115	0xbca1e1e0	-0.019761026
116	0xbc68c2a3	-0.014206561
117	0xbb8f3d28	-0.004371304
118	0x3ca64559	0.02029674
119	0x3c313fb8	0.010818414
120	0x3d69ef5e	0.057113044
121	0x3d59378c	0.05303149
122	0xbcf09b39	-0.02937089
123	0x3b6d79fe	0.0036236043
124	0x3be80b03	0.007081391
125	0xbcbb8b49	-0.022893565
126	0x3a891357	0.0010458034
127	0xbda69eb5	-0.0813574
128	0xbb024b4d	-0.0019881309
129	0xba43e4e1	-0.0007472765
130	0x3c4f5baa	0.012656132
131	0xbd53f2e4	-0.05174531
132	0x3d9463e8	0.07245618
133	0x3c57b604	0.0131659545
134	0x3bd1e9f8	0.006406065
135	0x3bc3130c	0.0059531983
136	0xbd5a66ca	-0.053320684
137	0xbc0c3178	-0.008556716
138	0x3d53cbf2	0.05170817
139	0xba651718	-0.0008739098
140	0xbd04d7b6	-0.03243228
141	0xbe00de97	-0.12584911
142	0x3d3ad33b	0.0456116
143	0x3a98077e	0.0011598913
144	0x3b489088	0.0030603725
145	0xb9afe1c6	-0.00033546815
146	0xbcc27437	-0.023737056
147	0xbddef852	-0.10887207
148	0xbdbe760c	-0.092998594
149	0xbdfc2cc0	-0.12313223
150	0xbd580ec3	-0.052748453
151	0xbdebd75c	-0.11515686
152	0xbd754268	-0.059877783
153	0xbd8656ae	-0.065595016
154	0x3d2b03cf	0.04175168
155	0xbdd5a5a7	-0.10431986
156	0xbd543bbb	-0.051814776
157	0x3d5d58bd	0.054039706
158	0x3d0646e9	0.03278247
159	0x3b301b57	0.0026871765
160	0xbdbb537c	-0.09146783
161	0xbdc049b2	-0.09389056
162	0x3d872a32	0.06599845
163	0xbc8be117	-0.017075105
164	0xbe0e633d	-0.13905044
165	0xbca56107	-0.020187868
166	0xbdcffb99	-0.1015541
167	0xbdbce764	-0.09223822
168	0x3cfbd6e7	0.030742122
169	0x39e2b836	0.00043243327
170	0xb98a9f0c	-0.0002643991
171	0xbc6c2fe6	-0.014415717
172	0xb9ce88dd	-0.00039393353
173	0x399b41f7	0.0002961305
174	0x3d96db28	0.073660195
175	0x3e010c4e	0.1260235
176	0x3b54f5f1	0.0032495225
177	0xbc23fb39	-0.010008627
178	0x3d6cffad	0.05786102
179	0xbcbfc496	-0.02340917
180	0xbd254e62	-0.040357955
181	0x3d5a5bf2	0.053310342
182	0x3c119688	0.008885987
183	0xbca6d907	-0.020367159
184	0xbd48c856	-0.04901918
185	0x3d307a8c	0.04308562
186	0x3ce669d5	0.028126637
187	0x3d00ee02	0.031476982
188	0x3d0ddbb9	0.034633372
189	0x3c70c04f	0.014694287
190	0x3dd9f08f	0.10641586
191	0x3c2d8e37	0.010592989
192	0xbd353826	-0.044243
193	0x3c8e964a	0.017405648
194	0xbc92b981	-0.01791072
195	0xbd64d6f8	-0.055869073
196	0x3dfc37ff	0.12315368
197	0xbc529a56	-0.012854179
198	0x3b7e621b	0.00388158
199	0xbe1e4a6c	-0.15458077
200	0xbd102357	-0.035189953
201	0x3cc1a8e2	0.0236401
202	0x3cf784e0	0.030214727
203	0xbd289696	-0.041159235
204	0x3c49a61e	0.012307672
205	0x3a99147b	0.0011679077
206	0xbc66d767	-0.014089442
207	0x3bb790d3	0.005601981
208	0xbe0011b6	-0.12506756
209	0xbd0dd497	-0.03462657
210	0x3b75cf6a	0.0037507662
211	0xbddf45dd	-0.10901997
212	0xbd9098c9	-0.070603915
213	0xbbcea43f	-0.0063062008
214	0xbdbf92d3	-0.09354176
215	0xbd3668e2	-0.044533618
216	0xbc90bfc8	-0.017669573
217	0x3ca47a9f	0.020078002
218	0xbd0497aa	-0.0323712
219	0x3d265357	0.040606823
220	0xbd8c52fa	-0.06851764
221	0x3c07e516	0.008294364
222	0xbd6fbf3e	-0.058531992
223	0xbd09d547	-0.033650663
224	0xbd1dc45b	-0.038517337
225	0x3cc66c85	0.024221668
226	0xbd48d279	-0.049028847
227	0xbde57f80	-0.11205959
228	0xbcbe5ba1	-0.023237051
229	0xbde020af	-0.10943734
230	0xbd3e721c	-0.046495542
231	0x3dcc6173	0.099795245
232	0xbe0b8149	-0.13623537
233	0x3c1d61cc	0.009605836
234	0x3cf72fca	0.030174155
235	0xbdd19cf2	-0.10235013
236	0x3d248e5a	0.04017482
237	0x3d9c24b4	0.07624188
238	0xbd3b82ee	-0.04577916
239	0xbd10f4a1	-0.035389546
240	0xbdcc0ece	-0.09963761
241	0xbd524905	-0.051339168
242	0xbd319343	-0.04335333
243	0x3d42be57	0.047544803
244	0x3b8243e7	0.0039753797
245	0x3c59aea3	0.013286266
246	0xbe2b9a20	-0.16758013
247	0xbbce1a01	-0.006289721
248	0xbd16a4cd	-0.03677826
249	0x3e116daf	0.14201997
250	0x3c8a6582	0.016894106
251	0xbde1f1bc	-0.11032435
252	0xbc9f4a5b	-0.019444635
253	0xbddc8538	-0.10767597
254	0xbdd5a916	-0.10432641
255	0x3d98a7b1	0.074538596

lstm.weight_hh_l0 f4 [256, 64]
0	0x3cd01497	0.025400443
1	0x3d9df37e	0.07712458
2	0xbbfac018	-0.007652294
3	0x3d57c75d	0.052680362
4	0x3bd7af8b	0.0065822056
5	0xbb002414	-0.0019552754
6	0xbd1d218a	-0.038362063
7	0x3d06f29e	0.03294622
8	0xbc39b1c5	-0.011333887
9	0x3d1ed87b	0.03878067
10	0xbd0188ae	-0.03162449
11	0x3d1dfaa4	0.038569108
12	0xbd06afef	-0.032882627
13	0xbbdf8377	-0.0068210918
14	0x3d38d44d	0.04512434
15	0x3ccb239f	0.024797259
16	0x3cf56dfb	0.02995967
17	0xbc583a4c	-0.013197493
18	0xbbb7260b	-0.005589252
19	0x3d06f61a	0.032949544
20	0x3c8fafab	0.01753982
21	0xbcf7c368	-0.030244544
22	0x3c8f139a	0.017465401
23	0xbd25d6e1	-0.040488128
24	0x3c3663f2	0.011132227
25	0xbcc53143	-0.024071341
26	0xb81c9281	-3.732974e-05
27	0xb990a9c1	-0.00027592297
28	0x3d17ff43	0.03710867
29	0xbd34962e	-0.044088535
30	0x3b176d96	0.002310609
31	0x3bd2b36a	0.006430079
32	0xbc5f9733	-0.013646889
33	0x3c04b105	0.008098845
34	0x3c1fae20	0.0097461045
35	0xbcc66ae7	-0.024220897
36	0xbd3434c3	-0.04399563
37	0xbd240b77	-0.040049996
38	0x3c455b3b	0.012045677
39	0x3c4a82de	0.012360303
40	0xbdb0c405	-0.08631138
41	0x3b1cf320	0.0023948625
42	0x3d2e80b5	0.042603213
43	0xbc87f35d	-0.016595537
44	0x3cb1d868	0.021709636
45	0x3cc12f67	0.023582174
46	0xbd1bc6ff	-0.038031574
47	0xbb2dada1	-0.0026501196
48	0x3c0f7264	0.0087553
49	0x3affb8e4	0.0019510058
50	0xbaad36eb	-0.0013215219
51	0x3ceb12f7	0.028695567
52	0xbb1d100d	-0.0023965866
53	0x3bfe720c	0.0077650603
54	0x3d0b1f6b	0.03396551
55	0x3b0c5c53	0.0021417334
56	0x3d4b8105	0.04968359
57	0xbc503694	-0.012708325
58	0x3cc9fe78	0.024657473
59	0x3c14d81e	0.0090847295
60	0xbd04a501	-0.032383922
61	0x3ce55d4e	0.027998593
62	0x3cfd0874	0.03088782
63	0xbb303e93	-0.0026892766
64	0xbc2bc3a7	-0.010483659
65	0xbba5f989	-0.0050651473
66	0x3d780a3e	0.060556643
67	0xbd88601e	-0.06658958
68	0xbd861221	-0.065464266
69	0x3c565919	0.013082766
70	0xbe06eb3b	-0.13175671
71	0x3daa1451	0.08304656
72	0x3cb086a3	0.021548575
73	0x3d63c8ac	0.055611297
74	0xbc499678	-0.012303941
75	0x3cd3035a	0.025758434
76	0xbd1f5720	-0.03890145
77	0xbdfaa52b	-0.122385345
78	0xbd0faa94	-0.035074785
79	0x3d6725d8	0.056432575
80	0xbdcd5dd5	-0.10027663
81	0xbc972e39	-0.018454658
82	0xbd342401	-0.04397965
83	0x3bfa282b	0.007634183
84	0x3d549c07	0.05190661
85	0x3bec4fa4	0.0072116423
86	0x3da88332	0.082281485
87	0xbd044cfd	-0.032299984
88	0x3cb95ff9	0.022628771
89	0x3bcabce6	0.006187069
90	0xbdeccb81	-0.11562253
91	0x3d03f527	0.032216217
92	0x3d05352d	0.032521416
93	0xbde64adb	-0.11244746
94	0x3b118bb8	0.0022208523
95	0x3b9e0962	0.004822896
96	0x3cb0d13d	0.021584148
97	0xbba72246	-0.0051005213
98	0x3dc7228e	0.09723388
99	0x3c7ab76c	0.01530252
100	0xbdc89003	-0.09793093
101	0xbdf01bdc	-0.11724064
102	0x3aa7c1ac	0.0012798808
103	0x3df8c4e9	0.12146933
104	0xbc10f86c	-0.008848291
105	0x3c979938	0.018505678
106	0x3d797ffa	0.060913064
107	0x3d3d08de	0.046151035
108	0xbda8ad83	-0.0823622
109	0xbcf6b179	-0.030113922
110	0xbcc448c9	-0.023960488
111	0xbc67e96e	-0.014154775
112	0x3c28e5d6	0.010308703
113	0xbccaab39	-0.024739848
114	0xbd7a0577	-0.061040368
115	0x3cd88f5c	0.026435547
116	0xbdc5415a	-0.096316054
117	0x3cca05f8	0.02466105
118	0xbd92e04c	-0.071716875
119	0x3d129d15	0.035794336
120	0xbdb6cc3a	-0.08925672
121	0xbdb532d4	-0.08847585
122	0x3d7a228a	0.061068095
123	0x3d49560e	0.049154334
124	0xbd81ea63	-0.06343534
125	0xbd8ff74f	-0.07029592
126	0xbc9df063	-0.019279664
127	0xbcf60885	-0.03003336
128	0x3d56946e	0.052387647
129	0x3cdf8458	0.027284786
130	0xbdc97e8c	-0.0983859
131	0x3d99f487	0.07517343
132	0xbd21be5c	-0.03948818
133	0x3e185677	0.14876734
134	0xbd53f52c	-0.051747486
135	0x3c7817dd	0.015142408
136	0x3bd72505	0.0065656924
137	0x3df9329f	0.12167858
138	0xbdcd9197	-0.10037535
139	0x3c39d1bb	0.011341508
140	0xbc824d71	-0.015906068
141	0xbe1f3692	-0.1554816
142	0x3da0fc6e	0.07860647
143	0xbc939690	-0.01801613
144	0xbe1eb3dd	-0.154983
145	0xbdebdb65	-0.115164556
146	0x3c40f46e	0.011777027
147	0x3da3d56b	0.079996906
148	0xbc88a344	-0.016679414
149	0xbdabb4fd	-0.0838413
150	0xbc5b97e6	-0.013402915
151	0xbd1d5eac	-0.038420364
152	0x3b150154	0.0022736387
153	0x3c3529fe	0.011057375
154	0xbddef3d6	-0.10886352
155	0xbcd51b6e	-0.026014056
156	0xbd56ef34	-0.052474216
157	0xbdd4d7d2	-0.10392727
158	0xbd9ea629	-0.07746536
159	0x3d9ddef5	0.07708541
160	0xbe17904e	-0.14801142
161	0x3da5c3bd	0.08093975
162	0x3d0787d9	0.03308854
163	0xbd5dad50	-0.05412036
164	0x3d101679	0.03517768
165	0xbe269b56	-0.16270193
166	0xbda1cba2	-0.07900168
167	0x3e161730	0.14657283
168	0xbdf7f90d	-0.121080495
169	0x3d40c933	0.04706688
170	0x3c971c30	0.018446058
171	0x3df36640	0.11884737
172	0x3d73836d	0.05945151
173	0xbd46f952	-0.048577614
174	0x3d97a0c1	0.07403708
175	0x3c97c925	0.01852853
176	0xbce836a8	-0.028346375
177	0xbc5dfd2d	-0.013549131
178	0x3c982828	0.018573835
179	0x3d539f98	0.051665872
180	0xbdd7b949	-0.10533387
181	0x3d5b5136	0.053544246
182	0x3ca0ede4	0.019644685
183	0x3da6b956	0.08140819
184	0xbd8f0da7	-0.06985026
185	0xbda7a529	-0.08185799
186	0x3d7d8b29	0.06190029
187	0xbbb02621	-0.005375639
188	0xbbbfaa8d	-0.0058491887
189	0xbd630408	-0.055423766
190	0xbdaaa753	-0.08332696
191	0x3b11faca	0.0022274726
192	0xbc75b8a0	-0.014997631
193	0x3dbfd020	0.093658686
194	0xbd8412c9	-0.064488955
195	0xbc7fd382	-0.015614392
196	0x3d41a764	0.047278777
197	0xbcbf1da7	-0.023329569
198	0x3d42d666	0.047567748
199	0x3d916b7c	0.07100579
200	0xbcf8db9c	-0.030378155
201	0x3d5b91f7	0.053606
202	0xbbf13639	-0.0073612
203	0x3d29ab96	0.041423403
204	0x3c5a3ff4	0.013320912
205	0x3c0c9268	0.008579828
206	0xbd405b8a	-0.0469623
207	0xbd7cbf33	-0.06170578
208	0xbd3a2165	-0.045442004
209	0xbcb47561	-0.022028627
210	0xbd2a7969	-0.041619692
211	0x3d04e512	0.03244502
212	0x3c9fc156	0.01950137
213	0xbbaf9156	-0.0053579016
214	0x3d365cb6	0.04452201
215	0x3d839a8f	0.06425964
216	0x3de847d0	0.11341822
217	0xbbb14eb1	-0.005410992
218	0xbdafea98	-0.08589667
219	0xbd4dd73d	-0.050254095
220	0x3d47217b	0.048615914
221	0x3d23bc01	0.039974216
222	0xbda072e1	-0.078344114
223	0x3da70502	0.08155252
224	0xbd983072	-0.07431115
225	0x3d5bac3d	0.053631056
226	0x3d390879	0.045174096
227	0xbc51da08	-0.01280833
228	0x3d26a4d6	0.040684544
229	0xbd868f48	-0.065702975
230	0xbbff2a7d	-0.0077870474
231	0x3dc9bdb6	0.098506376
232	0xbdec2c75	-0.11531917
233	0x3d492b21	0.049113397
234	0xbd0ef75b	-0.034903865
235	0x3dabd755	0.08390681
236	0xbdf6e9c3	-0.12056305
237	0xbd96b531	-0.07358778
238	0xbd4dc36c	-0.050235197
239	0xbcd1cf31	-0.025611492
240	0xb904d221	-0.0001266678
241	0xbd04004f	-0.032226857
242	0xbddfc7b8	-0.10926765
243	0xbd78f93a	-0.060784556
244	0x3d7e3190	0.062058985
245	0xbdd96c9a	-0.10616417
246	0xbc15b4e3	-0.009137365
247	0x3da4ff70	0.08056533
248	0x3d3a35c7	0.045461442
249	0xbced6999	-0.028981017
250	0x3d39e77f	0.045386788
251	0xbdaa29b6	-0.08308737
252	0x3d7773a9	0.060413036
253	0x3d073d79	0.03301761
254	0x3d41b165	0.047288317
255	0xbc321d4b	-0.010871242

lstm.bias_ih_l0 f4 [256]
0	0x3d9e6312	0.0773374
1	0x3e2eabfc	0.17057794
2	0x3e2ff558	0.17183435
3	0x3caa12c8	0.020760909
4	0x3d1872fb	0.03721903
5	0x3d76e9af	0.06028145
6	0xbd5fe692	-0.05466325
7	0xbcccbc9a	-0.024992276
8	0xbd9a1aa8	-0.075246155
9	0x3d9e7e68	0.07738954
10	0x3e024718	0.12722433
11	0xbb394246	-0.0028268262
12	0x3daa787a	0.0832376
13	0xbdd438c1	-0.103623874
14	0x3dff4fff	0.1246643
15	0xbd754be6	-0.059886836
16	0x3d8fdb94	0.07024303
17	0xbbf03b7b	-0.0073313094
18	0xbcca9f44	-0.024734147
19	0x3d8726c4	0.06599191
20	0x3df82282	0.12115957
21	0x3cafb3ff	0.021448134
22	0xbc5b38db	-0.013380255
23	0x3ddfd626	0.109295174
24	0xbdb04459	-0.08606786
25	0x3e054f49	0.13018526
26	0x3dbcf600	0.09226608
27	0x3d98f49b	0.0746853
28	0x3c4fa2da	0.012673104
29	0x3d646162	0.055756934
30	0xbd9ae46e	-0.07563101
31	0xbd3f44a1	-0.04669631
32	0xbcc795ae	-0.024363365
33	0xbba2ceb6	-0.0049684895
34	0xbbde79ff	-0.0067894454
35	0xbd14e406	-0.036350273
36	0x3d8de49e	0.06928371
37	0xbc887186	-0.016655695
38	0xbbc02195	-0.0058633783
39	0xbd62d2b9	-0.055376742
40	0xbd32bc1c	-0.043636426
41	0xbcaebeb6	-0.021331172
42	0xbd8c3979	-0.068468995
43	0xbd78f386	-0.060779117
44	0x3d347564	0.044057265
45	0xbd075945	-0.03304412
46	0xbcb33899	-0.021877574
47	0x3d2569d2	0.04038412
48	0xbd646f39	-0.055770133
49	0x3da916bd	0.0825629
50	0x3dd55040	0.10415697
51	0x3d01212c	0.031525776
52	0x3d90d033	0.07070961
53	0x3df58063	0.119873784
54	0x3d75ddc8	0.06002596
55	0xbd9e54ce	-0.07731019
56	0x3e253b2f	0.16135858
57	0x3db58df2	0.088649645
58	0x3dc9219c	0.098208636
59	0x3d8ba688	0.06818873
60	0x3ddb9eaf	0.10723626
61	0xbd279766	-0.04091587
62	0xbd03b5a5	-0.03215565
63	0x3d7f4f09	0.062331233
64	0xbd16bbe9	-0.0368003
65	0xbd5f9b4d	-0.054591466
66	0xbd242af7	-0.040080037
67	0x3e0a1ea7	0.13488255
68	0x3dbbc4e3	0.091684125
69	0xbd3e0099	-0.04638729
70	0xbcafdfe0	-0.021469057
71	0x3d1e0a7e	0.038584225
72	0xbdbadebe	-0.09124516
73	0x3bf4ad51	0.00746695
74	0x3ca89746	0.020579945
75	0xbb0ff654	-0.0021966891
76	0x3d4891a2	0.04896701
77	0x3db87202	0.0900612
78	0xbd4215a2	-0.047383912
79	0x3dfe9509	0.1243077
80	0x3d5432af	0.05180615
81	0xbc250098	-0.010070942
82	0x3ca134c8	0.019678488
83	0xbd3b2f39	-0.045699332
84	0x3de8a7f4	0.113601595
85	0xbd3923e9	-0.045200262
86	0x3d941047	0.07229667
87	0xbc56ed29	-0.013118067
88	0x3d95bc05	0.073112525
89	0xbc81002c	-0.015747152
90	0x3d6c2263	0.05764998
91	0x3dcc4e49	0.09975869
92	0x3cb2f948	0.021847382
93	0x3d1722db	0.036898475
94	0xbcb8232b	-0.022477707
95	0xbdc92b4a	-0.0982271
96	0x3b42a73a	0.0029701726
97	0xbd5fa954	-0.054604843
98	0x3d79ea56	0.061014496
99	0xbd4398a3	-0.047752988
100	0xbd9987c9	-0.07496602
101	0x3d81bbf7	0.063346796
102	0xbc96a05d	-0.018387014
103	0xbd9a1224	-0.07522991
104	0xbc5fb174	-0.013653148
105	0x3d72c839	0.05927298
106	0xbc9aaede	-0.018882211
107	0xbda32464	-0.07965925
108	0x3de12ebf	0.10995244
109	0x3d0afe92	0.033934183
110	0x3c15d734	0.009145547
111	0xbdbc0e8d	-0.09182463
112	0xbcb5de44	-0.022200711
113	0xbd44e834	-0.04807301
114	0x3c90ec63	0.017690843
115	0xbcd3cf3b	-0.025855651
116	0x3dbb1117	0.09134119
117	0x3e137744	0.14400965
118	0x3dca804a	0.098877504
119	0xbcc5bfaf	-0.024139253
120	0x3db1e1c4	0.086856395
121	0x3e1db04a	0.1539928
122	0x3cc58b97	0.024114413
123	0x3dd0b494	0.101906925
124	0x3e03036c	0.12794274
125	0x3d970b27	0.07375174
126	0x3db6095c	0.08888504
127	0x3b91debf	0.004451602
128	0x3c03a178	0.008034103
129	0x3c6c10b4	0.014408279
130	0x3ca5f2da	0.020257402
131	0xbd0ffcde	-0.035153262
132	0xbd39a845	-0.04532649
133	0x3da6932c	0.081335396
134	0xbcdf54a3	-0.027262038
135	0x3d4e0bb6	0.050304137
136	0xbbdc330f	-0.006719954
137	0xbd63e5b1	-0.055638973
138	0xbcce3c85	-0.025175342
139	0x3d35162b	0.044210594
140	0xbdd2652e	-0.10273205
141	0xbd8b85c4	-0.06812623
142	0x3dab2aee	0.083577976
143	0xbd9f3da6	-0.077754304
144	0x3dc57487	0.096413665
145	0xbd7fcf39	-0.062453482
146	0xbd937a9e	-0.07201122
147	0x3dab1931	0.08354414
148	0x3cc8bd52	0.024504337
149	0xbd88c1de	-0.06677602
150	0x3dae13d0	0.08499873
151	0x3d804654	0.06263414
152	0xbe0b31bf	-0.13593195
153	0xbdac5655	-0.08414904
154	0xbdee7a53	-0.11644425
155	0x3da9ee83	0.082974456
156	0x3b2e8184	0.002662749
157	0x3d1eb318	0.038745016
158	0xbd20e6ff	-0.039282795
159	0xbcfdc38b	-0.030977031
160	0xbd34c92a	-0.044137157
161	0xbc9f1961	-0.019421281
162	0x3dd5021b	0.10400792
163	0xbd238cbb	-0.039929133
164	0xbdfd4b3b	-0.12367865
165	0xbcf467d2	-0.029834662
166	0x3c5dc93d	0.0135367485
167	0xbd0f9ccd	-0.035061646
168	0x3db646ad	0.08900199
169	0x3da12f36	0.07870333
170	0x3dbd51f7	0.09244149
171	0xbd07c91f	-0.03315079
172	0xbccc32f1	-0.024926635
173	0xbd8edadb	-0.06975337
174	0xbe013e19	-0.12621345
175	0xbdde3ce1	-0.108514555
176	0xbde2e773	-0.11079302
177	0x3c735ee2	0.014854165
178	0x3d1d464e	0.038397126
179	0xbd7e1283	-0.062029373
180	0x3bd3f7ef	0.006468765
181	0xbd057a09	-0.032587085
182	0xbd3a11fb	-0.045427304
183	0x3d2ab38f	0.041675147
184	0x3da56ba9	0.08077175
185	0xbdbb5623	-0.09147289
186	0xbd11c31f	-0.035586473
187	0x3dabf7fa	0.08396907
188	0x3d980eae	0.07424675
189	0x3d2fa95c	0.042886123
190	0x3d3c5ede	0.04598891
191	0x3d6b8f8b	0.05750994
192	0x3d819816	0.06327836
193	0xbc69173a	-0.014226729
194	0x3de1aa3a	0.11018796
195	0xbb206cf1	-0.0024478997
196	0x3db2a749	0.08723313
197	0x3cccd343	0.025003081
198	0xbc7bc09e	-0.015365748
199	0xbd60fed3	-0.05493052
200	0x3d90e1ce	0.07074319
201	0x3db9131a	0.090368465
202	0xbd224181	-0.03961325
203	0x3c94a4cd	0.01814499
204	0x3d391652	0.045187302
205	0x3d57e4c5	0.052708406
206	0x3e258ad2	0.16166237
207	0x3ca9b198	0.020714566
208	0xbcb1d7ec	-0.021709405
209	0x3e03eb76	0.1288279
210	0x3d9bf86e	0.076157436
211	0x3d943cee	0.07238184
212	0x3dcb5b1e	0.099294886
213	0xbc50004e	-0.012695385
214	0x3d9b43e2	0.07581307
215	0x3e09baad	0.13450117
216	0x3e05d23a	0.13068476
217	0xbcdbaef4	-0.026816823
218	0xbcc57c4b	-0.024107119
219	0xbd5fbfcd	-0.054626275
220	0x3df0c97e	0.117571816
221	0x3d959d15	0.07305352
222	0xbd79571c	-0.06087409
223	0x3db46281	0.08807851
224	0xbdc14a2e	-0.09437977
225	0x3d683b48	0.05669716
226	0xbd4fda84	-0.050745502
227	0x3da4d9ed	0.080493785
228	0x3e094b7d	0.13407703
229	0x3d387b33	0.045039367
230	0x3d617331	0.055041496
231	0xbab853f4	-0.0014063106
232	0x3e0d2835	0.13784869
233	0xbd684c3b	-0.056713324
234	0x3a252638	0.00062999455
235	0x3c31ee87	0.010860092
236	0x3dc2b2e5	0.09506778
237	0x3db65f45	0.0890489
238	0xbd946d57	-0.072474174
239	0x3d2ba7f5	0.041908223
240	0x3df94596	0.121714756
241	0xbcc3f1ff	-0.023919104
242	0xbb348e22	-0.0027550538
243	0x3d696e17	0.056989755
244	0x3d4157b9	0.0472028
245	0x3d2f55b8	0.042806357
246	0x3e0c94cc	0.13728637
247	0x3cc10d28	0.023565844
248	0x3dab94b4	0.08377972
249	0xbcac0d35	-0.021002391
250	0xbd6f9d7a	-0.05849979
251	0x3dce03e9	0.100593396
252	0xbc83a479	-0.016069638
253	0x3ba47e5b	0.0050199456
254	0x3d554ebc	0.05207704
255	0xbd7ee6dd	-0.062231887

lstm.bias_hh_l0 f4 [256]
0	0x3ded83cb	0.11597403
1	0x3cdb55bb	0.026774278
2	0x3e329523	0.17439704
3	0x3d6e9146	0.058244012
4	0xbdbf7a02	-0.09349443
5	0xbc17c7c5	-0.009263937
6	0xbda92b26	-0.08260183
7	0xbcdaee32	-0.026724909
8	0x3dbd2e73	0.09237375
9	0xbdda1fc6	-0.106505916
10	0xbd941017	-0.072296314
11	0xbcb99c1e	-0.02265745
12	0x3cd89986	0.026440393
13	0x3d9e608b	0.07733258
14	0xbc904579	-0.017611252
15	0xbd117cdb	-0.035519462
16	0xbd95099f	-0.07277226
17	0x3cd93200	0.0265131
18	0xbdbc05f4	-0.09180823
19	0x3d80733c	0.06271979
20	0x3c896826	0.016773295
21	0x3d31927a	0.04335258
22	0x3d9d1cfd	0.07671545
23	0x3d38a1ec	0.045076296
24	0x3df2c602	0.11854173
25	0xbd4b61b7	-0.049653735
26	0xbb803d12	-0.00391353
27	0x3cbe9d4c	0.023268364
28	0xbd94a0c4	-0.07257226
29	0xbd0789f6	-0.033090554
30	0x3a3461ea	0.00068810454
31	0x3d609b4e	0.05483561
32	0x3db2ae43	0.08724644
33	0xbd3b7c3e	-0.045772783
34	0xbdcfc195	-0.10144345
35	0x3d44aaf3	0.048014592
36	0x3d33786d	0.04381602
37	0xbda49b7a	-0.08037467
38	0xbcfd90cf	-0.03095284
39	0x3d0c5646	0.034261964
40	0x3d2adee6	0.04171648
41	0xbd86fdd8	-0.065913856
42	0x3df96b07	0.12178617
43	0xbda78f5e	-0.08181642
44	0x3d32c43c	0.043644175
45	0xbb1f2520	-0.0024283603
46	0x3ce26f3c	0.027640931
47	0xbd9305ed	-0.07178865
48	0x3ddc46f2	0.10755719
49	0x3c1e6cc5	0.009669487
50	0x3d58008b	0.052734893
51	0x3dc320d9	0.095277496
52	0x3ddcfb86	0.10790162
53	0xbd0eb4ab	-0.034840267
54	0x3df58fc6	0.11990313
55	0xbd985214	-0.0743753
56	0x3da60f33	0.08108368
57	0x3dddd224	0.10831097
58	0x3d309392	0.043109484
59	0x3d3c2beb	0.04594032
60	0x3e15f74f	0.14645122
61	0x3d597881	0.053093437
62	0x3d430ad9	0.047617767
63	0x3d50073b	0.050788146
64	0xbce214be	-0.027597781
65	0x3e0d065e	0.1377196
66	0xbcaa5a5f	-0.020795045
67	0x3db0249e	0.08600734
68	0x3cc43169	0.023949342
69	0xbac071fd	-0.0014682409
70	0x3d69c1f4	0.057069734
71	0xbbf4510c	-0.0074559506
72	0xbda75ad3	-0.0817162
73	0xbc3087c2	-0.010774555
74	0x3dca36a0	0.098737
75	0xbd6f4681	-0.058416847
76	0xbda58294	-0.080815464
77	0xbdc928b4	-0.09822217
78	0xbd3502be	-0.04419207
79	0x3d9be949	0.07612855
80	0x3c93f277	0.018059952
81	0x3db99da6	0.09063272
82	0xbb3485f4	-0.0027545663
83	0x3d5fd019	0.054641817
84	0x3c2239fe	0.009901522
85	0x3b859490	0.004076548
86	0xbdc9033d	-0.09815071
87	0x3d9cf4cd	0.076638795
88	0xbb829e62	-0.003986166
89	0xbcd08363	-0.025453275
90	0xbd071fec	-0.032989427
91	0xbcea4ed8	-0.028602049
92	0x3e099709	0.13436522
93	0x3d81354d	0.063089944
94	0x3da22c3a	0.07918592
95	0xbc7545e4	-0.0149702765
96	0x3d543bbf	0.05181479
97	0x3d7d708c	0.06187491
98	0x3de872e0	0.11350036
99	0xbd15ad8f	-0.03654247
100	0xbdab6bcb	-0.08370169
101	0x389f9ec6	7.611285e-05
102	0xbd80405d	-0.06262276
103	0x3dd88b51	0.105734475
104	0x3de56f1a	0.112028316
105	0xbda1918d	-0.0788909
106	0xbd612d3c	-0.05497478
107	0xbdb52ad3	-0.08846059
108	0xbbcc2f03	-0.00623119
109	0x3c9b1941	0.01893294
110	0xbd9d5811	-0.07682813
111	0xbd4f1fee	-0.05056756
112	0xbd066462	-0.032810576
113	0xbd53d1af	-0.05171364
114	0x3d5c790a	0.05382637
115	0x3d189ca8	0.037258774
116	0x3d937c09	0.07201392
117	0x3cb940a7	0.022613836
118	0xbd02c4e8	-0.031926066
119	0xbd677a31	-0.056513015
120	0xbcaff61a	-0.021479655
121	0x3e179967	0.14804612
122	0xbd8407ff	-0.06446838
123	0x3cb8413b	0.022492042
124	0x3e015ec9	0.12633814
125	0x3e00b4cb	0.12568967
126	0xbd33739d	-0.04381143
127	0xbd023f55	-0.03179868
128	0xbc56e38c	-0.013115775
129	0x3de23716	0.11045663
130	0xbcb9a253	-0.02266041
131	0x3d6e3db3	0.05816431
132	0x3d8d8800	0.069107056
133	0xbde232ed	-0.110448696
134	0x3cfd7eb1	0.0309442
135	0xbd0dec35	-0.034649093
136	0xbda3d9d7	-0.08000534
137	0xbdef3024	-0.11679104
138	0x3de86e40	0.113491535
139	0xbdb49892	-0.08818163
140	0xbda2e754	-0.079542786
141	0xbd7bd601	-0.061483387
142	0xbd82427d	-0.06360338
143	0x3aeab10d	0.0017905548
144	0xbdcc0a1c	-0.09962866
145	0x3cc2f7b8	0.023799762
146	0x3c8815ed	0.016612018
147	0xbd4b80c9	-0.049683366
148	0x3dae5818	0.08512896
149	0xbd9a5dca	-0.0753742
150	0xbdbabf6e	-0.091185436
151	0x3daaf362	0.08347203
152	0x3d7a9e3e	0.061186068
153	0xbba635cd	-0.0050723315
154	0x3d771bf7	0.060329404
155	0x3dd497c8	0.103805125
156	0xbd78424c	-0.0606101
157	0x3b9b2e0c	0.004735714
158	0xbdb4095a	-0.08790846
159	0xbc41029d	-0.011780408
160	0x3d7e7266	0.062120818
161	0x3da429cb	0.08015784
162	0xbc84e356	-0.016221683
163	0x3a9091ba	0.0011029758
164	0xbc8bd148	-0.017067567
165	0x3c90652b	0.017626366
166	0xbd875755	-0.06608454
167	0xbc523c8c	-0.012831818
168	0x3ddb1817	0.10697954
169	0x3d5bdf3a	0.053679682
170	0xbd08341b	-0.033252817
171	0x3dab19b3	0.08354511
172	0xbd8257e1	-0.06364418
173	0x3cfbff77	0.030761464
174	0x3ddaf120	0.10690522
175	0xbd37af73	-0.044845056
176	0x3d427f00	0.047484398
177	0xbc9e5aed	-0.019330466
178	0x3d62d091	0.055374686
179	0xbdc429a5	-0.095782556
180	0x3d68445a	0.05670581
181	0x3dc8f2c8	0.09811932
182	0xbd52c623	-0.05145849
183	0x3d95bcb5	0.07311384
184	0xbcfbd67e	-0.030741926
185	0x3dd7e44a	0.105415896
186	0x3d9cfb5c	0.076651305
187	0xbde0de43	-0.10979893
188	0x3d1cef7b	0.038314324
189	0xbc8aa234	-0.016923048
190	0x3c834da5	0.016028235
191	0xbdd9fe1b	-0.1064417
192	0xbd1a900c	-0.03773503
193	0x3b72a771	0.0037026072
194	0xbd150352	-0.03638012
195	0x3e01f2c4	0.12690264
196	0x3b83f1bd	0.00402662
197	0x3d4cfc32	0.0500452
198	0xbd2d322c	-0.042284176
199	0xbc5bcfc0	-0.013416231
200	0xbb327895	-0.0027232517
201	0x3be8469c	0.0070884954
202	0xbd6e4ffd	-0.05818175
203	0x3d2e86b6	0.04260894
204	0xbda022a3	-0.078191064
205	0x3dd16ca5	0.102258004
206	0xbd1decd3	-0.03855593
207	0xbcedb8a2	-0.029018704
208	0x3ca75ce1	0.02043003
209	0xbcd9f1cc	-0.026604556
210	0x3ae4a193	0.0017443172
211	0x3d529832	0.051414676
212	0x3dadb86e	0.08482443
213	0xbddbfa99	-0.10741157
214	0xbdc73743	-0.09727337
215	0x3da3aabb	0.07991549
216	0x3dec689d	0.11543391
217	0x3dc1859f	0.09449314
218	0x3d806c4a	0.062706545
219	0xbd08dd96	-0.033414446
220	0x3dcc5b60	0.09978366
221	0x3aabbcfd	0.0013102588
222	0x3c8eb441	0.017419936
223	0x3d039060	0.03212011
224	0x3de732e3	0.11289003
225	0x3d89021d	0.06689856
226	0xbd1ff27f	-0.03904962
227	0xbb805807	-0.0039167437
228	0x3cf7252b	0.03016909
229	0xbda15639	-0.07877774
230	0x3e1d14b3	0.15339927
231	0x3b822b95	0.0039724805
232	0x3d42a341	0.047518972
233	0x3e18b476	0.1491259
234	0xbcd0106b	-0.025398454
235	0x3d92beed	0.071653225
236	0xbdc3c707	-0.09559446
237	0x3dcac799	0.099013515
238	0x3e08ede3	0.13371997
239	0xbdabfbd4	-0.08397642
240	0xbd6870a8	-0.056748062
241	0xbd0e2e12	-0.034711905
242	0x3d810ee3	0.063016675
243	0x3d3cf063	0.04612769
244	0x3bad66d6	0.0052918
245	0x3df43d50	0.11925757
246	0x3e1a073a	0.15041819
247	0xbd146c34	-0.036236003
248	0x3d488f55	0.048964817
249	0xbcd743b4	-0.0262774
250	0x3c007e84	0.007842664
251	0xbd779cec	-0.060452387
252	0x3e0358b6	0.1282681
253	0x3d89e421	0.06732965
254	0x3d8e5126	0.069490716
255	0xbd8808b0	-0.06642282

lstm.weight_ih_l0_reverse f4 [256, 99]
0	0xb86670cb	-5.494132e-05
1	0xbd5a297f	-0.05326223
2	0x3ae5ea39	0.0017541117
3	0x39476913	0.00019017262
4	0x3be30dcf	0.0069291363
5	0xbbe4fa5a	-0.006987852
6	0x39c55e13	0.0003764486
7	0x3d821244	0.0635114
8	0xbca104a6	-0.019655537
9	0x3934ff4e	0.00017261246
10	0xbbb28e63	-0.0054491027
11	0xbc7a85e2	-0.015290709
12	0xba6bafcc	-0.00089907343
13	0x3c23ac1c	0.009989765
14	0xbd0cdaa0	-0.034388185
15	0xba43d356	-0.0007470151
16	0x3a98088e	0.0011599229
17	0x3c35ce93	0.011096614
18	0xba3b6e98	-0.00071499636
19	0xbd16d992	-0.036828585
20	0xbd17715a	-0.036973335
21	0x3bdc89d6	0.0067302985
22	0xbcd1ef30	-0.025626749
23	0xbba401e2	-0.0050051073
24	0xbbed2d1f	-0.007238045
25	0xbbcf627e	-0.00632888
26	0xbb4f283e	-0.003160968
27	0x399cb57f	0.00029889864
28	0xbd8ccbea	-0.06874831
29	0xbc7f3859	-0.015577399
30	0xba80a225	-0.0009813948
31	0xbda00b0a	-0.078146055
32	0x3b42c4f7	0.002971945
33	0xbc23a87f	-0.009988903
34	0xbd83cdfc	-0.06435773
35	0xbb5e52ae	-0.0033923793
36	0xbc4ce12f	-0.01250486
37	0x3d6230ad	0.055222202
38	0xb9a52d30	-0.0003150492
39	0xbd132b5b	-0.03593002
40	0x3a85f87f	0.0010221152
41	0x3b71441b	0.0036814276
42	0xbbd05b53	-0.006358543
43	0xbd23686a	-0.0398945
44	0xbbdad1a5	-0.0066778236
45	0x3d80b1ff	0.0628395
46	0xbd723356	-0.05913099
47	0xbd0cb1cc	-0.034349248
48	0xbd1f49a2	-0.03888858
49	0x3d754699	0.05988178
50	0xbcf818f2	-0.030285332
51	0x3d0a38c3	0.03374554
52	0x3d30a3f8	0.043125123
53	0x3d337a13	0.04381759
54	0xbd6958a6	-0.056969307
55	0x3ce58081	0.028015377
56	0x3c96d99d	0.018414313
57	0xbbdf6809	-0.006817822
58	0x3cb021c1	0.02150047
59	0x3c5f6a97	0.013636253
60	0x3d33e02f	0.04391497
61	0xbd3a46fc	-0.045477852
62	0xbd56d937	-0.052453246
63	0xbd3147a3	-0.04328121
64	0xbd735a7a	-0.059412457
65	0xbb6d4361	-0.003620349
66	0x3d37820b	0.044801753
67	0x3d1c2aa1	0.03812659
68	0x3d24869c	0.040167436
69	0x3c5d98a4	0.013525162
70	0x3937d2f6	0.00017530829
71	0xb92120fb	-0.00015366443
72	0xba3359df	-0.00068417
73	0xb92ceb1f	-0.00016490788
74	0x392f1a96	0.00016699205
75	0x3b6534b7	0.0034974047
76	0x3c53ee02	0.012935163
77	0xbaf3d98a	-0.001860426
78	0xbc85f4f7	-0.01635216
79	0x3d3a97d6	0.04555496
80	0xbb2e7cc6	-0.0026624664
81	0x3c1802d6	0.00927802
82	0xbbc8a0f5	-0.006122703
83	0x3bce0e14	0.0062882993
84	0x3a652f8f	0.00087427435
85	0x3d08ce9f	0.033400174
86	0x3c0094ee	0.007848008
87	0xbb4c1f12	-0.003114645
88	0xbd92b474	-0.07163325
89	0x3c0a1f70	0.008430347
90	0x3b4f127e	0.0031596716
91	0x3dd33062	0.10311963
92	0xba9f8785	-0.0012171125
93	0x3c81dee5	0.015853355
94	0x3d1664eb	0.036717337
95	0xbb38b950	-0.0028186627
96	0x3b5b5ab6	0.0033470816
97	0x3d22eb83	0.039775383
98	0xbb8ac67c	-0.004235087
99	0x3a888b1f	0.0010417438
100	0xbdf15950	-0.11784613
101	0xbc077845	-0.008268421
102	0x3b4c5c2b	0.0031182866
103	0x3d646757	0.055762615
104	0x3c3f015e	0.011658041
105	0x3b017b28	0.0019757245
106	0xbcb0f3ad	-0.021600569
107	0x3cc4e02e	0.024032678
108	0x3aac81b0	0.0013161208
109	0xbd81f738	-0.06345981
110	0xbcb1fc7e	-0.021726843
111	0xba97a2f4	-0.001156895
112	0x3bd95a7d	0.0066331015
113	0x3cf63ec5	0.030059228
114	0xbab2afd0	-0.0013632718
115	0xbbba4f5e	-0.005685731
116	0xbc9f7d3a	-0.019468892
117	0xb9de3c6c	-0.00042388157
118	0xbde5a4f7	-0.11213105
119	0xbcd78bd4	-0.026311792
120	0x3bdafc8b	0.0066829375
121	0xbce3ce4d	-0.027808333
122	0x3c0242e6	0.00795052
123	0xbb3a234c	-0.0028402386
124	0x3d3adacb	0.045618813
125	0x3c47d84e	0.012197567
126	0x3b936af1	0.0044988324
127	0x3c0ee362	0.0087212045
128	0xbca4cbf8	-0.020116791
129	0xba75fa53	-0.00093833095
130	0xbc9fcfe8	-0.019508317
131	0x3be7a111	0.007068761
132	0x3b8aefd5	0.004240016
133	0x3d05e2b7	0.032686915
134	0x3c5789c7	0.013155407
135	0xbc1ad239	-0.009449535
136	0x3d43ab56	0.04777082
137	0x3c564ded	0.013080102
138	0xbc5edad0	-0.013601974
139	0x3d11be5f	0.035581943
140	0xbc96ad32	-0.018393133
141	0x3ca45607	0.020060552
142	0xbd8abcba	-0.06774278
143	0xbcee2213	-0.029068982
144	0xbbb350a4	-0.0054722596
145	0x3c4996c8	0.012304015
146	0xbd85fb06	-0.065420195
147	0x3cab9971	0.02094719
148	0xbd9b52db	-0.07584163
149	0xbdcea345	-0.10089735
150	0xbc985d4e	-0.018599179
151	0xbbcbd9fe	-0.006221055
152	0xbb6ef988	-0.003646465
153	0x3cdfc15f	0.027313886
154	0xbd8deb89	-0.069296904
155	0x3d0bb003	0.034103405
156	0xbd260a51	-0.040537182
157	0xbdc1ff26	-0.09472494
158	0x3c9186ff	0.017764566
159	0xbd7626d1	-0.060095612
160	0x3c0f59e5	0.00874946
161	0xbda9280d	-0.08259592
162	0xbcc14b54	-0.02359549
163	0xbc6de352	-0.014519529
164	0xbdf281e7	-0.11841183
165	0xbd735587	-0.059407737
166	0xbc803af8	-0.015653118
167	0xbd432cca	-0.047650136
168	0x3cb1096a	0.021610934
169	0x3905478f	0.00012710526
170	0xb948c981	-0.00019148552
171	0xbc43cb50	-0.011950329
172	0xb90622a1	-0.00012792136
173	0x3946548a	0.00018914245
174	0x3d200e5d	0.039076198
175	0x3cf94109	0.030426519
176	0xbaf38bec	-0.0018581129
177	0x3b29818a	0.0025864565
178	0x3dcbad52	0.099451676
179	0x3a0c1215	0.00053432706
180	0x3d2beb99	0.04197273
181	0xbd950444	-0.07276204
182	0x3cb4ee76	0.022086363
183	0x3c81e662	0.015856925
184	0xbced1cec	-0.028944455
185	0xbcd3c50a	-0.025850791
186	0x3cb1b6b1	0.02169356
187	0x3df0124d	0.117222406
188	0xbc40b29f	-0.011761337
189	0x3c690733	0.014222908
190	0x3dd80aec	0.10548958
191	0x3c93fa6b	0.018063745
192	0x3cd62c7d	0.02614426
193	0x3da318f8	0.07963747
194	0xbbc79f8f	-0.006092019
195	0x3cd2f0e0	0.025749624
196	0x3dade844	0.08491567
197	0xbcac5041	-0.021034362
198	0x3c1c9c2a	0.009558717
199	0xbe00af9d	-0.12566991
200	0x3da48f16	0.08035104
201	0x3cdb8681	0.026797535
202	0x3d05502c	0.03254716
203	0xbd6d1154	-0.057877854
204	0x3cf37e5d	0.02972334
205	0xbb8b2430	-0.0042462572
206	0xbd058edd	-0.03260695
207	0xbc4d5614	-0.01253273
208	0x3cf0b9d0	0.029385477
209	0x3d9ba3e8	0.07599622
210	0xbc8d79d3	-0.017270004
211	0x3d1d3842	0.03838373
212	0x3d9f503f	0.077789776
213	0x39dc1ff5	0.0004198548
214	0xbbc8c065	-0.006126451
215	0x3c24af95	0.010051628
216	0xbba547c6	-0.0050439565
217	0xbd772460	-0.060337424
218	0x3c1bde79	0.009513491
219	0x3d312d1e	0.043255918
220	0x3d18f105	0.03733923
221	0x3d2f5718	0.04280767
222	0x3ccd8e45	0.025092253
223	0x3dbc390f	0.091905706
224	0xbba4f3c8	-0.005033944
225	0xbc0b4902	-0.008501293
226	0x3d240a18	0.04004869
227	0x3ccc1383	0.024911648
228	0x3ca2ce61	0.0198738
229	0xbdcb0e33	-0.09914818
230	0x3ca8f9a4	0.02062685
231	0xbcab0608	-0.0208769
232	0xbd204487	-0.039127853
233	0x3ced8404	0.028993614
234	0xbcb89100	-0.022530079
235	0xbd1f0d62	-0.038831122
236	0x3c03b9f8	0.008039944
237	0x3d51ffad	0.051269222
238	0xbdab69dd	-0.08369801
239	0x3c8d6f16	0.017264884
240	0xbd9b2c22	-0.07576777
241	0x3d9473f8	0.07248682
242	0x3d096d0e	0.03355127
243	0x3dcd9415	0.1003801
244	0x3d9bb98c	0.0760375
245	0xbdf1fd31	-0.118158706
246	0x3b22a12d	0.0024815307
247	0x3d0b98ac	0.034081146
248	0xbdaf2d07	-0.0855351
249	0xbd9d726f	-0.07687842
250	0x3cd5e02a	0.026107866
251	0xbde8c3b8	-0.113654554
252	0x3d7e04d8	0.062016338
253	0x3a5805ef	0.000824063
254	0x3d32d7f4	0.04366298
255	0xbc7b0c4e	-0.015322758

lstm.weight_hh_l0_reverse f4 [256, 64]
0	0xbcae8a75	-0.021306256
1	0x3cc740c3	0.024322873
2	0xbd1d21be	-0.038362257
3	0x3d29248e	0.041294627
4	0xbc376a53	-0.011194783
5	0xbd557063	-0.052109133
6	0xbb859e7d	-0.004077731
7	0x3ca70f7f	0.020393131
8	0xbc56466f	-0.013078316
9	0x3d08b54d	0.033376027
10	0xbd44640f	-0.047946986
11	0x3d561f53	0.052275967
12	0x3c8b9a04	0.017041214
13	0x3cdd9a6f	0.027051179
14	0x3c9656fa	0.01835202
15	0xbbf45220	-0.007456079
16	0x3c91a3b7	0.01777826
17	0x3cd2c20e	0.025727298
18	0xbc5585af	-0.013032361
19	0x3c328c9d	0.010897783
20	0x3d1d57ca	0.0384138
21	0x3bb7afc6	0.0056056706
22	0x3cccfbb8	0.025022373
23	0xbd3b7bcc	-0.04577236
24	0xbb8dbe85	-0.00432569
25	0xbbaa4a2e	-0.005196831
26	0x3d71f7bb	0.059074145
27	0x3b8e26a7	0.004338104
28	0x3c1cae98	0.009563111
29	0xbd1c9ac8	-0.03823355
30	0xbc81f038	-0.015861616
31	0x3d35eff9	0.04441831
32	0xbd052fdb	-0.03251634
33	0x3c377ade	0.011198727
34	0x3b05f3cc	0.0020439504
35	0x3d21198d	0.039331008
36	0x3b2d0fa0	0.0026407018
37	0x3ca575ad	0.020197714
38	0xbbb01b01	-0.005374313
39	0xbcbf31d6	-0.023339193
40	0xbd0e5ba3	-0.03475536
41	0xbd141903	-0.036156666
42	0xbd684c29	-0.056713257
43	0x3ca61edb	0.020278385
44	0xbb87b5a9	-0.0041415286
45	0xbdb8791a	-0.09007473
46	0x3b636590	0.0034697987
47	0x3c96e9ce	0.018422034
48	0xbd6d59f8	-0.05794713
49	0xbcaa0d67	-0.020758344
50	0x3ce71162	0.028206531
51	0x3d43b469	0.047779474
52	0xbcf5cb1f	-0.030004082
53	0x3d14f9c5	0.03637101
54	0xbcb4783c	-0.022029988
55	0xbd2331cc	-0.039842412
56	0xbd5a53c7	-0.053302553
57	0xbbd19e5b	-0.0063970513
58	0xbd55ff7f	-0.052245613
59	0x3c382b60	0.01124081
60	0xbd5e745d	-0.05431019
61	0xbd3fd679	-0.046835396
62	0x3d71be70	0.059019506
63	0x3b973c99	0.004615378
64	0xbc481b5c	-0.012213554
65	0xbc268f9f	-0.010166078
66	0x3d9a6acf	0.07539903
67	0x3ccc0da4	0.024908848
68	0x3d2c42be	0.042055838
69	0xbcf92d5e	-0.03041714
70	0x3dc0702f	0.09396397
71	0xbcaf9cad	-0.021437014
72	0x3d445667	0.047933962
73	0xbd4f3bf3	-0.05059428
74	0x3ca0d104	0.019630916
75	0x3cb30bd0	0.021856219
76	0x3c55a156	0.013038954
77	0xbca2bbab	-0.019864878
78	0x3c679657	0.014134965
79	0xbd40038f	-0.046878394
80	0xbca72da1	-0.0204075
81	0x3ce6f9bb	0.028195253
82	0xbc316beb	-0.010828952
83	0xbd334861	-0.043770198
84	0x3c30117f	0.010746359
85	0x3d79ea43	0.061014425
86	0x3cae7fbf	0.021301148
87	0xbd75e4a7	-0.060032513
88	0xbceb4a91	-0.02872208
89	0xbd6754ff	-0.056477543
90	0x3c82cd0e	0.015966918
91	0x3d50122c	0.05079858
92	0xbd22c9a1	-0.03974307
93	0x3c0526bb	0.00812691
94	0x3cc09477	0.023508294
95	0x3d4d0b73	0.050059747
96	0xbd24d67d	-0.040243614
97	0x3d3f74d3	0.04674227
98	0x3d2e881a	0.042610265
99	0xbd262a35	-0.040567596
100	0x3b5f19f1	0.0034042562
101	0x3d83766b	0.06419071
102	0x3d202b11	0.03910357
103	0x3d1aaed9	0.037764404
104	0xbd1a3f19	-0.03765783
105	0xbd52528d	-0.051348258
106	0x3caaafc2	0.020835761
107	0x3d35fe01	0.04443169
108	0xbd3f4fa6	-0.046706818
109	0xbc8da7cf	-0.017291931
110	0xbc968cd8	-0.018377706
111	0xbc4a17bc	-0.01233476
112	0xbc86281d	-0.01637655
113	0x3d249df2	0.04018969
114	0x3d17c19f	0.037049886
115	0xbd140841	-0.036140684
116	0x3d0fd951	0.03511936
117	0xbc3ec9a0	-0.011644751
118	0x3d48fed2	0.04907114
119	0xbdc62b00	-0.0967617
120	0x3c2cad60	0.010539383
121	0x3d24a66b	0.04019777
122	0xbc083dd3	-0.008315521
123	0x3cc1a31a	0.023637343
124	0x3ac02103	0.0014658276
125	0xbd424e71	-0.04743809
126	0x3d8198f3	0.06328001
127	0x3d1349ba	0.035958983
128	0x3d47e95f	0.048806544
129	0x3ded72da	0.11594172
130	0xbbaede60	-0.0053365678
131	0x3dedc638	0.11610073
132	0x3cb5c720	0.022189677
133	0x3d0ffd4b	0.03515367
134	0x3db0d1ce	0.08633767
135	0xbd46964b	-0.048483174
136	0x3ceebe2f	0.029143421
137	0x3d1e494c	0.03864412
138	0xbc949c75	-0.01814101
139	0xbc7f07a5	-0.015565787
140	0xbd515033	-0.051101875
141	0x3c5a763b	0.013333852
142	0x3cc0bbae	0.023526993
143	0x3ca6017a	0.020264376
144	0x3d67b59f	0.05656969
145	0xbd64868a	-0.05579237
146	0xbd4cb37c	-0.049975857
147	0x3d0abccf	0.03387147
148	0x3d49ad6b	0.04923765
149	0x3ca34efe	0.019935127
150	0xbd4a6449	-0.049412046
151	0xbda08907	-0.07838636
152	0x3d15d826	0.03658309
153	0xbc8e4165	-0.017365167
154	0x3de965db	0.113963805
155	0x3dec3a21	0.11534525
156	0x3db99504	0.090616256
157	0xbd73a284	-0.05948116
158	0x3bc83696	0.006110023
159	0xbbd868f0	-0.0066043064
160	0x3d046c55	0.032329876
161	0xbce5010a	-0.027954597
162	0xbdd695e3	-0.104778074
163	0xbd2a4911	-0.041573588
164	0x3cf4dfd4	0.029891886
165	0xb9dd4324	-0.00042202428
166	0xbd845d59	-0.06463117
167	0xbcba3650	-0.022730976
168	0x3db1865b	0.086682044
169	0x3d89d216	0.06729524
170	0xbbfa71d8	-0.0076429658
171	0x3dce05c3	0.10059693
172	0x3c3ef963	0.011656138
173	0xbdb174be	-0.08664845
174	0x3c1fb37b	0.009747381
175	0xbd70bd6f	-0.058774408
176	0xbe0d9eb4	-0.13830072
177	0x3d934215	0.071903385
178	0xbc8f5097	-0.017494483
179	0x3dc933fd	0.09824369
180	0xbd9a3c6b	-0.07531055
181	0x3dea7ad4	0.11449209
182	0x3cc5b2d3	0.024133122
183	0xbcd2543c	-0.025674932
184	0x3d969b3f	0.073538296
185	0x3d1c356a	0.038136877
186	0x3bedaa5b	0.007252974
187	0x3d5fc594	0.054631785
188	0x3daa00d9	0.08300943
189	0x3d141d8c	0.03616099
190	0x3d8d5edf	0.06902861
191	0xbce8242c	-0.02833756
192	0xbaab21b6	-0.0013056311
193	0xbc8080e3	-0.015686458
194	0xbc342306	-0.010994678
195	0xbbff3472	-0.0077882344
196	0xbb7f2168	-0.0038929824
197	0xbd2e0281	-0.042482857
198	0xbd5e4661	-0.054266337
199	0xb86059f2	-5.348953e-05
200	0xbcab325e	-0.02089804
201	0xbaefc8a3	-0.0018294047
202	0xbb584245	-0.0032998484
203	0xbd4ab772	-0.049491353
204	0xbad02d58	-0.0015882654
205	0xbbcd828a	-0.006271665
206	0x3d2d3176	0.042283498
207	0xbcbfcd51	-0.023413332
208	0x3cf888be	0.030338641
209	0x3cb01148	0.021492615
210	0x3c6adedb	0.014335359
211	0xbbba5a74	-0.0056870524
212	0xbbb6b294	-0.0055754874
213	0xbd7eaffc	-0.06217955
214	0x39b9f7a8	0.00035470468
215	0x3d90434a	0.07044084
216	0xbcb2d57b	-0.021830311
217	0x3c46f937	0.012144378
218	0x3b884fe2	0.0041599134
219	0x3c93bd1d	0.018034512
220	0xbc872d0f	-0.016500978
221	0xbd4f8708	-0.050665885
222	0xbcd3f7ab	-0.025874933
223	0x3b1a36aa	0.0023531117
224	0x3930a9b7	0.00016847892
225	0xbd590160	-0.052979827
226	0xbd8b2f57	-0.06796139
227	0x3cb49cb2	0.022047374
228	0x3b692b97	0.003557896
229	0xbc297646	-0.01034314
230	0x3c0103d1	0.007874445
231	0x3a4d2ba8	0.00078266347
232	0x3d3cebb6	0.04612323
233	0xb9ef5302	-0.00045647478
234	0xbd241f69	-0.040069018
235	0x3d0800cb	0.03320388
236	0xbd081e9d	-0.03323232
237	0xbac897a5	-0.0015303983
238	0xbb0db52c	-0.002162288
239	0x3ca5b535	0.020228008
240	0xbd16338f	-0.036670264
241	0x3ca184d2	0.019716654
242	0x3cdb9b90	0.026807576
243	0x3d56d3bb	0.052448016
244	0x3b11fc87	0.0022275762
245	0x3d3e3632	0.046438403
246	0x3b00b33b	0.001963808
247	0xbd5dc773	-0.054145288
248	0x3cca3cfd	0.024687285
249	0x3b2e9221	0.0026637393
250	0x3c7837d8	0.015150033
251	0xbc3b18a8	-0.011419453
252	0x3d02e54b	0.031956952
253	0xbd73a4c1	-0.059483293
254	0xbbda2e80	-0.0066583753
255	0xbc96b3d5	-0.018396297

lstm.bias_ih_l0_reverse f4 [256]
0	0xbd9c443e	-0.07630204
1	0x3de6e402	0.11273958
2	0xbdc6c700	-0.09705925
3	0xbcbf4fb1	-0.02335343
4	0xbd9cdf7c	-0.07659814
5	0x3d7bcb2e	0.061473064
6	0x3e0d7a10	0.13816094
7	0x3da29289	0.079381056
8	0x3cfdc51e	0.030977782
9	0x3e07d1aa	0.13263574
10	0xbd63db21	-0.0556289
11	0x3da8ccfe	0.08242224
12	0x3e246543	0.16054253
13	0xbdbcac39	-0.09212536
14	0x3d892634	0.0669674
15	0x3dd9e21d	0.10638831
16	0xbdb31483	-0.08744147
17	0xba05f848	-0.0005110544
18	0xbcf7a58a	-0.030230302
19	0xbdee6ff3	-0.11642446
20	0x3d86dd2c	0.06585154
21	0x3dcc3a16	0.099720165
22	0xba4e4e81	-0.00078699744
23	0x3e1f7d7c	0.15575212
24	0xbda1d31a	-0.079015926
25	0xbd4aab17	-0.04947957
26	0xbc83a3b7	-0.016069276
27	0x3db478cf	0.08812105
28	0x3d0f39c4	0.0349672
29	0x3d809a87	0.06279474
30	0xbcd91e32	-0.026503656
31	0x3d53938b	0.05165438
32	0xbc393dbd	-0.011306223
33	0xbc93f985	-0.018063316
34	0x3de7c5b5	0.113170065
35	0x3d9349eb	0.07191833
36	0x3c96f9e6	0.018429708
37	0xbd3d296f	-0.046182092
38	0x3d7a9fe1	0.06118763
39	0x3be8a94f	0.0071002613
40	0xbbc57819	-0.0060262796
41	0x3d14325f	0.03618085
42	0xbcf367bc	-0.02971255
43	0xb9aa9eda	-0.0003254328
44	0x3c2b2d2c	0.0104477815
45	0x3dad3d88	0.08459002
46	0xbd60d7ae	-0.05489319
47	0x3da95426	0.08268003
48	0x3ca21072	0.019783232
49	0x3ddfc788	0.109267294
50	0xbda22aed	-0.07918344
51	0x3e1dd9e1	0.15415145
52	0xbb9eb4d2	-0.004843333
53	0xbce2d301	-0.027688505
54	0xbd0ffece	-0.03515511
55	0x3d0581ac	0.032594368
56	0x3c1fa476	0.0097438
57	0x3d5dc336	0.054141246
58	0x3d4a23e7	0.049350645
59	0x3d7059ff	0.058679577
60	0x3de45833	0.11149635
61	0x3c69a97b	0.014261599
62	0x3db8b75e	0.090193495
63	0x3b07f034	0.0020742537
64	0xbd5e26f2	-0.05423636
65	0x3d82ff25	0.06396321
66	0xbc9fd753	-0.019511854
67	0x3d834796	0.06410138
68	0xbd6a50ef	-0.05720609
69	0xbd0d998d	-0.034570266
70	0x3dc36104	0.09539989
71	0x3d58b4c5	0.05290677
72	0x3d8b3373	0.067969225
73	0x3db4b7b9	0.08824105
74	0x3d051d20	0.03249848
75	0xbd90453c	-0.070444554
76	0xbcd73f1e	-0.026275214
77	0xbca319d9	-0.019909786
78	0x3ceebb64	0.02914209
79	0x3dd4c8a0	0.10389829
80	0x3e165d88	0.14684117
81	0x3d4ba160	0.049714446
82	0xbdcdc3a9	-0.10047085
83	0x3d9e6944	0.077349216
84	0x3e0e536e	0.13899013
85	0xbaf4907a	-0.001865878
86	0x3dd71745	0.10502485
87	0x3db51a63	0.088429235
88	0xbd407204	-0.046983734
89	0x3e141694	0.14461738
90	0x3d7fbffe	0.062438957
91	0x3cc52fff	0.024070738
92	0x3e16f5fa	0.1474227
93	0xbdc0482c	-0.09388766
94	0x3d228d5f	0.039685603
95	0x3dbd8f4a	0.09255846
96	0x3d142b64	0.036174193
97	0x3e11274e	0.1417515
98	0x3d0d3574	0.034474805
99	0xbd08ba00	-0.03338051
100	0xbd0a6fc7	-0.033798005
101	0x3da7bf93	0.08190837
102	0x3d34eb1a	0.044169523
103	0x3cf36c31	0.029714676
104	0x3de503e9	0.111823864
105	0x3dce97b8	0.10087532
106	0x3dabb3e9	0.083839245
107	0xbd8fe82c	-0.07026705
108	0x3c52f193	0.012874979
109	0xbcb33035	-0.021873573
110	0x3c3f6a6c	0.011683088
111	0x3db6b48e	0.08921157
112	0x3d87fe24	0.0664027
113	0xbd863bdf	-0.06554388
114	0xbdc3760f	-0.09544002
115	0x3d7949ef	0.060861524
116	0x3cbc7522	0.023005072
117	0x3c6522ef	0.01398538
118	0xbc863d18	-0.016386554
119	0xbd5022b7	-0.050814357
120	0x3d7842b8	0.060610503
121	0x3c3f9167	0.011692381
122	0x3dd21165	0.10257224
123	0xbd21b450	-0.0394786
124	0xbd6da232	-0.05801601
125	0x3d4e8368	0.050418288
126	0xbd8e3aab	-0.06944784
127	0xbc4d1b3e	-0.012518702
128	0xbc5a2838	-0.013315253
129	0x3dd801df	0.10547232
130	0xbccb29d0	-0.024800211
131	0xbb3973fd	-0.0028297894
132	0x3d9a290f	0.075273626
133	0xbdaa207e	-0.08306979
134	0x3de0bb5d	0.10973237
135	0xbdb5b7c3	-0.088729404
136	0x3cb2bb86	0.021817934
137	0xbd9a9a35	-0.07548944
138	0xbd17a8f1	-0.03702635
139	0xbddffd61	-0.10937
140	0x3bd8dba8	0.006617982
141	0x3cfe8c24	0.031072684
142	0x3d59ffdb	0.05322252
143	0xbdb5bd55	-0.08874003
144	0x3ccef06d	0.025261128
145	0x3d16ba4f	0.03679877
146	0xbcd57eea	-0.026061494
147	0xbd6d57e2	-0.05794514
148	0x3db7e698	0.08979529
149	0xbd7b5eeb	-0.061369818
150	0xbce995ad	-0.028513754
151	0x3ddff2bc	0.1093497
152	0xbd9274c8	-0.071511805
153	0xbe01666d	-0.12636729
154	0x3d015d90	0.03158337
155	0x3cf5dbf4	0.030012108
156	0xbd700cee	-0.05860608
157	0x3c3d8329	0.011566916
158	0xbc82e3ed	-0.015977824
159	0x3d8b165f	0.06791376
160	0x3df0d414	0.11759201
161	0x3c749da3	0.014930162
162	0xbde46241	-0.11151553
163	0x3dd0241c	0.10163137
164	0x3bfa93ae	0.0076469993
165	0xbdcd486b	-0.10023578
166	0x3db0187c	0.0859842
167	0x3d00658b	0.03134684
168	0x3cea0218	0.028565452
169	0x3da41ebe	0.08013676
170	0x3dcf654c	0.10126743
171	0xbda22576	-0.07917301
172	0x3dd4858e	0.10377036
173	0x3ca936fd	0.020656103
174	0xbcea85f1	-0.028628321
175	0x3ddbf6d0	0.10740435
176	0x3da7e88b	0.08198651
177	0xbc971c85	-0.018446216
178	0x3dccf057	0.10006779
179	0x3ce55bca	0.02799787
180	0xbd6910ae	-0.056900673
181	0xbd0eecaf	-0.034893688
182	0x3cc3ab6a	0.023885448
183	0x3de9a7bc	0.11408946
184	0xbda26666	-0.07929687
185	0x3c2a83cb	0.010407398
186	0x3d8e8aba	0.06960054
187	0x3d5a7ea2	0.053343423
188	0x3d936f0c	0.07198915
189	0xbd42f2ba	-0.047594763
190	0x3dc0473d	0.093885876
191	0x3e0bea28	0.13663542
192	0x3d14fab5	0.036371905
193	0x3e154ee2	0.14580873
194	0xbdb7733a	-0.089575246
195	0x3d99081d	0.074722506
196	0xbd5d50cb	-0.05403213
197	0x3d63fb16	0.055659376
198	0x3aaaaaf5	0.001302092
199	0xbd8f6809	-0.07002265
200	0x3b507f04	0.0031813988
201	0xbca6297f	-0.020283459
202	0x3d1ec8d7	0.038765755
203	0xbcd90ee1	-0.026496353
204	0x3d3517ae	0.044212036
205	0x3d8c6223	0.068546556
206	0x3dcb646f	0.099312656
207	0x3d8695f2	0.065715685
208	0x3defdddf	0.117122404
209	0xbc592e6d	-0.013255698
210	0x3dc0eac5	0.09419779
211	0xbbe9dc98	-0.0071368925
212	0x3d9a8486	0.07544808
213	0x3cf99c2f	0.030469982
214	0x3da3d7f0	0.08000171
215	0x3e1228e1	0.14273407
216	0xbc30177b	-0.010747786
217	0xbcd48f81	-0.025947334
218	0x3dbcd6f8	0.092206895
219	0xbcf8cddf	-0.030371604
220	0x3d71d401	0.059040073
221	0x3dce8115	0.10083214
222	0x3dfdd073	0.12393274
223	0x3b1ee3f1	0.002424475
224	0xbdb9a043	-0.090637706
225	0x3d744323	0.05963434
226	0x3cde5c25	0.027143547
227	0xbcafa694	-0.021441735
228	0x3db7960d	0.08964167
229	0x3df7dffb	0.12103268
230	0x3c495f9f	0.012290864
231	0x3a890ec1	0.0010456668
232	0xbcb54dfc	-0.022131912
233	0x3d28cf4e	0.041213326
234	0x3e0c1d46	0.13683042
235	0xbd64abf9	-0.05582807
236	0x3dc90310	0.09815037
237	0x3e029c72	0.12754992
238	0xbd1a9375	-0.037738282
239	0xbcee95d6	-0.029124182
240	0x3e1146a2	0.141871
241	0x3bba4776	0.0056847883
242	0xbd89b849	-0.06724603
243	0x3e037e04	0.1284104
244	0xbdd8fe31	-0.10595358
245	0xbcb9a924	-0.02266366
246	0xbcf50f8d	-0.029914642
247	0x3dd9e95c	0.10640213
248	0x3e2330ea	0.15936628
249	0xbc1cda52	-0.009573536
250	0xbc940288	-0.018067613
251	0xbc97bf07	-0.018523706
252	0xbdb7724e	-0.08957349
253	0xbd098126	-0.03357043
254	0x3d8f8fc6	0.070098445
255	0x3da45587	0.080241255
