backend/app/ai/models/lstm_best_model.pt (torch, 343621 bytes, 10 tensors)

lstm.weight_ih_l0 f4 [256, 99]
000000 2a 9e a9 bb 2f f2 f0 3c 7a 80 09 3d da 1d 4c bb
       -0.0051763253 0.029412357 0.03356979 -0.0031145723
000010 b7 9d 45 bd 59 6f ca 3c 82 c3 6e bb d7 0d 4f bd
       -0.04824611 0.024711298 -0.003643245 -0.050550308
000020 3d 2b bb 3c ce 3b ae bb 32 1e 13 bd c2 68 79 bd
       0.022847766 -0.005317188 -0.03591747 -0.06089092
000030 b5 84 bd b9 8b 7c f6 bd 40 27 8f bc 4c 16 88 bb
       -0.00036147764 -0.120354734 -0.01747477 -0.0041530486
000040 a8 a9 33 3d ff 40 80 bd 22 08 9d bb 59 33 aa bd
       0.04386297 -0.06262397 -0.0047922293 -0.08310575
000050 e5 98 7b 3c ca 6c 67 3b 08 6e df bd be b7 bf 3b
       0.015356277 0.0035312646 -0.10909659 0.005850761
000060 19 ba 56 3c b3 03 93 3d 2c 83 6a ba 49 a5 80 bb
       0.013105893 0.0717844 -0.0008945938 -0.0039259535
000070 88 95 7b bd 31 da 01 bd 73 8b fd bb b9 a4 cc bd
       -0.0614219 -0.031702224 -0.007737571 -0.09992356
000080 b4 c1 9c bb 74 83 44 3d 87 41 10 3d 7c e9 15 bb
       -0.0047838334 0.047976926 0.03521874 -0.0022874763
000090 86 c2 52 bd 34 89 c3 bd db 74 66 bc 7e 6c f1 3b
       -0.051455043 -0.09547654 -0.014065946 0.0073676696
0000a0 9d f0 8a bd 76 28 87 3c d4 9c ab bd aa 94 cc bd
       -0.067841746 0.016498785 -0.08379522 -0.09989293
0000b0 13 3b 9e bb 87 3a a4 3d ef 0d 57 bd a5 33 d6 3c
       -0.0048288195 0.08018976 -0.052503522 0.026147673
0000c0 23 ba 5c bd 5d 20 dc bc 51 91 a1 3c 09 17 b0 3d
       -0.05388845 -0.0268709 0.019722613 0.085981436
0000d0 a0 54 6d 3d 74 d9 5f 3d c6 3c d0 bd 1d ff 55 3d
       0.057942033 0.05465074 -0.101678416 0.052245248
0000e0 ac e6 a0 bd 42 56 b3 3c 00 55 db bc 8d ae 8a bd
       -0.07856497 0.021891717 -0.02677393 -0.06771574
0000f0 d9 c1 54 3d de d5 3f bb 67 d7 29 3d fd 42 86 3c
       0.05194268 -0.0029271762 0.04146519 0.016389364
000100 4a c6 83 bd da 16 4b bd fc d6 b0 bd 22 d9 3d 3c
       -0.06434305 -0.04958234 -0.08634755 0.011587413
000110 51 40 95 3b d5 82 77 bc f8 07 4c b9 5c e5 35 ba
       0.0045547863 -0.015106876 -0.00019457925 -0.0006938779
000120 b6 b3 95 bc da e9 29 39 e4 6e 46 3a 00 71 02 3d
       -0.01827417 0.00016204212 0.00075696246 0.031846046
000130 07 01 9c 3d 86 8d d5 ba da 81 bf 3c a8 16 a3 3d
       0.076173835 -0.0016292788 0.023377348 0.07963306
000140 d1 d5 1f bc cf 09 22 3d 25 57 86 3d e9 cd 3e 3c
       -0.009755568 0.039560135 0.0655959 0.0116457725
000150 54 13 5e bc c8 69 6d bd 45 a5 ee bb 42 f7 6f 3d
       -0.013554413 -0.05796221 -0.0072828853 0.058585413
000160 ac d4 f7 3d e8 6a a3 bc fe 5a e9 bc 3a 62 bc 3d
       0.12101111 -0.019948438 -0.028485771 0.09198423
000170 18 a5 63 3c 61 87 2e 3d 69 e3 8a bd 07 69 96 bb
       0.013894342 0.042609576 -0.06781656 -0.004590157
000180 15 c4 34 bd a8 c7 d6 3a f7 22 b0 3b db e1 87 3c
       -0.04413231 0.0016386406 0.005375262 0.016587188
000190 f8 e3 88 bd f1 35 ad 3d aa 14 e5 3c d9 b5 c8 bd
       -0.066841066 0.08457554 0.027963955 -0.0980031
0001a0 73 29 0a 3e 18 a9 71 3a 5b 98 96 3c 82 b3 11 3e
       0.13492374 0.00092186173 0.018383196 0.14228633
0001b0 5b 6a bb 3c a2 7d c7 bd 9b 53 37 3d 65 a8 e8 3b
       0.022877863 -0.097407594 0.044757467 0.0071001523
0001c0 41 79 a4 bd 9e 64 bd 3d 9c 9a a2 bb 4e b6 ec bd
       -0.0803094 0.09247707 -0.0049622785 -0.11558209
0001d0 c3 3a af bc 61 bc ac bc c2 71 63 3c 88 fb ab 3b
       -0.021390324 -0.02108592 0.013882102 0.0052484907
0001e0 dd 83 62 bd 60 37 40 3d 85 32 03 3d 4e 99 cd 3b
       -0.055301536 0.04692781 0.0320306 0.006274379
0001f0 a3 78 76 bb 9a 45 e4 3d eb 7c 4a bc 4d d1 9f 3c
       -0.0037608526 0.11146088 -0.012358884 0.019508982
000200 ff 37 77 3d f7 dd c0 bc 72 51 c1 bb 78 a8 fc 3d
       0.060356136 -0.023543341 -0.0058996016 0.1233682
000210 e7 53 94 3d 46 10 f5 3d 69 0e b9 3d 83 e5 3d 3c
       0.072425656 0.119659945 0.09035952 0.011590364
000220 96 29 46 bc a9 c0 54 3d cf 6b 9c bd ab e8 a4 3d
       -0.012094876 0.051941548 -0.0763775 0.080521904
000230 a7 9a 40 3d 48 2f 3e bd c9 88 c3 3b 73 a3 c3 3d
       0.047022488 -0.04643181 0.005967234 0.0955266
000240 9b 19 e3 3d cb 4a 79 bd ac 36 ab bc 8f 01 58 bd
       0.11088868 -0.060862344 -0.020900093 -0.05273586
000250 7a d3 cf 3d 21 3f 3f 3d 50 8b 5f bd ce 3c 28 bd
       0.10147758 0.046691064 -0.054576218 -0.041073613
000260 a0 e4 0d be 68 71 a6 3d dd 64 b8 3d 27 3f df bd
       -0.13856745 0.08127099 0.09003613 -0.10900717
000270 fb d5 3d 3c 4a d4 25 3d ad cf 59 3d 34 0e d8 3d
       0.011586661 0.040485658 0.05317657 0.10549584
000280 ae 1a 60 3d c3 d1 94 bd 91 e3 85 bd 81 4d 43 3c
       0.054712944 -0.072665714 -0.065375455 0.011920334
000290 e4 cd 53 3b 3d b4 78 bc 4f 53 86 3d 11 ba b2 3d
       0.0032318765 -0.015179691 0.065588586 0.087268956
0002a0 a1 c7 1b bd 75 26 8c 3c ad ba 99 bb 6b f7 e3 b9
       -0.038032178 0.017108181 -0.004691443 -0.00043481155
0002b0 bd 91 cd bc 73 ee 2a 3b e3 9d d3 3c f6 6a 2f 3d
       -0.025093907 0.0026082068 0.025832122 0.042826615
0002c0 47 bc a5 bd cb 92 31 bd 04 b5 fe bb f1 62 c9 bd
       -0.08092552 -0.043352883 -0.0077730436 -0.09833325
0002d0 c5 6b f9 bd 65 8c 97 bd 86 25 14 3d 5e 04 ee bb
       -0.121787585 -0.07399825 0.036168598 -0.007263704
0002e0 75 14 fb bb e3 7e 03 be e0 66 ab 3b 82 f8 0c bd
       -0.007662351 -0.12841372 0.0052307695 -0.034416683
0002f0 93 2b bf bd 91 a0 93 3d 23 e9 51 bd c6 3e b2 bd
       -0.09334483 0.0720836 -0.051247727 -0.08703379
000300 d1 0a 01 be 9d ab 47 bb 9b ba 32 3d 45 03 0d 3e
       -0.12601782 -0.003046728 0.043634992 0.13770778
000310 6a ea a5 bc 2f e4 a0 bd 84 fe ec bb a2 eb c8 bc
       -0.020253379 -0.078560226 -0.007232489 -0.024526421
000320 ef 81 1f bd e4 f2 37 bb ab 3e 68 3c af 6e 11 3d
       -0.038942274 -0.0028068358 0.014175097 0.035505947
000330 4b 40 52 bb bc db 1a 3d dc 55 20 bd 0e 67 45 bc
       -0.0032081779 0.03780721 -0.039144382 -0.012048496
000340 55 ce 23 3d e6 10 bc 3b ba 0c 81 3c 6a b2 96 3d
       0.039991695 0.005739319 0.015753139 0.073582485
000350 f8 df ed 3c c4 11 2f 3c f4 37 d1 bd 3c 5c 33 3c
       0.02903746 0.010685388 -0.1021575 0.010947283
000360 f7 45 3c 3c 28 39 0f bc 8c b8 a3 bd e4 b3 6d 3d
       0.01149129 -0.008741654 -0.07994184 0.058032885
000370 25 ff 58 3d 04 64 68 3d 8b e6 93 bd d0 e9 3c bd
       0.0529777 0.056736007 -0.07221707 -0.04612142
000380 a2 86 97 3b a9 eb 02 3c bc 47 4d 3c 2b 3c 03 bc
       0.004624204 0.007990756 0.01252931 -0.008009951
000390 ed 6c 86 3c 0b cd bb bc 98 b1 e4 3c 78 6c 4b 3d
       0.016409362 -0.02292492 0.027916715 0.04966399
0003a0 06 a6 6a 3c e4 56 22 3d 2f d4 9f bd ee a9 92 bd
       0.01432181 0.039633647 -0.07804143 -0.07161318
0003b0 d8 12 69 3d 4f 4b 9a bd d4 66 ad bd d5 a8 b0 3c
       0.056902736 -0.07533895 -0.084668785 0.02156488
0003c0 38 ce 84 3d 1d 57 a8 bd 0d 6a 8b bc 29 23 82 3d
       0.064846456 -0.082197405 -0.017018342 0.063543625
0003d0 95 22 d3 bd e9 f4 cc 3c 16 29 01 be 76 1b 9d 3c
       -0.103093304 0.025019126 -0.1261333 0.019178133
0003e0 0f 0c ea 3c c7 55 4d bd 4d 27 67 bd c6 3c 99 bd
       0.028570203 -0.05013063 -0.056433965 -0.07482295
0003f0 a3 da 03 be df a1 34 3d a7 2c e9 3c 01 3e a9 3d
       -0.12876372 0.044099685 0.028463675 0.082637794

lstm.weight_hh_l0 f4 [256, 64]
000000 11 43 71 3d d0 f3 09 bd b6 d1 91 bd 3e 22 5e bd
       0.05890185 -0.033679783 -0.07120077 -0.054231875
000010 85 e7 38 bc 49 6d 48 bd aa 20 d7 3c f8 be 42 3d
       -0.011285667 -0.048932347 0.026260693 0.047545403
000020 62 49 94 bd cc 38 72 3d 82 af 24 3b ab c1 d7 bd
       -0.07240559 0.059136197 0.0025129025 -0.10534986
000030 b3 1b 55 3c 7d d3 87 3c 71 60 90 3a 45 4b b5 bd
       0.013007092 0.016580338 0.001101507 -0.08852247
000040 00 9e ab 3b 18 ba ac bd 1b bc 8d bd b7 f7 c6 bb
       0.005237341 -0.08433932 -0.06920644 -0.0060720104
000050 ad fe ef 3c 08 2d 91 3c 5d b8 90 bb b8 f9 e9 3c
       0.029296244 0.017721668 -0.004416509 0.028561458
000060 f2 20 c8 bd 38 06 9c 3d ef 01 7a bc 0a 26 33 3c
       -0.09771909 0.07618374 -0.01525925 0.010934362
000070 5b 2b 69 bc b7 a7 4c bc 38 6f 4d bd c3 48 a8 3d
       -0.014231528 -0.012491158 -0.050154895 0.08217003
000080 78 e1 a6 ba 0e e5 52 3c 7a 15 91 3d 59 50 35 bd
       -0.001273199 0.012871994 0.070841745 -0.04426608
000090 8b a5 cf bc b7 b8 bd bc 8e 60 93 3d ee 4a cd bb
       -0.025347492 -0.023159368 0.07196151 -0.006265036
0000a0 e5 7b b3 bd 7a a4 0b 3c 28 0c e5 bd 5b f3 06 bc
       -0.087638654 0.008523101 -0.11183959 -0.008236731
0000b0 2a 41 87 3b 07 81 4c 3d ad 75 10 bd c9 18 12 bd
       0.004127641 0.049927738 -0.035268474 -0.03566817
0000c0 4b 85 2a bb 73 b9 c6 bc 3c a5 6d bd 9b 58 ab bc
       -0.002601939 -0.024258351 -0.058018908 -0.020916274
0000d0 c8 48 cb 3d 74 95 24 bd 78 0c b5 3c a9 39 21 3d
       0.09925991 -0.040181592 0.022100672 0.03936163
0000e0 38 a3 aa 3d 21 aa 13 bd 71 27 90 3c 52 be 2b bd
       0.08331913 -0.03605092 0.017596932 -0.04192955
0000f0 8b 9f b2 bc 33 4c b5 bc cf 0b 1c 3d 07 2e 59 bd
       -0.021804592 -0.022131061 0.0380972 -0.05302241
000100 13 a3 f2 bc 9c 8f c8 bc 7e 74 83 3d a4 95 d2 3c
       -0.029618775 -0.02448254 0.064187035 0.02570612
000110 94 51 90 3d 6f 36 a5 bd f7 6f 07 bd 1a 2f 9b 3c
       0.0704681 -0.08067023 -0.033065762 0.018943358
000120 f0 fc 24 be 6e d0 16 ba 6b 68 b1 3d b2 a3 e6 3b
       -0.16112113 -0.00057531043 0.08662494 0.007038557
000130 fa 84 76 3c 22 0c 40 3d c8 ec 8c bd 13 13 8b bc
       0.0150463525 0.04688657 -0.068811 -0.016976869
000140 29 94 8d 3c 2b b7 bf bd 2d ee bd 3d b3 a9 0b bc
       0.017282562 -0.093611084 0.09273944 -0.008524346
000150 a0 f2 ca bd ab d8 a8 bd 74 31 6f bd 23 9a 8a 3d
       -0.09909558 -0.08244451 -0.05839677 0.067676805
000160 5f 33 04 3d e4 20 c2 bc e4 0d 42 bd 90 c8 1d 3c
       0.032275554 -0.023697324 -0.04737653 0.009630337
000170 d9 48 1a 3d 57 c9 7e bd fd fb d3 bd 73 9a 8a 3d
       0.03766713 -0.06220373 -0.10350797 0.0676774
000180 b2 89 bc bd 13 5f 9e bd 44 69 ee 3d ca 99 88 3d
       -0.09205951 -0.07732978 0.116411716 0.06669958
000190 93 28 51 bd 88 e0 6e 3d aa fd 89 3d 65 3f 0d bd
       -0.051064085 0.0583196 0.06737836 -0.034484286
0001a0 b4 fc 32 bd 61 1e e4 bd 4a fa a1 3a cd 90 c5 3c
       -0.043698028 -0.11138607 0.0012357917 0.024116898
0001b0 62 47 31 3d ef d2 6f 3d 22 a3 5a bd 87 14 55 bd
       0.043280967 0.05855077 -0.05337823 -0.05202153
0001c0 e4 6b 6d 3c 13 56 0c bd 1c 61 51 3d c3 f0 12 bd
       0.014491055 -0.034261774 0.051118 -0.03587414
0001d0 ab 6a 45 3d c6 c3 93 bd a6 08 c0 bd 41 a5 88 3d
       0.04819743 -0.07215075 -0.093766496 0.06672145
0001e0 f7 0b 9a 3d 85 59 fe bd a5 68 9c 3c 88 07 16 be
       0.07521813 -0.12419418 0.019092867 -0.1465131
0001f0 08 cb 46 bc f2 b3 8a 3b 06 36 08 3d 54 a6 51 bd
       -0.012133367 0.004232877 0.033254646 -0.051184013
000200 be b9 a2 3d 8a 8a 43 3d bf 7a 03 be 06 8f 12 3c
       0.07945584 0.047739543 -0.12839793 0.008945232
000210 2a 38 73 3c dd 4f 9f bd 07 b9 95 bc 44 85 3d 3d
       0.0148449335 -0.077789046 -0.018276704 0.04626967
000220 6c 0f 89 bd 53 26 18 3d 65 1f 20 3d 39 2e 81 bd
       -0.066923946 0.037145924 0.03909244 -0.063076444
000230 b4 35 5d bd 0b 46 f3 bd fc 23 8e bd 19 cf 08 bd
       -0.054006293 -0.11878594 -0.06940457 -0.03340063
000240 bd e4 a8 bd aa 36 96 bd 05 61 63 bd c0 91 19 bd
       -0.08246753 -0.07334645 -0.055512447 -0.037492514
000250 a6 a7 af 3c ee 47 8e bd 59 6b 7e bd 3d ef 84 3d
       0.021442246 -0.06947313 -0.062114093 0.064909436
000260 11 c8 9f 3c af 6e 92 3c 9d 63 91 bd 33 25 b8 3d
       0.019504579 0.017875044 -0.07099078 0.0899147
000270 a1 03 42 3d 4f 79 4c bd f9 cf 43 3d 70 0b ba 3d
       0.047366742 -0.049920376 0.04780576 0.09084213
000280 fc 04 a4 39 b6 ef de bd c5 7b a1 bc d8 6b 68 3d
       0.0003128423 -0.10885565 -0.019712338 0.056743473
000290 18 ce 4f 3c 0b 15 d0 bd 74 18 0a 3e 23 3b b7 3c
       0.012683414 -0.10160264 0.1348589 0.022367066
0002a0 9d 50 8e 3b 9d 49 6f 3d 5d a4 8f bd f6 d8 92 bd
       0.004343106 0.058419812 -0.07013772 -0.07170288
0002b0 b6 98 03 3d 0b ab 84 3d b0 99 f3 bd 50 50 51 3d
       0.03212806 0.06477936 -0.11894548 0.051101983
0002c0 15 5c 77 bd 22 35 77 bd cd e3 06 bd 7e 02 5c 3d
       -0.06039055 -0.060353406 -0.03293209 0.053713314
0002d0 21 bb 4f bd 14 bd ad 3d 93 c7 88 bd 41 c5 d3 3c
       -0.05071557 0.084833294 -0.06678691 0.025850894
0002e0 86 f4 14 bd 36 b7 ce bd 37 ac 32 bd ef 43 a4 3c
       -0.03636601 -0.100935385 -0.043621268 0.020051925
0002f0 22 d6 14 3d c3 2d 8c 3c b5 9a 9d 3d 7d c6 af 3c
       0.036337025 0.017111665 0.07695524 0.021456951
000300 b2 bf c9 3d 4d bf e9 bd 89 0b a1 3c c5 06 ac 3d
       0.09851016 -0.11413441 0.01965882 0.08399729
000310 1c de e1 bc 2d 9d da 3b 0e 7c 99 bd 81 6f c2 bc
       -0.02757173 0.006671569 -0.07494365 -0.02373481
000320 92 47 c4 bb ad b7 0a 3d b8 84 42 3d bd 10 0b bd
       -0.005989977 0.033866573 0.04748985 -0.03395151
000330 c6 d3 e6 bc 7c 36 ac bd c2 05 9a bc 2a 77 a6 bd
       -0.028177153 -0.084088296 -0.018801574 -0.081281975
000340 3c 89 c6 3d 80 24 52 bd 1e 07 1e bd 0e b9 b5 3c
       0.09694144 -0.05130434 -0.038581006 0.022182968
000350 2e 2d 20 bb 5b e8 63 bd 8c 69 a4 bc 4f 83 8f bc
       -0.0024440992 -0.055641513 -0.02006986 -0.017518668
000360 b2 1e a2 bc c7 f2 15 3e 37 8d 05 bd 2f 73 e8 bc
       -0.019790027 0.14643393 -0.032605376 -0.028375236
000370 7b 05 e5 bc b2 de a8 39 c6 28 4a bc 92 cc f4 bc
       -0.027956715 0.00032209378 -0.012338823 -0.029882703
000380 af 3e 39 3c 9d 3f fd 3c aa cb d8 3d 0b 6f cc bd
       0.011306449 0.030914122 0.10585721 -0.09982117
000390 4f ff de 3c bc 53 b1 bb d2 d8 c0 3c 70 76 55 bd
       0.02722135 -0.0054115932 0.023540888 -0.052114904
0003a0 20 83 dd bd 1d 75 2c 3d 42 19 a2 3c c2 59 f3 bb
       -0.10816026 0.042103875 0.019787434 -0.0074264714
0003b0 32 bb 81 bd 2c 48 5b bd bc 36 3d bd ce 23 ce bc
       -0.06334533 -0.053535625 -0.046194777 -0.025163557
0003c0 64 53 b4 bc 25 7d 04 3c e9 e4 5c bd fd 58 f7 3b
       -0.02201242 0.008086477 -0.053929243 0.00754845
0003d0 bc d9 0f 3e bd 19 7e 3d 49 49 fe bc e1 f7 32 bc
       0.14047903 0.062036265 -0.031040804 -0.010923357
0003e0 14 e2 2a 3d 05 3d b0 3c 15 93 7b bd aa b3 02 bd
       0.04171951 0.021513471 -0.061419565 -0.031909622
0003f0 44 66 10 bd 4b 91 0a bd 50 ce 95 3c b1 8e f1 bc
       -0.035253778 -0.03382997 0.018286854 -0.029486986

lstm.bias_ih_l0 f4 [256]
000000 f2 b9 e7 3d 74 29 43 bd 75 02 68 3d f0 2f c7 3d
       0.11314763 -0.047646955 0.05664297 0.0972594
000010 ff 33 94 bd ed 15 6a bd eb 79 52 bd 87 76 ac 3d
       -0.0723648 -0.057149816 -0.0513858 0.08421045
000020 51 7e eb 3c 1b 27 37 3d 91 ea a9 3d cd 19 f7 bc
       0.028746756 0.04471503 0.08296693 -0.03016367
000030 91 27 03 3e f3 76 bc bd be f5 0a 3e f4 ce 69 bd
       0.12808062 -0.09202375 0.13570306 -0.05708213
000040 86 b2 ed 3d 96 a5 a4 3d 75 8f 35 3e 54 65 d8 3c
       0.11606316 0.080393955 0.17730506 0.026415505
000050 4a 52 f0 3c 67 84 f7 39 62 3d 40 3d 36 30 ac bd
       0.029336113 0.0004721016 0.04693354 -0.08407633
000060 27 07 dd bc 54 6c 18 bd a2 ce 04 3e 4b 89 7a 3d
       -0.02698095 -0.037212685 0.12969449 0.06116609
000070 08 3b b2 3d b2 9e db 3d e3 40 98 bd 05 c5 72 3d
       0.087026656 0.10723628 -0.07434251 0.059269924
000080 3d 99 d8 3d 43 69 5b bc c5 09 4b bd 2b 04 12 3d
       0.10576103 -0.013391796 -0.049569864 0.035648506
000090 35 f1 27 bc 07 3d 84 3c 0a e8 87 bd 7e 42 c4 bc
       -0.010250379 0.016142381 -0.06636055 -0.023957487
0000a0 c5 7f 2a 3d 2e cd 96 3d a4 bc 20 3e fb 6d 0b 3e
       0.041625757 0.07363354 0.1569696 0.13616173
0000b0 48 fe 1d bd 5d e4 a4 bd 90 dd 00 3e 76 2c b4 3d
       -0.03857258 -0.08051369 0.1258452 0.08797543
0000c0 c5 58 8b bd 70 72 52 bc fd 2f 93 3d 76 32 a9 bd
       -0.06804041 -0.012844667 0.071868874 -0.08261578
0000d0 53 ff 15 3e 99 92 8e 3d d9 f8 e1 3c dd 92 49 bd
       0.1464818 0.06961555 0.02758448 -0.049212325
0000e0 e4 a2 d7 3b 3f f8 c1 3d 4a 22 2c bd a4 63 97 3d
       0.0065806974 0.09471177 -0.042024888 0.07392052
0000f0 d4 5c 14 be 68 e0 69 bd e6 fd 00 bd b8 18 e7 3d
       -0.14488536 -0.057098776 -0.031492136 0.112840116
000100 b5 96 89 3d e9 59 55 3c 46 c7 1a 3e e2 53 40 3c
       0.06718198 0.0130219245 0.1511508 0.011738749
000110 c4 dd 53 3d 48 61 c2 3d b6 05 9c 3d 63 d1 12 3e
       0.051725164 0.09491211 0.07618277 0.14337687
000120 fc 32 67 3c a3 9f a0 3d a1 93 20 bc ce 00 a9 3b
       0.014111277 0.07842948 -0.0098008225 0.0051575666
000130 35 38 d5 3d f4 84 8b 3b 79 0e 6b 3d 52 4c 20 3e
       0.10411111 0.0042577926 0.05738685 0.15654114
000140 e1 63 a6 bc 96 6c 2c 3e ac 3c 0a 3e 21 25 91 bd
       -0.020311298 0.16838297 0.13499707 -0.0708716
000150 ce 77 cb bd 50 c6 69 bd a2 75 63 3d d5 02 e1 3d
       -0.0993496 -0.05707389 0.055532105 0.10986868
000160 3a 08 cd 3c e5 5f 1d 3e 7d 96 87 3d ef bc 88 3d
       0.025028337 0.15368612 0.066205 0.06676661
000170 b3 94 0d 3e 09 46 01 3e a9 38 a2 ba e8 57 94 bd
       0.13826256 0.12624373 -0.0012376505 -0.07243329
000180 07 15 6d 3d 35 cb 06 3d b7 eb 66 3d 37 03 eb 3c
       0.05788138 0.032908637 0.05637714 0.028688056
000190 12 38 6a 3d fb 80 68 bc 2b cc e6 3d be 33 b0 3d
       0.05718238 -0.014190908 0.11269411 0.08603619
0001a0 8d 53 a9 3d de 4d c3 3d 82 db 82 3d 0d 92 e5 3d
       0.08267889 0.09536336 0.06389524 0.112094976
0001b0 eb b7 87 3c 69 58 11 bd 05 63 90 bd 57 54 bb 3d
       0.016567191 -0.035484705 -0.070501365 0.09146946
0001c0 1c fa 87 bd 55 24 e0 bc 59 b9 f4 3c 5e 15 4b 3d
       -0.066395015 -0.027361074 0.029873537 0.049580924
0001d0 ba 56 90 bd 2e d5 f9 3d a4 63 eb 3d 51 ac 91 3d
       -0.07047792 0.12198864 0.11493614 0.07112945
0001e0 34 aa de 3c 5f 9a 0f 3e b3 cf 32 3b 9a d1 0b 3e
       0.027180769 0.14023732 0.0027284443 0.13654175
0001f0 7a 91 a1 bd da b7 2d bd 10 5b cd 3b 16 56 33 bd
       -0.078890756 -0.042411663 0.006266959 -0.04378327
000200 bb e8 b5 3d 77 d5 08 be b2 d0 0a bd 04 a9 3f 3c
       0.088822804 -0.1336268 -0.033890434 0.011698011
000210 d1 ab b8 bd 2e 5e 0c bc 5d b7 7e 3d cb e2 ef 3c
       -0.090171464 -0.008567376 0.062186588 0.029282948
000220 40 68 b9 bd 4a ab 9c 3d 87 b8 97 3d c2 ff 91 bd
       -0.09053087 0.07649858 0.07408243 -0.0712886
000230 e4 2d b0 3d 3a 47 ac bd 8f c0 c7 3c f6 20 ca bd
       0.08602503 -0.08412023 0.024383811 -0.09869568
000240 cd b0 8b 3d 09 96 6c 3d 09 82 93 3c d6 75 68 3d
       0.068208314 0.057760272 0.018006342 0.056753002
000250 0c b5 e4 bd b3 c9 e0 3d cc 6e 74 bd 36 f9 0c bd
       -0.111673445 0.10975971 -0.059675977 -0.034417354
000260 67 59 d0 bd 59 32 a7 3c f7 9f 61 bc f8 8a 0e 3e
       -0.10173302 0.02040975 -0.013771049 0.139202
000270 2d af 10 bd 8e 93 b4 3d 65 64 e1 bd 28 ec d7 3d
       -0.03532331 0.08817206 -0.11005477 0.1054309
000280 8b 09 b5 3d 18 84 86 3c 5f 6b 4d 3d 6c ed 1b 3d
       0.08839711 0.01642041 0.050151225 0.03806822
000290 fc e8 0d 3d cd 33 03 be 9e c9 02 3d fd 63 86 bd
       0.03464602 -0.12812729 0.03193056 -0.0656204
0002a0 de 45 aa bd ae 5a d9 3d c9 53 d3 3b 58 de b3 3d
       -0.08314107 0.10612999 0.006449197 0.08782643
0002b0 f6 40 bd 3c f7 42 0c be 7a 24 83 3d 10 85 c6 3d
       0.023102265 -0.1369742 0.06403442 0.096933484
0002c0 ea 2e 1d bc 96 0b 02 be 77 95 90 bd 3c 42 a5 bb
       -0.009593705 -0.12699732 -0.07059758 -0.005043296
0002d0 cf 7f d7 3d f1 95 b9 39 04 dc c0 3d ee cf ce bd
       0.105224244 0.00035397665 0.09416965 -0.10098253
0002e0 35 ad 63 3d 5a 7b 5b bd 1e 71 12 3c 54 b7 eb bd
       0.055585105 -0.053584434 0.008938102 -0.115095764
0002f0 70 3f 93 bd b7 e4 49 3d 99 5a 5a bd 6e 46 09 3c
       -0.07189834 0.049290385 -0.053309057 0.008378608
000300 dd b4 09 3d 7f 5c 87 3d 7f 5c ad bd 3a 4d 8f 3d
       0.03361975 0.06609439 -0.08464908 0.06997152
000310 31 d3 9c 3d 6e 21 5e bc cc 28 3b 3d 14 30 1e 3d
       0.07657469 -0.013557775 0.045693204 0.03862007
000320 5d e2 ef 3d 05 ed 4c 3d 90 2c 19 bd 5b af 7c bd
       0.11713097 0.050030727 -0.037396014 -0.06169067
000330 a1 56 8e 3c c4 6e b1 3b 9c e5 02 3d 3a ae 9a bc
       0.017375292 0.0054148156 0.031957254 -0.018881906
000340 64 54 d8 3d 62 3d f6 3d dc cb f8 3d f6 95 5f 3d
       0.10562971 0.120234266 0.12148258 0.054586373
000350 84 1e a6 bd 40 9b 4e 3d e3 5b 07 3d fe a1 b7 bc
       -0.08111289 0.050441027 0.033046614 -0.022416111
000360 ae df 89 bc 1a 12 1b 3d c9 e7 d9 3d 7e eb 5a 3d
       -0.016830292 0.03785906 0.10639913 0.05344724
000370 9b 47 91 bb 4b 5d 3e bd ff 26 f0 3d 0e c4 9f bd
       -0.004433585 -0.04647569 0.11726188 -0.07801066
000380 d6 0d 9e 3c d0 95 8b 3c c6 f1 d5 bc 87 18 77 3d
       0.019293707 0.01703921 -0.026116263 0.060326125
000390 58 41 2c bc 0f 6e dd 3d 47 58 56 bd 84 5f fe 3d
       -0.010513626 0.10812008 -0.05233028 0.12420562
0003a0 2a af db bd 78 27 35 bd 4e 4d 6a 3c 62 39 c1 3d
       -0.10726769 -0.044227093 0.014300657 0.09434773
0003b0 70 c9 b1 3d 8d a4 d8 bd 08 8c 22 3d 71 4a 8a 3d
       0.08680999 -0.105782606 0.039684325 0.0675248
0003c0 64 f7 97 bd f6 ad ac bc 1f f3 63 bd 17 79 e0 bc
       -0.07420233 -0.021079045 -0.05565178 -0.02740149
0003d0 48 14 7d bd 42 3b 20 3e ec a8 16 3e e4 51 e3 3d
       -0.06178692 0.15647605 0.14712876 0.11099604
0003e0 e6 5d 1d 3e 2e bc 2f 3e 06 97 44 bd 48 1f 2f 3e
       0.1536785 0.17161629 -0.04799559 0.17101777
0003f0 cd 28 9c bd ea f2 a2 bc 19 d6 6f 3d d1 14 a9 bd
       -0.0762497 -0.019891221 0.05855379 -0.082559235

lstm.bias_hh_l0 f4 [256]
000000 97 3e 01 3e 84 d2 1c 3d 86 ea af 3d e2 70 16 bd
       0.12621532 0.0382867 0.08589654 -0.036728747
000010 12 75 cb bd 41 89 a1 bd 18 17 23 3d a0 71 42 bd
       -0.09934439 -0.07887507 0.039816946 -0.047471642
000020 f2 ec 5d bd 7e 21 a4 bd 30 91 81 3d 2d 21 c5 bd
       -0.054181047 -0.08014201 0.063265204 -0.096254684
000030 08 be 57 3c ef 0e ea 3d 9a 7f b3 3c 1c fd 8d 3c
       0.013167866 0.114286296 0.021911431 0.017332606
000040 80 69 b6 bd 94 bf ca bc 23 b3 21 3d 31 99 29 3d
       -0.08906841 -0.024749555 0.03947748 0.04140586
000050 79 d3 c2 bd af e2 8b 3d bb 52 34 3c a9 cc 94 bd
       -0.095129915 0.06830346 0.011006053 -0.07265598
000060 74 07 ae 3c 7e f5 af 3d 95 8d c3 bd d7 79 f5 3d
       0.021243788 0.08591746 -0.09548489 0.1198613
000070 21 56 89 bb ec 72 24 bb 26 ff ac 3c 3c 4e 33 3d
       -0.0041911756 -0.0025092913 0.021117758 0.043775782
000080 44 c3 31 bc f4 9d d6 3d 10 0d 26 bd 42 b7 30 bc
       -0.010849778 0.10479346 -0.0405398 -0.01078588
000090 50 85 99 3d 30 ce 82 3d 45 b0 36 3d a9 74 ea 3d
       0.074961305 0.063869834 0.044601697 0.114480324
0000a0 76 d7 84 bd a4 ff a1 3d 97 3e b2 bc 45 bf 35 3d
       -0.064864084 0.07910088 -0.02175836 0.044371862
0000b0 41 8a ba bd fa 92 36 bb f5 9c 9a bd 59 37 b7 bc
       -0.09108401 -0.00278586 -0.075494684 -0.022365259
0000c0 af 83 11 3d da 83 ba bd 4b 83 8e bd 7e 21 30 3c
       0.035525974 -0.0910718 -0.06958636 0.010750173
0000d0 29 3f 85 bd 1b 1b 8d bd 3d 68 87 bd 30 20 bb 3c
       -0.065061875 -0.068899356 -0.06611679 0.022842497
0000e0 4e d1 79 3d 46 f2 b2 3d c1 ca aa 3c d1 1d 0e bd
       0.060990624 0.08737616 0.020848634 -0.034696404
0000f0 a6 a7 1e 3d 48 af 02 bd 83 62 dc 3d 1d 11 77 3d
       0.0387341 -0.031905442 0.10760977 0.060319055
000100 74 50 12 3e 2e e6 b2 bd bf 8d 10 3e af 3b ca 3d
       0.14288503 -0.087353095 0.14116572 0.09874665
000110 f0 ab 8e bd 72 f2 a8 bd bb 0d 93 3d 5e ad b8 3d
       -0.06966388 -0.08249368 0.07180353 0.09017442
000120 0d e2 a2 bd a7 e6 f6 bc 65 85 8f 3a 69 b8 19 bd
       -0.07953272 -0.03013928 0.0010949789 -0.037529383
000130 62 f5 00 3e 49 71 59 3d 4c 45 c9 3d 9d 6d 4b bd
       0.12593606 0.053086553 0.098276705 -0.049665082
000140 9e e8 09 3e 64 62 0c bd 9c a6 f9 3d 0a ce 77 bd
       0.13467643 -0.03427352 0.12189981 -0.06049923
000150 dc 70 6a bd 3b da 09 3e b1 f5 66 bd c6 c2 b3 bd
       -0.057236537 0.13462155 -0.056386653 -0.087773845
000160 3b 3b 70 3d 0d 07 61 3a 0c 20 a2 ba 6a 28 17 3d
       0.058650237 0.00085841195 -0.001236917 0.036903776
000170 cb b1 3f 3c 03 23 99 3d 99 da 79 bd 9c 63 25 3d
       0.011700104 0.07477381 -0.060999487 0.040378198
000180 69 73 46 bb 91 c1 fe 3d 6a b8 1f bd ee 1a d3 bd
       -0.0030281192 0.124392636 -0.03899423 -0.10307871
000190 92 19 3a bd 3e c9 63 bd 7c b3 ad 3d e1 36 31 bd
       -0.045434542 -0.05561184 0.084814996 -0.043265227
0001a0 28 1f b6 3d 5f c9 f6 bc 9e 83 29 3e 93 34 75 bd
       0.08892661 -0.030125318 0.16554114 -0.05986459
0001b0 d6 9c 75 bd 1a 9b 76 3d f3 11 b6 3c 18 42 59 bd
       -0.059964024 0.06020651 0.022225356 -0.053041548
0001c0 d3 10 58 bd 36 54 bb 3d 3b db 14 3e 54 d7 74 3d
       -0.05275042 0.09146921 0.14536755 0.059775665
0001d0 4b 86 7b 3d d4 99 e2 bb 6f 93 9c 3d 95 1c 29 3d
       0.06140737 -0.0069153104 0.07645308 0.041287024
0001e0 01 c3 42 3c 1b db 1f bd c4 5b ab 3a f5 cc b1 3d
       0.011887313 -0.039027315 0.0013073613 0.086816706
0001f0 66 f3 a5 b9 ee d5 1d 3b 81 f2 d2 3c 6c f7 9c 3d
       -0.00031652598 0.002408381 0.0257504 0.076643795
000200 59 32 34 bd e5 57 62 bc d6 3d ff bd cd f1 0a 3d
       -0.043993328 -0.013814901 -0.12462966 0.033922005
000210 c4 16 2d bd c1 b4 00 be 73 0f c4 b9 22 32 be bb
       -0.04225804 -0.12568952 -0.00037395544 -0.005804316
000220 2a a5 bf bc ae 8c 84 bd 9e 10 a6 3a 8a c0 14 3d
       -0.023394186 -0.06472145 0.0012669747 0.036316432
000230 26 c2 ce bd d9 67 ee bd d1 86 10 3b 67 8e b1 bd
       -0.100956246 -0.11640901 0.0022053013 -0.08669739
000240 4f 87 1c 3d 62 de a4 bc 3b e1 d5 bc 5f a8 88 bb
       0.038214978 -0.020125572 -0.026108375 -0.004170462
000250 bf 00 f4 3c 02 93 9e bb 17 0c d9 3d 66 9f 0f 3d
       0.029785512 -0.004839302 0.10598009 0.035064124
000260 f0 3c b1 bd a2 e3 e3 bd 6d 97 d3 bd c9 7a 6c bd
       -0.08654201 -0.11127402 -0.103316166 -0.057734285
000270 a8 db d6 bd 8c 96 5e bc 3b a4 ec 3d 6e 57 01 3e
       -0.10491115 -0.013585698 0.11554762 0.12631008
000280 a4 b5 49 3c 08 0a bb 3b df 2e 4d bd 27 61 72 bd
       0.012311373 0.005707983 -0.050093528 -0.059174683
000290 09 28 e6 bd ed 66 af 3d 54 50 90 3d 4f 21 8b 3d
       -0.11238105 0.085645534 0.070465714 0.067934625
0002a0 6c 0e a6 3d e6 cc 5e 3d a8 7b ff 3d 6b bb c8 3d
       0.081082195 0.054394625 0.124747574 0.09801372
0002b0 6f 8b 5e 3b 10 a3 e1 bd 7d 81 8f bd 45 7d 7f bd
       0.003395762 -0.1101743 -0.0700712 -0.062375326
0002c0 83 72 29 3d 0d 5b 2c 3d b4 b6 c3 bc 5b 0f f2 3d
       0.041368973 0.04207902 -0.02389083 0.11819335
0002d0 e3 da 2e bd 82 11 06 bc 73 5b 95 3d 46 4a 17 bd
       -0.042689215 -0.008182885 0.07292833 -0.036936067
0002e0 92 cd 34 bc 44 f8 6b 3d 86 50 91 bd c8 6e d2 3d
       -0.01103534 0.05760981 -0.07095437 0.10275036
0002f0 4c bb 12 bd 57 8c c6 bd 14 d8 55 3d 3c 95 d8 bd
       -0.03582315 -0.096947365 0.05220802 -0.10575339
000300 cc 07 af bb 01 4f 21 3c b6 33 b5 bd bd a2 3d 3e
       -0.0053415056 0.009845496 -0.08847754 0.18519111
000310 70 38 e8 3c 82 30 9e bc 48 1c a8 bd 46 b6 44 3d
       0.028347224 -0.01931024 -0.08208519 0.048025392
000320 16 fe e5 3d 93 71 90 bd d8 2e b2 ba 57 61 70 bd
       0.11230104 -0.070529126 -0.0013594283 -0.05868658
000330 6c 1a c2 3d 10 e6 f8 bc f5 29 78 bd e2 3c 6c 3d
       0.09477696 -0.03038314 -0.06058689 0.05767525
000340 be dd 95 bc 13 d3 fb 3d 82 3b 0d 3d 9c 3a 39 bc
       -0.018294211 0.122961186 0.03448058 -0.0113054775
000350 78 b2 35 bc e9 f4 ec 3c 18 4d 15 3e 32 da 8f bd
       -0.011089914 0.028925376 0.1458019 -0.07024039
000360 cd d5 86 3d cf 10 24 3e 5a f3 ce 3d b8 0d 89 bd
       0.06583748 0.16022037 0.101050094 -0.0669207
000370 26 4a 83 3d a0 b3 fb 3d 46 b5 fe bc 0c 79 e6 3d
       0.06410627 0.1229012 -0.031092297 0.112535566
000380 9a 55 f1 3d a2 7f 8a bc 73 bc 17 3b b7 9b ba 3d
       0.11783905 -0.016906563 0.0023153096 0.091117315
000390 ce e4 da 3c c1 d9 b4 3d 3a 31 3e 3d 2a 5b 10 3e
       0.02672043 0.08830596 0.046433665 0.14097276
0003a0 f7 7a be bd 62 5e 93 bd dd 1f 21 bd ef 6c 19 3e
       -0.093007974 -0.071957365 -0.039337028 0.14982961
0003b0 44 56 83 3d df 84 5e 3d fd ee ea bc 49 d7 92 bd
       0.06412938 0.054325934 -0.028678412 -0.07169969
0003c0 cf 1a 12 bd 1f 61 3b 3d 9f ba 20 3e 1d 91 f2 3d
       -0.035670098 0.04574692 0.1569619 0.118440844
0003d0 fe 19 71 3c 09 b4 a2 3d 26 db ae 3d 69 a2 a4 3c
       0.01471567 0.07944495 0.08537893 0.020096974
0003e0 c7 62 e2 3c df c2 5f bb 7c e7 09 3d d4 e6 e6 3c
       0.027634991 -0.0034143252 0.033668026 0.02818624
0003f0 67 ca 97 bd 28 c2 69 bd 75 67 5e 3c 4a 9d 1d 3e
       -0.07411652 -0.057069927 0.013574471 0.15392032

lstm.weight_ih_l0_reverse f4 [256, 99]
000000 e5 39 43 bb dc 7c 44 3d 09 cf 94 bc da 3e 87 bb
       -0.0029789147 0.047970638 -0.018165128 -0.0041273655
000010 92 63 1b bd b5 52 12 bd d4 0d 29 bb 76 64 dc bd
       -0.037936755 -0.035723407 -0.0025795596 -0.10761349
000020 14 87 3b 3d 76 37 d6 bb 01 c2 af bd 26 bc 6a 3d
       0.045783117 -0.006537373 -0.08581925 0.05730834
000030 7c cb e5 bb e2 f2 90 bd 62 73 70 bd 3d 9d a0 39
       -0.0070127826 -0.07077576 -0.058703788 0.0003063473
000040 2f 98 f9 3c f2 09 e5 3c 20 f1 01 bb 85 1f 39 bd
       0.030468075 0.027958844 -0.001982756 -0.045196075
000050 a8 f0 a3 3c 3c 66 e5 3c 60 25 96 bd 81 5b e9 bc
       0.020012215 0.02800285 -0.073313475 -0.028486015
000060 5b 3a ce 3c 0e 15 89 3d 9c e2 19 bd cb d2 a5 bb
       0.02517431 0.06693469 -0.037569627 -0.005060529
000070 f7 48 aa bd 67 a2 2e 3d 2a ed 4b bb 88 36 eb bc
       -0.08314698 0.042635348 -0.0031116703 -0.028712526
000080 d7 c8 59 bd 81 07 68 bd 84 de 3b bd 35 ef 13 bd
       -0.05317005 -0.05664778 -0.045866504 -0.036116797
000090 d2 7e 3d bd 58 3c 9c 3d e0 af 30 bd dd 08 97 bd
       -0.046263523 0.07628697 -0.043136477 -0.073747374
0000a0 fc 0e 27 3c 45 70 d3 3b 39 6b 88 bc 86 53 c3 bd
       0.010196444 0.0064525926 -0.01665269 -0.09537415
0000b0 c1 f0 e1 bc 70 8c 42 3d 35 79 0b 3e 95 49 36 3d
       -0.02758062 0.047497213 0.13620456 0.044503767
0000c0 f7 d1 b2 bd 22 40 93 3d 67 d2 a7 bd 57 6c cf bc
       -0.08731454 0.07189967 -0.08194428 -0.025320215
0000d0 09 b7 f3 bc 72 c3 5c bd 2f bf 89 3d 02 4b b7 bd
       -0.029750364 -0.05389733 0.067259185 -0.089498535
0000e0 69 1a e8 bc 94 8a 78 3d 93 13 54 3c 59 d9 8b 3d
       -0.028332906 0.060679033 0.01294412 0.06828565
0000f0 8d 35 d3 3c 11 0d 9d bd 83 49 85 bd f9 b4 45 b9
       0.025782371 -0.07668508 -0.06508162 -0.00018854802
000100 a8 13 35 3c 20 6f e5 3b 48 68 2c bd c1 9d 8f bd
       0.01105205 0.0070017725 -0.042091638 -0.07012511
000110 13 6c b7 3d c7 0b c0 3c 33 31 76 ba c3 fa 03 ba
       0.089561604 0.023443116 -0.00093914865 -0.000503462
000120 df d3 81 3d b9 d0 99 3a ca 26 17 3a 13 23 9b 3c
       0.06339239 0.0011735178 0.0005765973 0.018937623
000130 3d a5 ab 3d af f5 9f 3c af fc f8 bc 12 8d 6a 3d
       0.08381126 0.01952633 -0.030393926 0.05726344
000140 8a 7f 2e bc 95 7c 91 3d 82 d3 95 3c 82 52 14 bc
       -0.010650525 0.0710384 0.018289331 -0.0090528745
000150 b9 8b b6 bc 4b f4 b0 bb bc 3e 23 bd 11 e4 81 bd
       -0.022283422 -0.0054002157 -0.03985475 -0.06342328
000160 55 5b 90 3c bc fa 14 bd e8 39 5b 3d 32 77 f9 bc
       0.017621676 -0.03637193 0.05352202 -0.030452345
000170 15 0e 03 3d 96 8a 3a 3a 86 5d b3 3c 73 31 a2 bc
       0.03199585 0.0007115988 0.021895181 -0.01979897
000180 43 bc 84 bc 64 0d d4 3d 8f ac cb bc f5 b5 b5 bc
       -0.016203051 0.103541166 -0.024862556 -0.02218149
000190 2e 56 06 be 89 aa f4 bc d5 64 50 3c b2 55 3f bc
       -0.13118812 -0.029866474 0.012719353 -0.011678146
0001a0 25 8c 05 bd 1e 9f f7 3c 63 e4 d7 bd b7 83 86 bc
       -0.032604355 0.03022724 -0.10541608 -0.016420228
0001b0 06 4d dc 3c bb 0b ba 3d 28 42 83 bd 02 e4 0f bc
       0.026892196 0.09084269 -0.06409103 -0.008782389
0001c0 b9 ea c0 3d 77 52 95 3d f0 de c5 bc 76 31 a6 3d
       0.0941977 0.072911195 -0.024154156 0.08114903
0001d0 90 2c 9f bc 47 9c ea 3a b0 36 74 bd d2 6e ab bd
       -0.019430429 0.0017899357 -0.059622467 -0.08370747
0001e0 b6 5d 32 bb b0 a2 b3 3d 4c 1b c3 39 09 91 f6 bc
       -0.00272165 0.087712646 0.00037213636 -0.030098455
0001f0 96 02 16 3d 03 af e1 3c 19 2d c5 3c 0d ec fa bd
       0.03662356 0.027549272 0.024069356 -0.12252054
000200 34 b4 5a 3d db fe a4 bc dd d8 cc 3d 0d 75 6d bd
       0.05339451 -0.020141056 0.10002301 -0.057972956
000210 5a 69 dd bc 9e d5 a5 bc 75 41 98 bd 32 12 32 3d
       -0.027027775 -0.020243462 -0.0743436 0.043474384
000220 d6 d3 f8 3c 6d f8 86 bd 0a 4e f8 3d 2e 30 41 3d
       0.030374449 -0.06590352 0.1212426 0.04716509
000230 40 64 8c bd aa cf b0 bd e4 49 12 bd 2b 58 ec bd
       -0.06855059 -0.08633359 -0.035715 -0.11540254
000240 b3 bb e1 3c 00 05 12 be 26 d8 bf 3c 8e 0d 7e 3d
       0.027555322 -0.1425972 0.023418497 0.062024646
000250 82 e7 8e 3b 6a 09 fe bc e4 8f c1 3d d0 c4 10 bc
       0.004361094 -0.031010348 0.09451273 -0.008835986
000260 2a 38 55 bc af bb 65 3d 0c 8c 17 be 68 e5 26 3b
       -0.013013879 0.056087192 -0.14799517 0.0025466327
000270 50 24 ae 3d b8 1f ae bd 1c cc 9c 3c fc 10 c4 bd
       0.0850302 -0.085021436 0.019140296 -0.09573552
000280 b8 a1 86 bb 51 73 b3 3d 1b ab 26 3d c2 58 f1 3c
       -0.004108634 0.08762229 0.040690523 0.029461268
000290 0f 2a 29 be a6 9f 85 bd fe 62 1d be a7 d9 47 3d
       -0.1651995 -0.06524591 -0.15369794 0.048791554
0002a0 e7 f5 5e 3d 88 8d 70 3c ab f7 52 bb 94 ea 87 bc
       0.05443373 0.014682181 -0.0032191079 -0.016591348
0002b0 2e 32 b1 bc 31 43 05 3c b6 48 91 3d 51 7d b9 3d
       -0.021630373 0.008133695 0.07093947 0.09057105
0002c0 ab 4d 95 bc 60 09 b3 bb 2c 7e 0c 3d 7e be 84 3b
       -0.018225512 -0.005463764 0.034300014 0.0040510288
0002d0 04 d2 0c 3d 3b 7e ad bd 29 09 db 3c 11 03 26 3d
       0.034379974 -0.08471342 0.026737766 0.040530268
0002e0 a5 0d 21 bd 85 52 75 3c 6e 63 be 3d 16 30 f0 3d
       -0.039319653 0.0149732875 0.092963085 0.11727922
0002f0 ee cd 4c bb 39 8d b1 bd c8 28 6e bd cf c6 c4 bc
       -0.0031250673 -0.08669514 -0.05814436 -0.02402058
000300 2b 0b 77 bd 18 b4 08 3e d5 0d 5a bd f4 2e 98 bd
       -0.060313385 0.1334995 -0.053235848 -0.074308306
000310 0a 59 c7 bd 8d 09 6b bd 57 3e 2f 3b 18 7b e7 3c
       -0.0973378 -0.057382155 0.0026740038 0.028256938
000320 3d 0d 6c 3c 9f c7 85 bb fa 64 ac 3d 22 f3 3a bd
       0.014407453 -0.0040826346 0.08417697 -0.045642026
000330 f5 12 86 3c c3 da 55 3d cf 0a ab bd 96 4d d5 3c
       0.016366461 0.05221058 -0.08351671 0.026037972
000340 46 8e dd bc 5d 2d 83 3d ec ee f6 bc 08 90 91 bd
       -0.02704538 0.06405137 -0.030143224 -0.0710755
000350 86 3d 10 bc c3 a0 61 bc 73 24 9d 3d 33 2d a8 3d
       -0.008803731 -0.013771239 0.07672968 0.08211746
000360 87 aa 99 3c df ad 2c 3c cd c4 87 3d ec 13 3e bd
       0.018758072 0.010539501 0.06629334 -0.046405718
000370 7d 33 e4 bd 77 96 88 3c d9 be 34 3d cc 6a 25 3d
       -0.11142633 0.01667331 0.04412732 0.040385053
000380 11 a6 09 bd a6 e2 7d bc 2b 5d eb bb ef 90 66 3d
       -0.03360564 -0.015495932 -0.0071827373 0.056290563
000390 bc 07 e4 3b 7d 16 fe bc 1b 47 dc bd e5 1a 8c 3d
       0.00695893 -0.031016583 -0.1075575 0.06841067
0003a0 7e dd 07 be d8 9c 87 bc a4 fe df bc 13 5b e7 bd
       -0.13268086 -0.016554281 -0.027343102 -0.11296668
0003b0 19 9b 98 3c 2a 79 84 3d 62 6b a3 3c 13 d6 9e 3c
       0.018628644 0.06468423 0.019948665 0.019389188
0003c0 2c f1 74 bd eb fc 31 bd d9 22 b1 bc 7e c5 f0 39
       -0.059800312 -0.043454092 -0.021623062 0.0004592351
0003d0 41 b4 48 bd 7b 06 af bc e6 97 ef 3c c7 84 fb bd
       -0.04900003 -0.021365395 0.029247236 -0.12281185
0003e0 06 9f f3 3b 2f 71 86 3d 16 96 ad bd aa 1a 55 3d
       0.0074347286 0.06564557 -0.08475892 0.052027382
0003f0 0e b2 b6 3d 7f 72 a2 bd 3a 56 4b bd f8 ff 07 3e
       0.0892068 -0.07931995 -0.04964278 0.13281238

lstm.weight_hh_l0_reverse f4 [256, 64]
000000 4e 94 2d 3d 3e 57 31 3c 98 38 14 3b 77 42 fe 3c
       0.042377762 0.010824023 0.002261674 0.031037552
000010 b6 0f 56 3c 41 66 cc bc 0e 17 18 3c 25 25 e6 3d
       0.013065269 -0.024951102 0.00928284 0.112375535
000020 09 3d df 3d 56 6e 79 3d 24 44 94 bd c6 f1 8a 3d
       0.109003134 0.06089624 -0.07239559 0.06784396
000030 77 c8 5d 3d 79 17 5e bd ef ee 2f 3d 45 91 29 3d
       0.054146256 -0.054221604 0.042952474 0.041398305
000040 e5 41 1c 3d b8 ce 3a 3d 78 35 6b 3d 00 71 1c 3b
       0.03814878 0.0456073 0.05742404 0.0023871064
000050 04 29 7d 3c c6 4f 02 3d 24 d8 37 3c 23 37 0b 3e
       0.015451673 0.03181436 0.011220966 0.13595252
000060 81 38 a8 bd 5a 7d c9 3d ea 4f bd 3d 82 69 99 bc
       -0.08213902 0.09838362 0.09243758 -0.018727068
000070 c0 d7 bf bc 5c 92 4e 39 cb 3e ad bd 46 12 55 bd
       -0.023418307 0.00019700214 -0.084592424 -0.05201938
000080 3c ba 38 bd b7 ab f0 bd aa dc a8 3d 31 47 31 3c
       -0.045099482 -0.11751502 0.08245213 0.010820196
000090 fb 78 90 3d b7 4b 97 3c af 96 f9 3c a8 d0 1a 3d
       0.07054325 0.01846872 0.03046736 0.037796646
0000a0 6a 6e 52 bd bf a6 ce 3d 3e b4 4e ba a6 13 03 3d
       -0.05137483 0.10090398 -0.00078851345 0.03200116
0000b0 ca eb da 3c 48 57 66 bd 33 a7 d0 bc 32 b3 80 bd
       0.026723761 -0.05623558 -0.025470352 -0.06284179
0000c0 97 ec 89 bd ec d5 99 bd bb 7f d8 3d c8 b9 1f 3d
       -0.06734579 -0.075115055 0.10571238 0.038995534
0000d0 cc 1c 85 3c f5 70 61 bd 82 47 9a 39 0b 0c 8e bc
       0.016249083 -0.055039365 0.00029426446 -0.017339727
0000e0 a7 33 ce 3c 73 97 76 3c 32 67 c8 bc 76 08 6e 3d
       0.025171114 0.015050757 -0.02446327 0.058113538
0000f0 d4 09 f9 3d 91 d1 87 3d 5d 06 97 bc 40 cc 29 bc
       0.12160078 0.066317685 -0.018435651 -0.010363638
000100 2e 88 03 3d 09 21 87 3d a0 40 94 bd 7f 93 6b 3d
       0.032112293 0.06598098 -0.07238889 0.05751371
000110 9c aa 14 bd 88 60 f4 3d 43 5e 01 3e 47 d8 ad bd
       -0.03629552 0.119324744 0.12633614 -0.08488517
000120 c9 8f bb bd 62 0e 98 bc d0 7d 55 bd 1b f5 2f 3d
       -0.09158284 -0.018561546 -0.052121937 0.04295836
000130 98 dd 19 3e 08 7f 77 bd f3 09 a1 3d 80 5c d3 bb
       0.15025938 -0.06042388 0.07863226 -0.006450236
000140 c7 9b b5 3d 1f 22 79 3d 09 c4 1c be cc 2e 1b 3c
       0.08867603 0.060823556 -0.15309156 0.009471606
000150 b7 08 9f 3d a3 40 8e bd 59 00 93 3d 03 18 a9 bd
       0.07765334 -0.06945922 0.07177801 -0.08256533
000160 80 1b ba bd fa 69 05 bd 0d 9c 0d be 1d a6 4a bd
       -0.090872765 -0.03257177 -0.1382906 -0.049474824
000170 33 16 13 bd 55 f6 7b 3d 4c 29 78 bd 46 50 f1 bc
       -0.035909843 0.061514217 -0.06058626 -0.029457223
000180 6e ca 06 bd a8 75 3c bd 19 b6 a7 3d c0 92 6b 3c
       -0.032907896 -0.046010643 0.08189029 0.01437825
000190 bf d8 d6 bd 4a 08 b3 bb 41 8f 6f 3d 8e ef 12 3c
       -0.1049056 -0.0054636346 0.058486227 0.008968247
0001a0 c1 08 c1 3d 7e 36 ff bc 7f 50 3e 3d 7d a8 58 bd
       0.09425498 -0.031153914 0.046463486 -0.052895058
0001b0 dc ed 7a 3c f4 78 2e 3c 65 a4 5e bd ed 7d 02 3e
       0.015315499 0.010648955 -0.054355998 0.1274335
0001c0 3c ce 45 bd ea e0 48 bd 74 19 7b 3d ff 73 bb bd
       -0.048292384 -0.04904262 0.06130357 -0.09152984
0001d0 1c 2d e0 bd 5e e7 a2 3d 3d bf f9 3b 8c 9b c0 bd
       -0.10946104 0.07954286 0.0076216743 -0.09404668
0001e0 49 cc 85 3d 7b d5 a5 3d 81 82 46 bc b8 15 57 bc
       0.06533105 0.08097359 -0.0121160755 -0.013127737
0001f0 fd 94 6b bd 99 25 8a 3c ee 30 28 3d b8 20 87 3d
       -0.057515133 0.016863631 0.041062288 0.065980375
000200 45 8c 16 3d 5a 1d 9f 3d b4 e2 0b 3d 46 05 38 3d
       0.036754865 0.0776927 0.034151748 0.044926904
000210 40 40 9d bd 54 b9 93 bc 68 eb 93 3c 16 89 8b 3d
       -0.0767827 -0.018032707 0.018056586 0.068132564
000220 1b 5d 3c 3b 26 18 23 bc e9 e9 c6 bc fb 46 0b bb
       0.0028742019 -0.009954488 -0.024281459 -0.0021252024
000230 c6 ac 82 3d 79 6f 87 bd 37 c2 81 bd 9f 68 17 3d
       0.0638061 -0.066130586 -0.06335872 0.03696501
000240 77 92 ba bc 17 f6 34 3d 10 c0 0d 3b 83 ab 4b bd
       -0.022774918 0.044180002 0.002162937 -0.049724113
000250 0e 45 a7 3d 3c 95 d5 3d e5 30 cf bc 1e d2 90 3d
       0.08167468 0.10428855 -0.02529187 0.07071327
000260 3d b8 67 bd 6a 7c 68 3d 9e f7 a2 bd 85 5a c2 bd
       -0.056572188 0.056759275 -0.079573855 -0.094899215
000270 73 a6 4e 3d a6 0c 33 3d 2d b9 0c bd 7b dc 07 3c
       0.050451707 0.043713234 -0.034356285 0.008292313
000280 ce 85 0a bd 55 fd ed bc 19 52 4c bd 88 0a 8e 3d
       -0.033819012 -0.029051462 -0.049882982 0.069356024
000290 d1 8b b7 bd c2 2f 73 3d 5c ce c7 bd c1 49 9f bd
       -0.08962215 0.059371717 -0.09756157 -0.07777739
0002a0 02 0f 1a 3d 59 cc 17 3d 5c 04 96 bd 0c eb 7b 3d
       0.03761197 0.037060115 -0.0732505 0.061503455
0002b0 04 45 1f bd 23 44 5b 3d 8d dc 68 3d 2d c6 c7 3d
       -0.038884178 0.053531777 0.05685096 0.09754596
0002c0 6a 02 0f bd b3 70 83 3d 06 d0 18 3c 03 14 5a 3d
       -0.03491441 0.0641798 0.00932694 0.05324174
0002d0 32 93 96 bd 31 85 c1 3d 81 20 ba 3c 4e b4 be bd
       -0.07352294 0.09449232 0.022720577 -0.09311734
0002e0 92 71 ad 3d 7f ad da bd 0c 6c f9 bd f0 12 50 3d
       0.084689274 -0.10677623 -0.121788114 0.05079931
0002f0 ff f9 bb 3d ee 4b 96 3d a0 3a 32 bc 66 17 3d 3d
       0.09178542 0.07338701 -0.010878235 0.046164893
000300 5c 8f cb bb 2a 53 67 bd f4 5c ae bd 75 37 b7 3c
       -0.006212158 -0.056475796 -0.08513823 0.022365311
000310 93 5b d2 bc 51 f2 d0 3c 1f a4 86 bd b8 fc 43 bd
       -0.025678432 0.02550617 -0.06574272 -0.047848433
000320 a7 4d cb bd 37 53 8c bd 36 94 68 bd a6 9f b3 3c
       -0.099269204 -0.068518095 -0.05678197 0.021926712
000330 44 5c ac bb a2 41 bd bd e7 55 14 3d b6 fb e7 3c
       -0.0052600224 -0.09241034 0.036214735 0.028318267
000340 13 48 20 3d 35 08 0e bc 13 4d 96 bd 0a 5b 97 3c
       0.039131235 -0.008668949 -0.073389195 0.018476028
000350 75 12 bc 3d 54 21 88 3d b6 5a 93 3c 63 2f a0 3c
       0.09183208 0.06646982 0.01798759 0.019553846
000360 10 c2 b0 bd 64 44 43 bd 9d 73 32 bd 85 45 1e bd
       -0.086307645 -0.047672644 -0.04356729 -0.038640518
000370 e7 aa cb bd df 25 a8 bd df 7a 89 3c 90 63 12 3d
       -0.099447064 -0.08210348 0.016782222 0.03573948
000380 d7 7b f4 3c 22 0a b2 b9 12 16 a7 3d 88 2a 95 bb
       0.029844208 -0.00033958355 0.081585065 -0.0045521893
000390 16 ad ba bd bd 19 e5 3c 8b b1 6b bd fb c1 f4 bc
       -0.09115045 0.027966375 -0.057542365 -0.029877653
0003a0 0d 40 05 3d a4 89 4c bd 2b e7 0a 3e bd fb ff b8
       0.032531787 -0.04993595 0.13564746 -0.000122062374
0003b0 12 7b f2 3c 91 92 ca bc 15 43 0f 3d 15 19 ea 3d
       0.0295997 -0.024728091 0.034976084 0.11430565
0003c0 aa 2e ee 3c 6b c8 8f 3b 30 da 1d bd 35 31 8e ba
       0.029074986 0.0043879054 -0.038538158 -0.0010848405
0003d0 fc 71 e1 bd 96 b3 e2 3c 39 a9 4d bc 2e e5 2e bc
       -0.11008069 0.027673524 -0.012552553 -0.010674758
0003e0 46 76 92 3a 31 c8 2c 3d 73 b0 8a bd 82 dd 81 bd
       0.0011174164 0.042183105 -0.06771936 -0.063410774
0003f0 81 6d db 3d 69 da 77 bd d9 27 ad 3d 69 39 ba 3d
       0.107142456 -0.060511027 0.08454866 0.09092981

lstm.bias_ih_l0_reverse f4 [256]
000000 e6 77 aa 3d 99 a6 86 3d 9d 2a 59 bd 2c 74 7c 3d
       0.0832365 0.06574745 -0.053019155 0.061634228
000010 74 90 b6 bd 30 83 d0 3c d1 0c 2b 3e db 45 a6 3d
       -0.08914271 0.02545318 0.16704108 0.081187926
000020 3b ad 54 bd 70 d9 cb 3d 18 ba 97 3b 5c c6 7d ba
       -0.051923018 0.09953582 0.0046303384 -0.0009680742
000030 c0 d7 b2 bd fa 6e a2 3d 5c 6a a3 bd 67 1e 74 bd
       -0.08732557 0.07931323 -0.07979271 -0.059599306
000040 07 35 c0 3d ce b9 55 3d fc 6e 9a 3c c7 07 bd 3d
       0.09385114 0.05217915 0.01885175 0.09229999
000050 20 bc f2 bd ba dd a7 3d 20 20 5d 3d 63 29 bd 3d
       -0.11852288 0.08196588 0.053985715 0.092364095
000060 f8 5c 9e 3d 08 db 0c 3d 2f af 1b 3e f5 68 37 3d
       0.07732576 0.034388572 0.15203546 0.04477783
000070 f8 24 47 3d 17 25 b4 3d 0e fe 9a bc 0b 97 82 3d
       0.04861924 0.08796137 -0.01891997 0.063764654
000080 20 6a b9 bd 06 2d d2 bd 54 1a fe bc d5 2e fb bc
       -0.09053445 -0.10262494 -0.031018414 -0.03066198
000090 3e 3d b6 3d 4e 17 8c 3d 57 1e 5e 3c 73 20 01 bd
       0.088984 0.068403825 0.013557038 -0.031525087
0000a0 b3 ad f3 ba 86 4a 3d bd 8a 71 5b bc 66 6f ec bc
       -0.0018591195 -0.04621365 -0.013393769 -0.028861713
0000b0 eb 07 6a 3d d1 6f ea 3b 60 84 c6 3d ca 0d 37 3d
       0.057136457 0.007154443 0.09693217 0.044690885
0000c0 f4 28 40 3d 13 10 5e bd 2d 72 98 bd d3 12 d3 3d
       0.046914056 -0.05421455 -0.07443652 0.10306325
0000d0 eb b0 9a bd 63 74 a2 3b 90 00 01 3d 02 9f c2 3d
       -0.07553276 0.004957722 0.031494677 0.095029846
0000e0 87 4d ea 3c 49 13 57 3c a8 43 81 bd 3f ce 2d 3d
       0.028601421 0.0131271565 -0.063117325 0.04243302
0000f0 7f d4 37 3d a6 97 73 3d 50 d6 67 bd 0a 16 50 bd
       0.044880386 0.059470795 -0.05660087 -0.050802268
000100 1d e5 da 3d fa f4 0c 3e c5 45 d8 bb a0 3c 11 3e
       0.10688231 0.13765326 -0.006600114 0.14183283
000110 d0 8d 17 bd a7 09 0f 3e de 9b 03 3e 30 26 a5 3c
       -0.037000477 0.13968526 0.12852427 0.02015981
000120 92 85 ed 3d d6 93 b5 3d 3c 5c c3 3c 5c 93 c3 bc
       0.11597742 0.08866088 0.023847692 -0.023873977
000130 3a 7a e1 3d ba 92 0a 3e 6e 02 9a 3b b8 8e cb bb
       0.11009641 0.13532534 0.0046999967 -0.0062120818
000140 cf 74 3b 3e 8d 73 14 3e be ee 7c 3c a5 e0 ce bc
       0.18306278 0.14497204 0.01543778 -0.025253603
000150 e2 b1 66 3d ab f7 9d bd 68 dc 69 bd 07 8d bc bd
       0.056321986 -0.077132545 -0.05709496 -0.09206586
000160 0f 88 7f bc f1 a7 7d bd 41 db 2f 3d 82 7f 34 bd
       -0.015596404 -0.06192774 0.042933706 -0.044066913
000170 02 29 33 3d fb 37 f3 3d 96 e2 45 bd 07 8d 32 3d
       0.04374028 0.11875912 -0.048311792 0.043591525
000180 89 e3 0d bc f9 ec ed 3d 0e 3d cf bd 09 76 6a bd
       -0.008660206 0.116174646 -0.10119067 -0.057241473
000190 88 59 53 bd a0 c7 1d bd 40 f1 0b 3e 54 89 9c 3d
       -0.051599056 -0.038520455 0.13666248 0.07643381
0001a0 60 2c e7 3c e7 0b 22 3c d8 c9 ab 3d ff 1b 4b 3d
       0.028219402 0.009890533 0.08388108 0.049587246
0001b0 94 5f f9 3d 78 b0 25 3e b8 61 2b bd 12 f7 0b 3e
       0.12176433 0.16180599 -0.04184124 0.13668469
0001c0 5a 49 5e bd cc cd dc bc ea 09 e9 38 d3 d7 de 3d
       -0.054269172 -0.0269536 0.000111121524 0.10881009
0001d0 44 9a a6 3c 2d 84 40 3d ca 1e c0 bd 7b c1 6d 3c
       0.020337231 0.047001053 -0.093808725 0.014511461
0001e0 b7 a4 6d 3d 74 a0 8b 3b 06 05 ab bc ab f1 5a bd
       0.058018412 0.004261071 -0.020876419 -0.05345313
0001f0 9b d0 06 3e 7e b1 38 bd 95 74 7b 3d fc 35 2f 3d
       0.13165514 -0.045091145 0.06139048 0.042776093
000200 cb bb 23 3d ba 1b 2f 3d a3 e9 08 be a6 a1 04 3d
       0.039974015 0.04275105 -0.13370375 0.032380722
000210 b0 52 d3 bd a4 70 63 3d b6 1a 48 bc 8a 4a 25 bd
       -0.10318506 0.055527344 -0.0122134 -0.04035429
000220 05 71 02 3c a7 ea a3 3c 81 ee 90 3d a1 5b c5 bc
       0.007961516 0.020009352 0.07076741 -0.024091544
000230 9c 40 39 bd 74 b9 fd 3c 4c 9d ae 3d c9 30 38 bd
       -0.045227632 0.03097222 0.08526096 -0.0449684
000240 85 67 95 bd 72 ca a8 bd 67 0a 06 3c 3b a0 6a bd
       -0.072951354 -0.082417384 0.008181191 -0.057281714
000250 fc 71 ff 3d cd 6d ba bd 3b 07 87 3d 16 a3 27 3d
       0.12472913 -0.09102974 0.06593176 0.040927015
000260 7d 49 da bd 5d 8c 8f bd 86 b0 b2 3d 3d 17 e4 3d
       -0.10658548 -0.07009194 0.087250754 0.11137245
000270 a5 ab a2 bd 4f af ff bd 2e 03 48 bd 56 8e a7 bd
       -0.07942895 -0.12484609 -0.048831157 -0.08181445
000280 7b 49 10 bd f3 6a af bd 19 b9 2e 3d da 07 fb 3d
       -0.035226326 -0.08565321 0.04265699 0.12257357
000290 99 62 2a 3c 57 01 80 3c d6 01 a1 bd 61 a0 63 3b
       0.010399484 0.015625639 -0.07861678 0.0034733044
0002a0 74 92 b7 3c 56 ec fe bd b4 5d 07 3e 21 12 1b 3d
       0.022408701 -0.12447421 0.13219339 0.037859086
0002b0 8e 20 0d 3d ae 42 58 3d d4 52 95 bd 79 80 be 3d
       0.034454875 0.052797966 -0.07291189 0.09301848
0002c0 c9 7f a4 bd 61 6d f8 bd d0 70 7b bd cc 0e f5 3d
       -0.080321856 -0.12130237 -0.061386883 0.11965713
0002d0 a2 fa b1 3d 5f e1 f7 bd 0c 74 d6 3c bc 00 14 3d
       0.086903825 -0.12103533 0.026178382 0.036133513
0002e0 e0 d7 91 bd 4c 15 45 3d cd 0b 52 bc ad ba 05 bd
       -0.07121253 0.048116013 -0.012820196 -0.03264873
0002f0 55 24 72 bc 6b 7c c7 bd 8e b2 11 bd 82 61 50 3d
       -0.01477917 -0.09740528 -0.035570674 0.05087424
000300 06 ad a0 3d 23 82 cb bd 0b c2 22 bc ee 28 07 bc
       0.078455016 -0.09936931 -0.009933959 -0.0082495045
000310 33 58 a7 bd ab 19 43 bd b0 0c 61 3d 06 9a f2 3b
       -0.081711195 -0.0476319 0.05494374 0.007403615
000320 41 d6 ec 3d 4e bf 8e 3d 8d 5f 7e 3d a6 e0 c3 bd
       0.11564303 0.06970082 0.062102843 -0.09564333
000330 1d 43 fd 3d 7c b2 da 3d 77 5c ce bd 1f 1c 47 3d
       0.123663165 0.106785744 -0.1007623 0.048610803
000340 d6 d3 3a 3e d0 00 2f bd fc 9a c3 3c 82 08 0e bd
       0.18244871 -0.042725384 0.023877613 -0.034676082
000350 25 a3 97 bc 69 72 f8 3d 87 aa 94 3d 5c 48 bd bb
       -0.01851041 0.12131197 0.07259088 -0.005776448
000360 51 16 ca 3d 00 22 04 be 73 7e 14 3e 25 0d 18 3d
       0.09867538 -0.12903595 0.14501362 0.03712191
000370 f8 50 f4 3d aa 02 d2 3b 8a aa 57 bd 9e 34 b0 3d
       0.11929506 0.006409009 -0.052652873 0.08603786
000380 c8 b4 0e bd 1a 1a 6e bd 77 6e 14 3c c8 f1 13 3d
       -0.034840375 -0.05813036 0.00905954 0.036119252
000390 bb 47 14 3b a7 d2 95 3d 83 73 57 bd 25 61 6c bd
       0.0022625763 0.07315569 -0.052600395 -0.05770983
0003a0 21 42 2f 3e 50 07 c8 3d 78 b4 7f 3d 3e 6e dc 3d
       0.1711507 0.0976702 0.062427968 0.107632145
0003b0 8f 3f 30 bd bc 0f 90 bb 40 19 89 3d f5 02 97 bb
       -0.043029364 -0.004396407 0.06694269 -0.004608507
0003c0 42 4f 45 bc 55 8a 0b 3e ec f7 c1 3d 8d 6f a1 bd
       -0.012042822 0.13626988 0.094711155 -0.07882605
0003d0 1b 46 1c bd e2 5f ae 3b cd 58 c4 3d 97 cb 6d 3d
       -0.038152795 0.0053214887 0.0958725 0.058055487
0003e0 88 7b 32 3e e6 ba 12 3d 86 ce ea 3d 63 63 fb bc
       0.17429936 0.03582277 0.114651725 -0.03068704
0003f0 70 2c bc 3d 63 3c c8 3d e8 92 31 3e a0 8d 41 3d
       0.09188163 0.09777143 0.17341197 0.047254205
