assets/models/exercise_classifier.tflite (tflite, 93504 bytes, 26 tensors)

model/fc/MatMul f4 [3, 128]
0	0xbdcf4943	-0.101213954
1	0x3d936c3d	0.07198379
2	0x3e2a310d	0.16620274
3	0x3d61c34b	0.055117887
4	0x3dc30dbd	0.09524105
5	0x3e2add21	0.16685916
6	0x3d6a95c8	0.05727175
7	0x3e1ea5f8	0.15493
8	0xbd04cf74	-0.032424405
9	0xbd803755	-0.06260554
10	0x3acc4d6d	0.001558704
11	0xbdd19627	-0.102337174
12	0x3db23eec	0.08703408
13	0x3e151813	0.14559965
14	0x3dbd0a6c	0.092305034
15	0x3e503393	0.20332174
16	0xbbdd3fe7	-0.0067520025
17	0xbd711516	-0.058858
18	0xbd565ef5	-0.05233665
19	0xbe062633	-0.1310051
20	0x3ce62830	0.028095335
21	0x3db35da6	0.087580964
22	0xbe476197	-0.19470821
23	0x3dfe6879	0.1242227
24	0xbca8d816	-0.02061085
25	0xbe55a0f1	-0.20862176
26	0x3da2b35b	0.079443656
27	0xbe2759f8	-0.16342914
28	0xbdebf66e	-0.11521612
29	0xbd911e4a	-0.07085855
30	0x3da690dc	0.081330985
31	0xbd83b025	-0.06430081
32	0x3de7be30	0.11315572
33	0x3e19916d	0.14996882
34	0xbdd691cf	-0.104770295
35	0x3de58b31	0.11208189
36	0xbda8c914	-0.082414776
37	0x3e220b44	0.1582461
38	0xbb9c5e59	-0.0047719893
39	0xbe19c4c2	-0.15016463
40	0xbd32dca7	-0.04366746
41	0x3e5df6f6	0.2167624
42	0xbda2e1f0	-0.079532504
43	0x3d4c5fb5	0.04989596
44	0x3e2b9da0	0.16759348
45	0x3cda2056	0.026626747
46	0x3d9679fd	0.07347486
47	0xbd90e2d0	-0.07074511
48	0xbe3e93c2	-0.18611053
49	0x3e157779	0.14596356
50	0xbde7c6a8	-0.113171875
51	0x3d9e43b7	0.07727759
52	0xbe7d4454	-0.24733096
53	0xbded6e2b	-0.115932785
54	0x3e3f23e1	0.1866603
55	0xbd9bc4ff	-0.076059334
56	0xbd449e04	-0.048002258
57	0x3e32ab50	0.17448163
58	0x3d755c28	0.05990234
59	0x3e534d96	0.20635065
60	0xbdf2d35f	-0.11856722
61	0xbe0314f9	-0.12800969
62	0xbd529ccc	-0.051419064
63	0xbe0f5872	-0.13998583
64	0x3d10f3ce	0.03538876
65	0xbd059ff6	-0.032623254
66	0x3ce73af1	0.028226348
67	0x3b87af30	0.004140757
68	0x3c99a0de	0.018753465
69	0x3c9ab49b	0.018884948
70	0x3ddea974	0.10872164
71	0xbd877527	-0.06614142
72	0xbd8f6c1c	-0.07003042
73	0x3d6558b8	0.055992812
74	0xbd7bfcc4	-0.061520353
75	0x3c989f54	0.018630661
76	0xbca4eaff	-0.020131586
77	0xbdd21bc7	-0.10259204
78	0xbceb5cf6	-0.02873085
79	0x3c334220	0.010941058
80	0xbda15865	-0.07878188
81	0x3d129be6	0.035793208
82	0xbdb7e508	-0.08979231
83	0xbd6c6c81	-0.057720665
84	0xbc8da6c3	-0.017291432
85	0x3cc4eb93	0.024038112
86	0x3b21ffb1	0.0024719054
87	0xbcd2cd39	-0.025732623
88	0xbd9ff44b	-0.07810267
89	0xbd081bbe	-0.033229582
90	0xbde0e30c	-0.10980806
91	0xbd5ded64	-0.05418147
92	0xbdb4adb2	-0.08822192
93	0x394aabb5	0.00019328187
94	0xbdbe2fa7	-0.09286433
95	0x3db4e083	0.08831885
96	0xbdb662fe	-0.089056
97	0x3dc74c7a	0.097313836
98	0x3d075ae0	0.03304565
99	0xbc808cda	-0.015692163
100	0x3d97a4fe	0.07404517
101	0xbc3ddbec	-0.011588078
102	0x3ddd7a0e	0.10814296
103	0xbe026a2a	-0.12735811
104	0xbcf0efa9	-0.029411154
105	0xbd9465e7	-0.07245999
106	0xbd7f6ee1	-0.0623616
107	0x3d8156c2	0.06315376
108	0x3dd84347	0.10559707
109	0xbe222784	-0.15835387
110	0x3de7dcbb	0.11321398
111	0xbe0197e0	-0.12655592
112	0x3d4b2f50	0.049605668
113	0x3d058ee7	0.032606985
114	0x3d4476db	0.047964912
115	0x3cfe41c1	0.031037213
116	0x3d8bf438	0.068336904
117	0x3da21e18	0.07915896
118	0x3cabb07e	0.020958181
119	0xba43f371	-0.0007474935
120	0xbd7581b8	-0.059938163
121	0x3dfe9e99	0.12432594
122	0x3cd78883	0.026310211
123	0xbd97800d	-0.073974706
124	0x3d8547f0	0.065078616
125	0x3ca81120	0.020515978
126	0x3d352152	0.04422123
127	0x3d3ae8aa	0.045632042
128	0x3df4650d	0.119333364
129	0xbdabe731	-0.08393706
130	0xbdb4e6b5	-0.088330664
131	0xbe485552	-0.19563797
132	0xbe18e3e5	-0.14930685
133	0xbe0d107f	-0.13775824
134	0xbdcaf7ad	-0.09910522
135	0xbcf1566e	-0.029460158
136	0xbe1deb3a	-0.15421763
137	0x3dec9ebd	0.115537144
138	0xbdd2aeb9	-0.10287232
139	0x3c8e6978	0.017384276
140	0x3e1017ad	0.14071532
141	0xbb20521a	-0.0024463
142	0xbe25951a	-0.16170159
143	0xbd806341	-0.06268931
144	0xbe2ccecb	-0.1687576
145	0xbe11381f	-0.14181565
146	0xbdfa5d51	-0.1222483
147	0x3d311da5	0.04324116
148	0xbc935b22	-0.017987791
149	0xbe457d4c	-0.19286078
150	0x3e39620a	0.18103805
151	0xbdc3678e	-0.09541236
152	0xbd908967	-0.070574574
153	0x3d8288bd	0.06373737
154	0xbdd8aa71	-0.10579384
155	0x3e2f06ef	0.17092489
156	0x3c6f123d	0.014591751
157	0x3dfc83e4	0.12329844
158	0xbe1f35c4	-0.15547854
159	0x3cfb0fdd	0.030647213
160	0xbe3aa248	-0.18225968
161	0xbdb41261	-0.08792568
162	0xbd8a3f0e	-0.06750308
163	0xbc2c75e8	-0.010526158
164	0xbe219a75	-0.15781577
165	0xbd21ba54	-0.039484337
166	0x3d51c559	0.051213596
167	0x3dd603c8	0.1044994
168	0xbe2b0736	-0.1670197
169	0xbe384f06	-0.17998895
170	0xbdac2416	-0.0840532
171	0xbe383619	-0.17989387
172	0xbe29fcd4	-0.16600353
173	0xbd996287	-0.07489496
174	0xbe406bdc	-0.18791145
175	0x3e03b917	0.12863575
176	0x3d5c669d	0.053808797
177	0xbd3b827b	-0.045778733
178	0x3c1fc04c	0.009750437
179	0x3ddfc257	0.10925739
180	0x3d660a87	0.056162383
181	0xbdd62368	-0.10455972
182	0xbd853e99	-0.0650608
183	0xbdabac08	-0.08382422
184	0x3e430877	0.19046198
185	0xbe25be9f	-0.16185997
186	0xbdef7d1a	-0.11693783
187	0xbe040f31	-0.1289642
188	0x3d2256d8	0.039633602
189	0xbd8dbf28	-0.06921226
190	0x3deddc78	0.11614317
191	0x3c1af092	0.0094567705
192	0x3d30dedd	0.04318129
193	0xbd9dae23	-0.076992296
194	0xbdd7e89f	-0.10542416
195	0xbd62e5a7	-0.055394795
196	0x3c2855fa	0.010274405
197	0x3dff1a8b	0.124562345
198	0x3d088782	0.033332355
199	0x3c9d93ae	0.019235458
200	0xbcc68364	-0.024232574
201	0xbe084b23	-0.13309912
202	0xbcb51eeb	-0.02210947
203	0xbdcaa750	-0.098951936
204	0xbd86e8a7	-0.06587344
205	0x3bd9ddcc	0.0066487547
206	0xbd1297f4	-0.035789445
207	0x3b06e8f1	0.0020585621
208	0x3e12d132	0.14337614
209	0xbe1f9e80	-0.15587807
210	0x3e2b90e0	0.16754484
211	0x3d6ebb07	0.058283832
212	0x3d2cfd4f	0.04223376
213	0x3dad9aa9	0.08476765
214	0xbe09a460	-0.1344161
215	0xbd4b06e0	-0.049567103
216	0x3dd26437	0.10273021
217	0x3c2d912e	0.010593696
218	0xbdc4774b	-0.09593066
219	0x3cadd32f	0.021218864
220	0x3d50a863	0.050941836
221	0xbde4d29a	-0.111729816
222	0x3cc866b1	0.02446303
223	0xbd4a537d	-0.049396027
224	0x3d0bd594	0.03413923
225	0x3d9bc459	0.0760581
226	0x3dafe3b4	0.08588353
227	0xbd637f71	-0.05554146
228	0xbdedb5c1	-0.116069324
229	0xbd15f33c	-0.03660892
230	0xbdbf30f6	-0.093355104
231	0x3dd8c813	0.10585036
232	0xbdf17987	-0.117907576
233	0x3bc92789	0.006138746
234	0xbccca8d6	-0.024982851
235	0x3de8c436	0.11365549
236	0xbd94e980	-0.07271099
237	0x3c9893aa	0.0186251
238	0xbc645561	-0.013936372
239	0x3d466eae	0.048445396
240	0xbcabdd6e	-0.02097961
241	0x3e27adc4	0.1637488
242	0xbe04a2b5	-0.12952693
243	0x3cdd2853	0.026996767
244	0x3d975d87	0.07390886
245	0xbd14ab24	-0.036296025
246	0x3dd1b979	0.10240454
247	0x3d470ec7	0.048598077
248	0x3dc09016	0.09402482
249	0xbd705291	-0.05867249
250	0xbdc3b564	-0.09556082
251	0xbcaba562	-0.020952884
252	0xbd2ad0e0	-0.041703105
253	0x3d89133d	0.066931225
254	0x3e29242c	0.16517705
255	0xbdb4115c	-0.087923735

arith.constant f4 [64]
0	0x3ce7a7c7	0.028278245
1	0x3d9b865f	0.075939886
2	0xbe31481a	-0.17312661
3	0x3e82a4ad	0.25516263
4	0x3dd6e14d	0.104921915
5	0xbd06a09c	-0.032868013
6	0xbd150fc4	-0.03639199
7	0x3db1732d	0.08664546
8	0x3e6af03a	0.22943202
9	0xbca7ec42	-0.020498399
10	0xbd1ebe07	-0.038755443
11	0xbdf68859	-0.12037725
12	0x3de5b014	0.11215225
13	0xbccc8a5f	-0.024968324
14	0xbcea88b2	-0.028629635
15	0x3d1ee5c5	0.038793344
16	0x3db2dcf4	0.0873355
17	0x3e79083a	0.24319544
18	0x3e1fb4ce	0.15596315
19	0x3d31474f	0.043280896
20	0xbdbcd4d3	-0.092202805
21	0x3da28ada	0.0793664
22	0x3e372411	0.17884852
23	0xbdbdc2b2	-0.09265651
24	0x3d48bbc3	0.04900719
25	0x3e4ad556	0.19807944
26	0x3e546d92	0.20744923
27	0xbc5cbfc8	-0.013473459
28	0x3d746b59	0.059672687
29	0x3d9c84fa	0.07642551
30	0x3db079ae	0.086169586
31	0x3d0d69fc	0.034524903
32	0x3e0c6c88	0.13713276
33	0x390b1700	0.00013264641
34	0xbcc2fa38	-0.023800954
35	0x3e1b13fd	0.15144344
36	0x3c84c422	0.016206805
37	0x3e4923e8	0.19642603
38	0xbbc13868	-0.0058966167
39	0x3e87c576	0.26517838
40	0xbe4d1510	-0.20027566
41	0xbdedf21e	-0.11618446
42	0xbccd1913	-0.02503637
43	0x3e7a09a0	0.24417734
44	0x3e1a8fda	0.15093938
45	0xbd52c43b	-0.05145667
46	0x3c345226	0.011005914
47	0xbb88cd80	-0.004174888
48	0xbde104cc	-0.10987243
49	0x3cca1448	0.024667874
50	0x3dcf7bae	0.10131012
51	0x3dba72d7	0.09103935
52	0xbd40cdc8	-0.04707125
53	0x3e719546	0.235921
54	0x3e6e167f	0.23250769
55	0x3e063d3f	0.13109301
56	0x3e39aa3f	0.1813135
57	0x3e2c3d23	0.16820197
58	0xbc6abe28	-0.014327563
59	0x3e4bfc22	0.199204
60	0xbe19f99a	-0.15036622
61	0xbd9d9dce	-0.076961145
62	0x3d93b7fb	0.07212826
63	0x3d9225c3	0.07136109

arith.constant1 f4 [64]
0	0x3d379f1d	0.044829477
1	0xbe16faf5	-0.1474417
2	0xbe225318	-0.1585201
3	0x3d3adc0e	0.045620017
4	0xbe079b9a	-0.13242951
5	0xbe097aa4	-0.1342569
6	0x3d7d2f3e	0.06181263
7	0x3cc05642	0.02347863
8	0xbde9518a	-0.113925055
9	0x3c40f4e0	0.011777133
10	0x3d9a50c9	0.0753494
11	0xbd0f3efa	-0.03497217
12	0xbc74a210	-0.014931217
13	0xbe4d578a	-0.20052925
14	0x3cd9d169	0.026589112
15	0xbe3dd7ae	-0.18539307
16	0x3dd9f474	0.10642329
17	0x3d1a26d8	0.0376347
18	0xbc04be64	-0.008102033
19	0x3d5760ca	0.05258254
20	0xbda7b4dc	-0.08188793
21	0x3dd6e083	0.10492041
22	0x3d3da962	0.046304114
23	0x3a298c00	0.00064677
24	0xbe40cb2c	-0.18827504
25	0xbdba170c	-0.09086427
26	0xbdefcb6c	-0.117087215
27	0x3da6d88c	0.08146772
28	0xbe0f999f	-0.14023446
29	0x3d98c0bc	0.07458636
30	0x3bb3fd60	0.005492851
31	0x3e6d4d82	0.23174098
32	0x3dce4040	0.100708485
33	0x3cb5469a	0.022128392
34	0x38720000	5.7697296e-05
35	0xbcace776	-0.021106463
36	0xbd9f338b	-0.07773503
37	0xbd2e015a	-0.042481758
38	0x3dd1b523	0.10239627
39	0x3b17aa40	0.0023142248
40	0xbb06ee40	-0.0020588785
41	0x3e246090	0.1605246
42	0x3e065872	0.13119677
43	0x3e3e4ce2	0.18584016
44	0x3cd91264	0.026498027
45	0xbe7d147f	-0.2471485
46	0xbbc5d030	-0.006036781
47	0x3d0d8cdb	0.03455816
48	0x3d0226c8	0.031775266
49	0xbdade9a6	-0.084918305
50	0xbdc18324	-0.09448841
51	0x3de7bb37	0.11315005
52	0x3d80125e	0.06253503
53	0xbc0044d2	-0.007828908
54	0x3e2b1bbc	0.16709799
55	0xbe0d3a88	-0.13791859
56	0x3d3679d0	0.044549763
57	0x3b83e750	0.0040253773
58	0xbd7e04c4	-0.062016264
59	0xbc4a4460	-0.012345403
60	0xbddc9d16	-0.10772149
61	0xbd4333f7	-0.04765698
62	0xba9050a0	-0.0011010356
63	0xbdc76c6e	-0.09737478

arith.constant2 f4 [64]
0	0x3e571bce	0.210067
1	0xbd983af1	-0.07433117
2	0x3e95aa82	0.2923165
3	0x3de2462b	0.1104854
4	0xbc92f438	-0.017938718
5	0x3c4b76b0	0.012418434
6	0x3e1789b8	0.1479863
7	0x3e6f2812	0.2335513
8	0xbd85fbae	-0.06542145
9	0x3d45cbf2	0.0482902
10	0xbc0ea2f4	-0.008705843
11	0xbd04984f	-0.032371815
12	0x3e6b917c	0.23004717
13	0x3d6ae1e8	0.057344347
14	0x3e1f6644	0.15566355
15	0x3ddae1d6	0.10687606
16	0x3dea3844	0.11436513
17	0x3e0953fd	0.13410945
18	0x3e8387fd	0.25689688
19	0xbe068613	-0.13137083
20	0xbe20581e	-0.15658614
21	0x3d9ed14e	0.077547655
22	0xba6003c0	-0.00085454807
23	0x3cb5003c	0.022094838
24	0x3dab5fac	0.08367857
25	0x3e1e40ec	0.15454453
26	0x3d850dfd	0.06496809
27	0x3dd45124	0.10367039
28	0x3e198fd0	0.14996266
29	0x3e4dd78a	0.20101753
30	0xbd7eec5e	-0.062237136
31	0xbd034c34	-0.032055095
32	0x3d60add0	0.05485326
33	0x3e211396	0.15730128
34	0x3c8e669a	0.017382909
35	0xbd985a20	-0.07439065
36	0x3c407a00	0.011747837
37	0xbd8ef4be	-0.069802746
38	0x3e4a3fd4	0.19750911
39	0x3d2f309b	0.042770963
40	0x3e2fb95a	0.1716055
41	0x3d859b86	0.06523804
42	0x3e6af15f	0.22943638
43	0x3d55ef87	0.052230384
44	0xbd31c0e0	-0.04339683
45	0x3cca8562	0.024721805
46	0xbd45bd10	-0.048276007
47	0x3d1d6696	0.03842791
48	0xbdf40286	-0.11914544
49	0x3d834b21	0.06410814
50	0x3e337266	0.17524108
51	0x3ddff659	0.10935659
52	0xbc149ca4	-0.009070549
53	0x3debab91	0.11507333
54	0x3e43fb8a	0.19138923
55	0x3de63a9c	0.112416476
56	0x3d2005da	0.03906808
57	0x3dcf4730	0.10121
58	0x3b843eca	0.0040358054
59	0x3e64b814	0.22335845
60	0xbda2376d	-0.07920728
61	0xbd23da7b	-0.04000328
62	0x3d0324a2	0.032017358
63	0x3d0698c2	0.032860525

arith.constant3 f4 [64]
0	0x3e751b90	0.23936296
1	0xbc195bc0	-0.009360254
2	0x3e11f5e0	0.1425395
3	0x3d77eefe	0.060530655
4	0xbe2fd488	-0.17170918
5	0xbe0b4a1c	-0.13602489
6	0xbc3d8b4c	-0.0115688555
7	0x3d167b6e	0.036738805
8	0xbcd05b93	-0.025434291
9	0xbd111be1	-0.035426978
10	0x3e15bde0	0.14623213
11	0xbe0173d0	-0.12641835
12	0x3e10a372	0.1412485
13	0x3cb65ff0	0.022262543
14	0x3e2165b1	0.15761448
15	0xbd22d066	-0.039749525
16	0x3cdd2418	0.02699475
17	0x3d63eb62	0.0556444
18	0x3e5dfc3e	0.21678254
19	0x3d8ae5ee	0.06782137
20	0xbd86bee6	-0.0657938
21	0x3d8cda33	0.06877556
22	0x3d6d5211	0.057939593
23	0xbe207e70	-0.15673232
24	0xbbbbfecc	-0.0057371613
25	0x3d477ea8	0.048704773
26	0x3d0c1f5e	0.0342096
27	0x3e395f3e	0.18102738
28	0x3da9a5a6	0.08283548
29	0x3dd67b1b	0.10472699
30	0xbd5a0233	-0.053224754
31	0x3dd309a0	0.1030457
32	0x3dc260d4	0.09491125
33	0x3dbb30cc	0.09140167
34	0xbdb88b6a	-0.09010966
35	0x3ccbacb5	0.024862627
36	0x3d848729	0.06471092
37	0x3da3dd72	0.08001222
38	0xbcb23f9e	-0.02175885
39	0x3db9640a	0.09052284
40	0xbcbe5e4e	-0.023238327
41	0x3e1c6669	0.15273441
42	0x3e0a74d1	0.13521124
43	0x3e38ddcc	0.18053359
44	0xbe04c4b2	-0.12965658
45	0xbdaa98f5	-0.083299555
46	0x3d4e3c56	0.05035051
47	0x3d865ea0	0.06561017
48	0xbd052ddb	-0.032514434
49	0xbdd4d228	-0.103916466
50	0x3b159640	0.0022825152
51	0xbd932e46	-0.0718656
52	0x3da6bf7d	0.08141992
53	0x3a3bbf00	0.0007161945
54	0xbd1dd40e	-0.03853231
55	0xbcd8058a	-0.026369829
56	0x3d8a62d5	0.06757132
57	0x3e3a7542	0.18208793
58	0xbcad79d3	-0.021176254
59	0x3d20a977	0.039224114
60	0xbdd965d5	-0.10615126
61	0xbdb647d8	-0.08900422
62	0x3d9be390	0.076117635
63	0x3e3150a3	0.17315917

arith.constant4 f4 [64]
0	0xbccbbc78	-0.024870142
1	0xbd93bbb8	-0.07213539
2	0xbd66ad0b	-0.05631737
3	0xbdb92e8e	-0.09042083
4	0xbc0e63d8	-0.008690797
5	0xbc2709d4	-0.010195214
6	0x3de6dcf4	0.11272612
7	0x3e3672fa	0.17817298
8	0x3d078ce0	0.033093333
9	0x3d14b61e	0.036306493
10	0x3ca61920	0.020275652
11	0xbd234973	-0.03986497
12	0x3db83de7	0.08996182
13	0x3d400e06	0.046888374
14	0xbe2bd72b	-0.16781299
15	0x3e1d627f	0.15369605
16	0x3e546746	0.2074252
17	0xbcab62cf	-0.020921139
18	0x3cfe666d	0.0310547
19	0x3d7cb23e	0.061693422
20	0x3c2a0502	0.0103771705
21	0x3e13faf2	0.14451197
22	0x3c668270	0.014069185
23	0xbcbb887a	-0.022892226
24	0x3e07a2e8	0.13245738
25	0xbdd6b658	-0.10483998
26	0x3e2e4da4	0.17021805
27	0xbb70df40	-0.003675416
28	0x3d1bc8be	0.03803324
29	0x3d123790	0.03569752
30	0xbdbd70ec	-0.09250054
31	0x3e559bfa	0.20860282
32	0xbdfcc4e1	-0.12342239
33	0x3da9ef3f	0.08297586
34	0x3ccd2be0	0.025045335
35	0x3db9d212	0.09073271
36	0x3dbfcbce	0.093650445
37	0x3d8eef92	0.06979288
38	0x3c2aa79c	0.010415938
39	0xbdd75183	-0.10513594
40	0x3e4be92b	0.19913165
41	0x3e4a7e5d	0.19774766
42	0x3dc097be	0.094039425
43	0x3d570df5	0.052503545
44	0xbdca039d	-0.098639704
45	0x3dc215c2	0.09476806
46	0x3cc0dcd2	0.023542795
47	0x3c65f192	0.014034646
48	0xbd01448e	-0.03155952
49	0x3e0d5eeb	0.1380574
50	0x3d84f571	0.06492127
51	0xbdd5157c	-0.104044884
52	0xbc9c0679	-0.019046055
53	0x3d4ed16e	0.050492696
54	0x3d14fc3e	0.03637337
55	0xbd97e5ce	-0.07416879
56	0x3e807900	0.25092316
57	0xbc9d940a	-0.01923563
58	0x3d5213d8	0.051288456
59	0xbdc3ea51	-0.09566177
60	0x3e5338fb	0.20627205
61	0xbccd9d10	-0.025099307
62	0x3eac2510	0.33622026
63	0xbd05f5fe	-0.0327053

arith.constant5 f4 [64]
0	0xbcb36576	-0.021898966
1	0x3b0e49e0	0.0021711513
2	0xbe78b3c1	-0.2428732
3	0x3e1d97d9	0.15389957
4	0xbe2406ec	-0.16018265
5	0x3e20101e	0.15631148
6	0xbdc4fd8e	-0.09618674
7	0x3d1ed516	0.038777433
8	0x3da0722e	0.07834278
9	0x3d92335b	0.071387015
10	0x3e228f9e	0.15875098
11	0x3d8c7a2c	0.0685924
12	0xbd9e316e	-0.07724272
13	0xbd0b63d0	-0.034030735
14	0x3dcd9700	0.100385666
15	0x3cdb706e	0.02678701
16	0xbd39e3b6	-0.045383178
17	0xbe179244	-0.1480189
18	0xbc82c2e8	-0.01596208
19	0xbdfe6076	-0.12420742
20	0x3d6fcb92	0.05854375
21	0xbe45e71c	-0.19326442
22	0x3e435dae	0.19078705
23	0xbd102e20	-0.03520024
24	0x3c86df70	0.016463965
25	0xbe184de4	-0.14873463
26	0x3d0a81bf	0.03381514
27	0x3e555598	0.20833433
28	0xbdcfdc4f	-0.101494424
29	0xbe6761ac	-0.22595853
30	0xbd35378f	-0.044242438
31	0xbe0893dd	-0.13337655
32	0x3a78c500	0.00094898045
33	0xbda69b64	-0.08135107
34	0xbd8e4dd4	-0.06948438
35	0x3e491de0	0.19640303
36	0xbd56fbdc	-0.052486286
37	0x3d80ed5a	0.06295271
38	0xbe1275f1	-0.14302804
39	0x3db36445	0.08759359
40	0x3e1bb4cc	0.15205687
41	0xbe116757	-0.14199577
42	0x3e6fdb28	0.23423445
43	0x3d27d0ec	0.040970728
44	0x3e187d9a	0.14891663
45	0x3bdb0b18	0.006684672
46	0xbe264b59	-0.1623968
47	0x3da88444	0.08228353
48	0x3b4d47a0	0.003132321
49	0xbe830a54	-0.25593817
50	0xbe14ca24	-0.14530236
51	0x3e1e9e38	0.15490043
52	0x3d8049cc	0.06264076
53	0xbcd7c5f8	-0.026339516
54	0x3d8b75c3	0.06809571
55	0x3dfa2476	0.122139856
56	0xbb9b7330	-0.004743956
57	0xbd69479a	-0.05695305
58	0xbccde75a	-0.025134731
59	0xbd721bce	-0.059108548
60	0xbd5d90ff	-0.054093357
61	0xbdedbaff	-0.11607932
62	0xbddaabaf	-0.10677277
63	0x3e2d610a	0.16931549

arith.constant6 f4 [64]
0	0xbaac6340	-0.0013152137
1	0x3e1ad1dd	0.15119119
2	0xbd17c308	-0.03705123
3	0x3df99f56	0.12188594
4	0xbdd0a4b8	-0.101876676
5	0x3e94f5d0	0.2909379
6	0x3e962a54	0.2932917
7	0x3dc4b2e4	0.09604433
8	0x3d7b486f	0.061348375
9	0xbbe84b30	-0.007089041
10	0xbcb4bf7a	-0.02206396
11	0x3d91ad8f	0.07113182
12	0x3e5fb45c	0.21846145
13	0x3e408832	0.18801954
14	0xbdc1bc00	-0.09459686
15	0xbda63782	-0.08116056
16	0x3e3dbda3	0.18529372
17	0x3e2a31c4	0.16620547
18	0x3d1be428	0.038059384
19	0x3db01f0c	0.08599672
20	0x3dce1afb	0.1006374
21	0xbe2598fe	-0.16171643
22	0xbdca4334	-0.09876099
23	0xbe305b1e	-0.17222258
24	0x3dbf9c38	0.09355968
25	0xbd05e06b	-0.032684725
26	0x3c3f1834	0.011663485
27	0xbdce0f86	-0.100615546
28	0x3dea0d2b	0.11428293
29	0x3db5e12c	0.08880839
30	0xbd607418	-0.054798216
31	0x3de850e4	0.11343554
32	0xbd2064d9	-0.039158676
33	0x3e3d00e7	0.18457375
34	0xbd8a5e93	-0.0675632
35	0x3de3d6c6	0.11124949
36	0x3d8382dd	0.064214446
37	0xbd88b8ff	-0.0667591
38	0x3decb458	0.11557835
39	0x3da040a9	0.07824833
40	0xbd193aa0	-0.037409425
41	0x3c3d0c87	0.011538631
42	0x3d9ce8a6	0.07661562
43	0x3d2e7e09	0.042600665
44	0x3e40ff6a	0.18847433
45	0x3e4b9477	0.19880854
46	0xbc20e56c	-0.009820323
47	0x3e0c4f00	0.13702011
48	0xbe2d1662	-0.1690307
49	0x3dbc2835	0.091873564
50	0x3cbb86e7	0.022891475
51	0x3d121804	0.035667434
52	0x3d9ffcee	0.078119144
53	0x3d55e88f	0.05222374
54	0x3cb843f8	0.022493348
55	0x3d014b91	0.031566206
56	0x3d758650	0.059942544
57	0x3e0585e4	0.13039356
58	0x3d2eb9ff	0.04265785
59	0x3cc392da	0.023873735
60	0x3dc8b671	0.09800423
61	0xbcec1963	-0.0288207
62	0x3db9fd59	0.09081525
63	0x3e0b239b	0.13587801

arith.constant7 f4 [64]
0	0x3e16fa8c	0.14744014
1	0x3e1d7f5a	0.15380612
2	0x3d12cf91	0.035842482
3	0x3cc604f8	0.024172291
4	0xbe36d6ca	-0.17855373
5	0x3dd3c85e	0.103409514
6	0x3dfcbd72	0.12340821
7	0x3e5ecba2	0.21757367
8	0xbe2459b9	-0.16049851
9	0x3def0800	0.11671448
10	0x3d2b7fc5	0.041869897
11	0x3c2e391e	0.010633735
12	0xbe2f2bc2	-0.17106536
13	0x3e48fd61	0.19627906
14	0xbd296ab8	-0.04136154
15	0xbcf1e2f0	-0.029527158
16	0x3dbbf447	0.091774516
17	0x3d866620	0.065624475
18	0x3d368500	0.044560432
19	0x3e10c327	0.14136945
20	0xbd9badca	-0.07601507
21	0x3dc90788	0.098158896
22	0x3e3b83c6	0.18311986
23	0x3d691b4f	0.05691081
24	0x3cf3c110	0.029755145
25	0xbbc98290	-0.0061495975
26	0x3db7c501	0.089731224
27	0x3bc93a90	0.0061410144
28	0x3e151a82	0.14560893
29	0xbca86708	-0.020556942
30	0xbcf231ce	-0.029564764
31	0x3dede981	0.11616803
32	0xbe180aac	-0.14847821
33	0xbe39950c	-0.18123263
34	0xbd43a51a	-0.047764875
35	0x3dc9754f	0.09836828
36	0x3e6fdfb4	0.2342518
37	0x3dcf6ed1	0.101285584
38	0x3dfadf0f	0.12249576
39	0x3d2ba461	0.04190481
40	0xbc876060	-0.016525447
41	0xbce48e2d	-0.027899826
42	0x3dbf15c2	0.09330322
43	0x3c87aa00	0.016560555
44	0x3aad7e20	0.0013236441
45	0x3bfc90ab	0.0077076755
46	0xbc7aa260	-0.015297502
47	0x3e085fa6	0.13317737
48	0x3d6bc0c6	0.05755689
49	0xbcd40fe0	-0.025886476
50	0xbe2e6eb6	-0.1703442
51	0x3aaa6380	0.0012999624
52	0xbd062e86	-0.032759212
53	0x3dce60b1	0.10077036
54	0xbc7fe00c	-0.015617382
55	0x3e2495b8	0.16072738
56	0x3da37a20	0.07982278
57	0xbd62f09c	-0.055405244
58	0xbd8fb55e	-0.07017015
59	0xbd3aa3e7	-0.045566466
60	0x3dd6fc8a	0.10497387
61	0x3e25e08a	0.16198936
62	0x3d3d15a2	0.04616321
63	0xbddade4f	-0.10686933

model/fc/BiasAdd/ReadVariableOp f4 [3]
0	0x3c9112ae	0.017709102
1	0x3dbb5375	0.091467775
2	0x3c3a4e70	0.01137124

tfl.pseudo_qconst i1 [64, 64] scale=0.0015275362 zero_point=0
0	0x1c	0.04277101
1	0x07	0.010692753
2	0x01	0.0015275362
3	0x14	0.030550724
4	0x09	0.013747826
5	0xf0	-0.02444058
6	0x06	0.009165217
7	0x4a	0.113037676
8	0x47	0.10845507
9	0x28	0.061101448
10	0xd1	-0.071794204
11	0x2c	0.06721159
12	0x23	0.05346377
13	0xdd	-0.05346377
14	0x1c	0.04277101
15	0x1b	0.04124348
16	0x19	0.038188405
17	0x1e	0.045826085
18	0x26	0.058046374
19	0x02	0.0030550724
20	0x0a	0.015275362
21	0x15	0.03207826
22	0x07	0.010692753
23	0x59	0.13595071
24	0xca	-0.08248696
25	0x40	0.09776232
26	0x3d	0.09317971
27	0xf4	-0.018330434
28	0xf1	-0.022913042
29	0x00	0.0
30	0xc9	-0.08401449
31	0xde	-0.05193623
32	0xe2	-0.045826085
33	0xb3	-0.11762029
34	0x36	0.08248696
35	0x07	0.010692753
36	0x2e	0.070266664
37	0x0c	0.018330434
38	0x14	0.030550724
39	0x19	0.038188405
40	0xde	-0.05193623
41	0x42	0.10081739
42	0xff	-0.0015275362
43	0x15	0.03207826
44	0x11	0.025968116
45	0xdb	-0.056518838
46	0xef	-0.025968116
47	0xd7	-0.062628984
48	0xd4	-0.06721159
49	0xcf	-0.07484927
50	0x45	0.105399996
51	0x1a	0.039715942
52	0x0b	0.016802898
53	0xdc	-0.054991305
54	0x00	0.0
55	0xf5	-0.016802898
56	0x10	0.02444058
57	0x0a	0.015275362
58	0xf0	-0.02444058
59	0x26	0.058046374
60	0x50	0.122202896
61	0x2b	0.06568406
62	0xf4	-0.018330434
63	0xf9	-0.010692753
64	0x15	0.03207826
65	0x2b	0.06568406
66	0xd1	-0.071794204
67	0x26	0.058046374
68	0xe8	-0.03666087
69	0x4e	0.11914782
70	0x53	0.1267855
71	0xc8	-0.08554202
72	0xc4	-0.09165217
73	0xf4	-0.018330434
74	0xde	-0.05193623
75	0x1c	0.04277101
76	0x62	0.14969854
77	0xd8	-0.061101448
78	0x33	0.07790434
79	0xfc	-0.006110145
80	0x3a	0.0885971
81	0x28	0.061101448
82	0x9c	-0.15275362
83	0x06	0.009165217
84	0x33	0.07790434
85	0xd3	-0.06873913
86	0x2f	0.071794204
87	0xca	-0.08248696
88	0xc5	-0.09012464
89	0xeb	-0.03207826
90	0xa5	-0.1390058
91	0xe0	-0.04888116
92	0xe8	-0.03666087
93	0x28	0.061101448
94	0xd8	-0.061101448
95	0xed	-0.029023187
96	0xea	-0.033605795
97	0xe2	-0.045826085
98	0x36	0.08248696
99	0x09	0.013747826
100	0xbb	-0.105399996
101	0xfc	-0.006110145
102	0x26	0.058046374
103	0x06	0.009165217
104	0x3e	0.09470724
105	0xec	-0.030550724
106	0x1e	0.045826085
107	0xdd	-0.05346377
108	0x0a	0.015275362
109	0x07	0.010692753
110	0xdc	-0.054991305
111	0x53	0.1267855
112	0xe0	-0.04888116
113	0xe0	-0.04888116
114	0x28	0.061101448
115	0xc4	-0.09165217
116	0xb8	-0.10998261
117	0x34	0.079431884
118	0x05	0.007637681
119	0xc2	-0.09470724
120	0x2b	0.06568406
121	0x35	0.08095942
122	0xf8	-0.01222029
123	0xf7	-0.013747826
124	0xda	-0.058046374
125	0x0b	0.016802898
126	0x1b	0.04124348
127	0x2b	0.06568406
128	0x18	0.03666087
129	0x33	0.07790434
130	0x16	0.033605795
131	0x1d	0.04429855
132	0xce	-0.07637681
133	0xf4	-0.018330434
134	0x0c	0.018330434
135	0x2d	0.06873913
136	0x02	0.0030550724
137	0xf9	-0.010692753
138	0xf0	-0.02444058
139	0xff	-0.0015275362
140	0x2a	0.06415652
141	0xd5	-0.06568406
142	0xd7	-0.062628984
143	0x18	0.03666087
144	0xf1	-0.022913042
145	0x1d	0.04429855
146	0x01	0.0015275362
147	0xdf	-0.050408695
148	0x35	0.08095942
149	0x44	0.10387246
150	0xef	-0.025968116
151	0x2e	0.070266664
152	0xdb	-0.056518838
153	0x25	0.056518838
154	0xcc	-0.079431884
155	0xc2	-0.09470724
156	0x21	0.050408695
157	0x1d	0.04429855
158	0xea	-0.033605795
159	0x05	0.007637681
160	0xea	-0.033605795
161	0xed	-0.029023187
162	0xdf	-0.050408695
163	0x2d	0.06873913
164	0xc5	-0.09012464
165	0x27	0.05957391
166	0xc0	-0.09776232
167	0xcd	-0.07790434
168	0x19	0.038188405
169	0x18	0.03666087
170	0xd0	-0.07332174
171	0x28	0.061101448
172	0xe7	-0.038188405
173	0x23	0.05346377
174	0x25	0.056518838
175	0x40	0.09776232
176	0xe9	-0.035133332
177	0x2a	0.06415652
178	0x06	0.009165217
179	0x23	0.05346377
180	0xd0	-0.07332174
181	0x3e	0.09470724
182	0x0f	0.022913042
183	0xc3	-0.09317971
184	0x37	0.08401449
185	0xba	-0.10692754
186	0xb0	-0.122202896
187	0x21	0.050408695
188	0x3c	0.09165217
189	0x30	0.07332174
190	0xf9	-0.010692753
191	0x1e	0.045826085
192	0xfc	-0.006110145
193	0xdb	-0.056518838
194	0xc8	-0.08554202
195	0x0f	0.022913042
196	0xef	-0.025968116
197	0x11	0.025968116
198	0xd5	-0.06568406
199	0xe1	-0.04735362
200	0xbf	-0.09928985
201	0xd3	-0.06873913
202	0xdb	-0.056518838
203	0x0e	0.021385506
204	0xfd	-0.0045826086
205	0xc4	-0.09165217
206	0x18	0.03666087
207	0x13	0.029023187
208	0x1a	0.039715942
209	0xfa	-0.009165217
210	0xd0	-0.07332174
211	0x0c	0.018330434
212	0x3c	0.09165217
213	0x2c	0.06721159
214	0x0c	0.018330434
215	0x0d	0.019857971
216	0xc7	-0.08706956
217	0xe1	-0.04735362
218	0xe3	-0.04429855
219	0xe7	-0.038188405
220	0xbf	-0.09928985
221	0xca	-0.08248696
222	0x0b	0.016802898
223	0x17	0.035133332
224	0x14	0.030550724
225	0x00	0.0
226	0x35	0.08095942
227	0xfd	-0.0045826086
228	0xc4	-0.09165217
229	0x12	0.027495652
230	0xda	-0.058046374
231	0xec	-0.030550724
232	0x15	0.03207826
233	0xdf	-0.050408695
234	0x59	0.13595071
235	0x00	0.0
236	0x13	0.029023187
237	0xf0	-0.02444058
238	0x17	0.035133332
239	0x4b	0.114565216
240	0x13	0.029023187
241	0x03	0.0045826086
242	0xe7	-0.038188405
243	0xff	-0.0015275362
244	0xb8	-0.10998261
245	0x12	0.027495652
246	0xf8	-0.01222029
247	0xf9	-0.010692753
248	0x01	0.0015275362
249	0x1c	0.04277101
250	0xd4	-0.06721159
251	0xd6	-0.06415652
252	0x46	0.10692754
253	0xd8	-0.061101448
254	0x37	0.08401449
255	0x3c	0.09165217

tfl.pseudo_qconst1 i1 [64, 64] scale=0.0014839631 zero_point=0
0	0x3a	0.08606986
1	0x2d	0.06677834
2	0x1b	0.040067002
3	0xd3	-0.06677834
4	0x0b	0.016323594
5	0x22	0.050454747
6	0x2c	0.06529438
7	0x21	0.04897078
8	0xd9	-0.05787456
9	0x2c	0.06529438
10	0xed	-0.0281953
11	0xd6	-0.06232645
12	0x39	0.0845859
13	0x0d	0.01929152
14	0xd5	-0.063810416
15	0x08	0.011871705
16	0xdf	-0.04897078
17	0x26	0.0563906
18	0xd1	-0.06974626
19	0xf5	-0.016323594
20	0xb4	-0.1127812
21	0xee	-0.026711335
22	0x49	0.1083293
23	0x77	0.1765916
24	0xfb	-0.0074198153
25	0xc9	-0.081617974
26	0xf1	-0.022259446
27	0x16	0.03264719
28	0x14	0.029679261
29	0x1b	0.040067002
30	0xbb	-0.102393456
31	0x35	0.07865004
32	0x09	0.013355668
33	0xcc	-0.07716608
34	0xc8	-0.083101936
35	0xe8	-0.035615116
36	0x47	0.10536138
37	0x33	0.07568212
38	0xfc	-0.0059358524
39	0x25	0.054906636
40	0x3d	0.09052175
41	0x25	0.054906636
42	0x43	0.099425524
43	0x1c	0.041550968
44	0x27	0.05787456
45	0xcb	-0.07865004
46	0xc3	-0.09052175
47	0xd8	-0.059358522
48	0xf6	-0.014839631
49	0x01	0.0014839631
50	0x23	0.05193871
51	0x0d	0.01929152
52	0x12	0.026711335
53	0xdf	-0.04897078
54	0x11	0.025227373
55	0xff	-0.0014839631
56	0xdd	-0.05193871
57	0xf3	-0.01929152
58	0x3f	0.09348968
59	0x11	0.025227373
60	0x52	0.121684976
61	0x1b	0.040067002
62	0xe8	-0.035615116
63	0x4a	0.10981327
64	0x1f	0.046002857
65	0xf7	-0.013355668
66	0x1e	0.04451889
67	0x0c	0.017807558
68	0xdf	-0.04897078
69	0xd7	-0.060842488
70	0x29	0.060842488
71	0xae	-0.121684976
72	0x94	-0.16026801
73	0xd5	-0.063810416
74	0x07	0.010387742
75	0x20	0.04748682
76	0xd8	-0.059358522
77	0xab	-0.12613687
78	0xb8	-0.10684534
79	0x0a	0.014839631
80	0x33	0.07568212
81	0x38	0.083101936
82	0xe9	-0.03413115
83	0xca	-0.080134004
84	0x4b	0.111297235
85	0x07	0.010387742
86	0x2b	0.063810416
87	0xe1	-0.046002857
88	0xf2	-0.020775484
89	0x20	0.04748682
90	0x33	0.07568212
91	0x2a	0.06232645
92	0x35	0.07865004
93	0xb8	-0.10684534
94	0x02	0.0029679262
95	0x2c	0.06529438
96	0xe9	-0.03413115
97	0x3e	0.092005715
98	0xdb	-0.054906636
99	0xf2	-0.020775484
100	0xb1	-0.11723308
101	0x3f	0.09348968
102	0xae	-0.121684976
103	0xb4	-0.1127812
104	0x1f	0.046002857
105	0xcf	-0.072714195
106	0xf5	-0.016323594
107	0xfc	-0.0059358524
108	0x0a	0.014839631
109	0xb7	-0.1083293
110	0xac	-0.1246529
111	0xd3	-0.06677834
112	0x0d	0.01929152
113	0x06	0.008903779
114	0xb5	-0.111297235
115	0x01	0.0014839631
116	0x0e	0.020775484
117	0x18	0.035615116
118	0x04	0.0059358524
119	0x3e	0.092005715
120	0x24	0.05342267
121	0x13	0.0281953
122	0xc7	-0.0845859
123	0xf5	-0.016323594
124	0x60	0.14246047
125	0x30	0.07123023
126	0xfd	-0.0044518895
127	0xd5	-0.063810416
128	0xe1	-0.046002857
129	0xd7	-0.060842488
130	0xde	-0.050454747
131	0xb9	-0.10536138
132	0xbe	-0.09794156
133	0x0b	0.016323594
134	0x3e	0.092005715
135	0x25	0.054906636
136	0xd4	-0.06529438
137	0x26	0.0563906
138	0x16	0.03264719
139	0xe4	-0.041550968
140	0x23	0.05193871
141	0xe6	-0.03858304
142	0x04	0.0059358524
143	0x24	0.05342267
144	0xf0	-0.02374341
145	0x2b	0.063810416
146	0x40	0.09497364
147	0xcd	-0.07568212
148	0x29	0.060842488
149	0xf2	-0.020775484
150	0x0e	0.020775484
151	0xd6	-0.06232645
152	0xcc	-0.07716608
153	0xf4	-0.017807558
154	0xc2	-0.092005715
155	0x3f	0.09348968
156	0xfc	-0.0059358524
157	0x1c	0.041550968
158	0xe9	-0.03413115
159	0xfe	-0.0029679262
160	0x18	0.035615116
161	0x13	0.0281953
162	0x09	0.013355668
163	0x0f	0.022259446
164	0xb0	-0.118717045
165	0x11	0.025227373
166	0xd3	-0.06677834
167	0xda	-0.0563906
168	0xba	-0.10387742
169	0xfd	-0.0044518895
170	0x46	0.10387742
171	0xfa	-0.008903779
172	0xd6	-0.06232645
173	0x42	0.09794156
174	0xc6	-0.08606986
175	0xde	-0.050454747
176	0x40	0.09497364
177	0x11	0.025227373
178	0x17	0.03413115
179	0x3a	0.08606986
180	0xb1	-0.11723308
181	0x31	0.072714195
182	0xd7	-0.060842488
183	0x37	0.081617974
184	0x0a	0.014839631
185	0x32	0.07419816
186	0xc4	-0.08903778
187	0xbd	-0.099425524
188	0x34	0.07716608
189	0xe0	-0.04748682
190	0x13	0.0281953
191	0xc7	-0.0845859
192	0xc2	-0.092005715
193	0xba	-0.10387742
194	0x98	-0.15433216
195	0xab	-0.12613687
196	0xc3	-0.09052175
197	0x24	0.05342267
198	0x19	0.03709908
199	0xed	-0.0281953
200	0xbf	-0.0964576
201	0x20	0.04748682
202	0xcd	-0.07568212
203	0x27	0.05787456
204	0x21	0.04897078
205	0xe6	-0.03858304
206	0xde	-0.050454747
207	0xdb	-0.054906636
208	0xe5	-0.040067002
209	0xf3	-0.01929152
210	0xd0	-0.07123023
211	0xf7	-0.013355668
212	0x1c	0.041550968
213	0x36	0.080134004
214	0xde	-0.050454747
215	0x09	0.013355668
216	0x10	0.02374341
217	0xb2	-0.11574912
218	0xfc	-0.0059358524
219	0xd6	-0.06232645
220	0xca	-0.080134004
221	0xe9	-0.03413115
222	0x1a	0.03858304
223	0x3a	0.08606986
224	0xd2	-0.0682623
225	0xba	-0.10387742
226	0x52	0.121684976
227	0x1a	0.03858304
228	0xb8	-0.10684534
229	0x47	0.10536138
230	0xab	-0.12613687
231	0x25	0.054906636
232	0xbe	-0.09794156
233	0xd9	-0.05787456
234	0xf3	-0.01929152
235	0x12	0.026711335
236	0x25	0.054906636
237	0x2f	0.06974626
238	0x1c	0.041550968
239	0x63	0.14691235
240	0x34	0.07716608
241	0xc7	-0.0845859
242	0x97	-0.15581612
243	0xad	-0.12316894
244	0x1e	0.04451889
245	0x4b	0.111297235
246	0xfb	-0.0074198153
247	0x9f	-0.14394443
248	0x3b	0.08755382
249	0x01	0.0014839631
250	0xbf	-0.0964576
251	0xae	-0.121684976
252	0x0a	0.014839631
253	0x0c	0.017807558
254	0x27	0.05787456
255	0x28	0.059358522

tfl.pseudo_qconst2 i1 [64, 64] scale=0.0016110644 zero_point=0
0	0x2e	0.074108966
1	0x1f	0.049942996
2	0xde	-0.05477619
3	0x34	0.08377535
4	0xec	-0.032221287
5	0xc1	-0.10149706
6	0xde	-0.05477619
7	0x84	-0.19977199
8	0x30	0.077331096
9	0x26	0.06122045
10	0x40	0.10310812
11	0xf7	-0.01449958
12	0xbb	-0.111163445
13	0xc8	-0.09021961
14	0x19	0.04027661
15	0x16	0.035443418
16	0x2e	0.074108966
17	0x57	0.1401626
18	0x2f	0.07572003
19	0x33	0.08216429
20	0xd0	-0.077331096
21	0xd3	-0.0724979
22	0xc2	-0.09988599
23	0x02	0.0032221288
24	0xaf	-0.13049622
25	0x35	0.08538642
26	0x1d	0.04672087
27	0xd6	-0.067664705
28	0xd0	-0.077331096
29	0x23	0.056387253
30	0xe5	-0.04349874
31	0x48	0.11599664
32	0xf7	-0.01449958
33	0x07	0.011277451
34	0xb3	-0.12405196
35	0x00	0.0
36	0xbb	-0.111163445
37	0xf4	-0.019332774
38	0xd2	-0.074108966
39	0xe7	-0.04027661
40	0x3e	0.09988599
41	0x01	0.0016110644
42	0xb7	-0.117607705
43	0x2b	0.06927577
44	0x49	0.117607705
45	0xca	-0.08699748
46	0x21	0.053165127
47	0x0c	0.019332774
48	0xf6	-0.016110644
49	0x39	0.09183067
50	0xd0	-0.077331096
51	0xf7	-0.01449958
52	0x16	0.035443418
53	0x4b	0.12082983
54	0xfb	-0.008055322
55	0xca	-0.08699748
56	0xe4	-0.045109805
57	0x08	0.012888515
58	0x3b	0.0950528
59	0x13	0.030610224
60	0x3d	0.09827493
61	0x14	0.032221287
62	0x09	0.01449958
63	0xfa	-0.009666387
64	0xc7	-0.09183067
65	0xcf	-0.07894216
66	0x2b	0.06927577
67	0xce	-0.08055322
68	0xb6	-0.11921877
69	0x2a	0.067664705
70	0xa4	-0.14821793
71	0x49	0.117607705
72	0x59	0.14338474
73	0x25	0.059609383
74	0xcc	-0.08377535
75	0x37	0.08860854
76	0xee	-0.02899916
77	0xcf	-0.07894216
78	0xe6	-0.041887674
79	0xcc	-0.08377535
80	0xfe	-0.0032221288
81	0xcd	-0.08216429
82	0x08	0.012888515
83	0xfe	-0.0032221288
84	0xb4	-0.1224409
85	0x05	0.008055322
86	0x42	0.10633025
87	0x54	0.13532941
88	0x32	0.08055322
89	0x42	0.10633025
90	0x4e	0.12566303
91	0x0d	0.020943837
92	0x39	0.09183067
93	0x47	0.114385575
94	0xe7	-0.04027661
95	0xdb	-0.059609383
96	0xdf	-0.053165127
97	0xe4	-0.045109805
98	0x35	0.08538642
99	0x5d	0.14982899
100	0x1b	0.04349874
101	0x4b	0.12082983
102	0x57	0.1401626
103	0xd8	-0.064442575
104	0x0b	0.017721709
105	0x1f	0.049942996
106	0xf1	-0.024165966
107	0x3d	0.09827493
108	0xf3	-0.020943837
109	0xed	-0.030610224
110	0x36	0.08699748
111	0xde	-0.05477619
112	0x06	0.009666387
113	0xd6	-0.067664705
114	0xd3	-0.0724979
115	0x18	0.038665548
116	0xbc	-0.10955238
117	0xd4	-0.070886835
118	0x0b	0.017721709
119	0x35	0.08538642
120	0x0c	0.019332774
121	0x2a	0.067664705
122	0x13	0.030610224
123	0x39	0.09183067
124	0x28	0.064442575
125	0xef	-0.027388096
126	0xb1	-0.1272741
127	0xfd	-0.0048331935
128	0xfe	-0.0032221288
129	0xdc	-0.05799832
130	0xfb	-0.008055322
131	0x35	0.08538642
132	0x04	0.0064442577
133	0xd1	-0.07572003
134	0xcf	-0.07894216
135	0xf9	-0.011277451
136	0x2a	0.067664705
137	0xe8	-0.038665548
138	0x08	0.012888515
139	0xe2	-0.04833193
140	0xc9	-0.08860854
141	0x37	0.08860854
142	0xd5	-0.06927577
143	0xf3	-0.020943837
144	0xf2	-0.022554902
145	0xe6	-0.041887674
146	0x06	0.009666387
147	0x2d	0.0724979
148	0x26	0.06122045
149	0xe7	-0.04027661
150	0xe5	-0.04349874
151	0x04	0.0064442577
152	0x24	0.05799832
153	0xd9	-0.06283151
154	0xec	-0.032221287
155	0x23	0.056387253
156	0xba	-0.112774506
157	0x03	0.0048331935
158	0xd2	-0.074108966
159	0x0f	0.024165966
160	0x01	0.0016110644
161	0xdf	-0.053165127
162	0x26	0.06122045
163	0xe4	-0.045109805
164	0xfc	-0.0064442577
165	0xe0	-0.05155406
166	0x11	0.027388096
167	0xd5	-0.06927577
168	0x0b	0.017721709
169	0x2f	0.07572003
170	0x11	0.027388096
171	0x18	0.038665548
172	0xe0	-0.05155406
173	0xef	-0.027388096
174	0x08	0.012888515
175	0x03	0.0048331935
176	0xb3	-0.12405196
177	0xf1	-0.024165966
178	0xf8	-0.012888515
179	0x37	0.08860854
180	0xda	-0.06122045
181	0xbb	-0.111163445
182	0x00	0.0
183	0x02	0.0032221288
184	0xf9	-0.011277451
185	0x36	0.08699748
186	0x12	0.02899916
187	0xe1	-0.049942996
188	0xd6	-0.067664705
189	0xf1	-0.024165966
190	0xcd	-0.08216429
191	0xfb	-0.008055322
192	0x08	0.012888515
193	0xec	-0.032221287
194	0x2f	0.07572003
195	0x26	0.06122045
196	0x3a	0.09344174
197	0x0b	0.017721709
198	0x27	0.06283151
199	0xcf	-0.07894216
200	0xc9	-0.08860854
201	0xd3	-0.0724979
202	0xdb	-0.059609383
203	0xbd	-0.107941315
204	0xcb	-0.08538642
205	0x0e	0.022554902
206	0xc6	-0.09344174
207	0x32	0.08055322
208	0xe0	-0.05155406
209	0x27	0.06283151
210	0xb3	-0.12405196
211	0xb9	-0.114385575
212	0xb3	-0.12405196
213	0xb3	-0.12405196
214	0x44	0.10955238
215	0x41	0.104719184
216	0xde	-0.05477619
217	0x07	0.011277451
218	0xf5	-0.017721709
219	0x41	0.104719184
220	0xe7	-0.04027661
221	0xfa	-0.009666387
222	0x45	0.111163445
223	0xfd	-0.0048331935
224	0x27	0.06283151
225	0xf2	-0.022554902
226	0x1d	0.04672087
227	0x3e	0.09988599
228	0x55	0.13694048
229	0x09	0.01449958
230	0xf1	-0.024165966
231	0x21	0.053165127
232	0x65	0.1627175
233	0x03	0.0048331935
234	0x4c	0.1224409
235	0xba	-0.112774506
236	0xf8	-0.012888515
237	0xe4	-0.045109805
238	0xb9	-0.114385575
239	0x02	0.0032221288
240	0x47	0.114385575
241	0xa9	-0.1401626
242	0xdd	-0.056387253
243	0x34	0.08377535
244	0xfa	-0.009666387
245	0x38	0.09021961
246	0xe6	-0.041887674
247	0xec	-0.032221287
248	0xba	-0.112774506
249	0x2c	0.070886835
250	0x35	0.08538642
251	0xe1	-0.049942996
252	0xfb	-0.008055322
253	0xb5	-0.12082983
254	0xa5	-0.14660686
255	0x1c	0.045109805

tfl.pseudo_qconst3 i1 [64, 64] scale=0.0016083511 zero_point=0
0	0xeb	-0.033775374
1	0x0b	0.017691862
2	0x2d	0.072375804
3	0x4c	0.12223469
4	0x31	0.0788092
5	0xd4	-0.07076745
6	0xfb	-0.008041755
7	0xfe	-0.0032167023
8	0xca	-0.08685096
9	0x3b	0.09489272
10	0xea	-0.035383724
11	0x17	0.036992077
12	0x39	0.09167601
13	0x2d	0.072375804
14	0x29	0.0659424
15	0x3f	0.10132612
16	0x02	0.0032167023
17	0x42	0.10615117
18	0xeb	-0.033775374
19	0xfe	-0.0032167023
20	0xd5	-0.0691591
21	0xfe	-0.0032167023
22	0x60	0.1544017
23	0x08	0.012866809
24	0x9c	-0.16083512
25	0xc6	-0.09328437
26	0x01	0.0016083511
27	0x06	0.009650107
28	0x41	0.10454282
29	0xc7	-0.09167601
30	0x1b	0.04342548
31	0x37	0.08845931
32	0xe0	-0.051467236
33	0x14	0.03216702
34	0x38	0.09006766
35	0xd7	-0.0659424
36	0xd9	-0.06272569
37	0x03	0.0048250533
38	0x30	0.07720085
39	0xc5	-0.09489272
40	0x04	0.0064334045
41	0x0d	0.020908564
42	0xcd	-0.08202591
43	0xe8	-0.038600426
44	0x4b	0.12062634
45	0xdb	-0.05950899
46	0x1a	0.04181713
47	0x01	0.0016083511
48	0xd1	-0.0755925
49	0xd6	-0.06755075
50	0xe3	-0.046642184
51	0x27	0.06272569
52	0xec	-0.03216702
53	0x16	0.035383724
54	0xf0	-0.025733618
55	0xd5	-0.0691591
56	0xd3	-0.072375804
57	0x04	0.0064334045
58	0x28	0.06433404
59	0xc7	-0.09167601
60	0x59	0.14314325
61	0xd8	-0.06433404
62	0xb3	-0.12384304
63	0xe8	-0.038600426
64	0x01	0.0016083511
65	0x1e	0.048250534
66	0xfa	-0.009650107
67	0x0c	0.019300213
68	0x14	0.03216702
69	0x21	0.053075586
70	0x53	0.13349314
71	0xd6	-0.06755075
72	0xaf	-0.13027644
73	0xc1	-0.10132612
74	0xd7	-0.0659424
75	0x1b	0.04342548
76	0xe6	-0.04181713
77	0xfa	-0.009650107
78	0xdb	-0.05950899
79	0xf8	-0.012866809
80	0x19	0.04020878
81	0x12	0.02895032
82	0xcc	-0.08363426
83	0xe4	-0.04503383
84	0xfd	-0.0048250533
85	0xf0	-0.025733618
86	0xc2	-0.09971777
87	0x37	0.08845931
88	0xfd	-0.0048250533
89	0xce	-0.08041756
90	0x11	0.02734197
91	0xd8	-0.06433404
92	0xd6	-0.06755075
93	0xf0	-0.025733618
94	0x36	0.08685096
95	0x29	0.0659424
96	0x0b	0.017691862
97	0x3b	0.09489272
98	0x2d	0.072375804
99	0x18	0.038600426
100	0x28	0.06433404
101	0x25	0.05950899
102	0xf5	-0.017691862
103	0xd3	-0.072375804
104	0xff	-0.0016083511
105	0xcd	-0.08202591
106	0xf9	-0.011258458
107	0x44	0.10936788
108	0x04	0.0064334045
109	0xdb	-0.05950899
110	0x38	0.09006766
111	0x02	0.0032167023
112	0x14	0.03216702
113	0x1e	0.048250534
114	0xc0	-0.10293447
115	0xdd	-0.056292288
116	0x37	0.08845931
117	0x35	0.08524261
118	0xc1	-0.10132612
119	0x1e	0.048250534
120	0xf6	-0.01608351
121	0x50	0.12866808
122	0x1e	0.048250534
123	0x22	0.05468394
124	0xfb	-0.008041755
125	0xd3	-0.072375804
126	0x1a	0.04181713
127	0xd8	-0.06433404
128	0xfa	-0.009650107
129	0xdd	-0.056292288
130	0xbd	-0.10775953
131	0xca	-0.08685096
132	0xc1	-0.10132612
133	0x00	0.0
134	0x3f	0.10132612
135	0xf2	-0.022516916
136	0xd9	-0.06272569
137	0x26	0.061117344
138	0x33	0.08202591
139	0xe6	-0.04181713
140	0xe5	-0.04342548
141	0xf1	-0.024125267
142	0x2b	0.0691591
143	0xd0	-0.07720085
144	0x17	0.036992077
145	0x08	0.012866809
146	0x46	0.112584576
147	0xc6	-0.09328437
148	0x45	0.11097623
149	0x48	0.11580128
150	0x07	0.011258458
151	0x01	0.0016083511
152	0xf3	-0.020908564
153	0xca	-0.08685096
154	0xec	-0.03216702
155	0x03	0.0048250533
156	0x59	0.14314325
157	0xd1	-0.0755925
158	0xde	-0.05468394
159	0xc2	-0.09971777
160	0x1e	0.048250534
161	0x4f	0.12705974
162	0xef	-0.02734197
163	0xd3	-0.072375804
164	0xf3	-0.020908564
165	0x02	0.0032167023
166	0x31	0.0788092
167	0x38	0.09006766
168	0xb4	-0.12223469
169	0xb9	-0.11419293
170	0xdf	-0.053075586
171	0x21	0.053075586
172	0xe8	-0.038600426
173	0xf3	-0.020908564
174	0xf2	-0.022516916
175	0xf6	-0.01608351
176	0x1f	0.049858887
177	0xe2	-0.048250534
178	0x23	0.056292288
179	0x09	0.01447516
180	0xdf	-0.053075586
181	0xee	-0.02895032
182	0xd3	-0.072375804
183	0x0e	0.022516916
184	0xd0	-0.07720085
185	0x07	0.011258458
186	0x10	0.025733618
187	0x18	0.038600426
188	0xfd	-0.0048250533
189	0x3d	0.09810942
190	0x25	0.05950899
191	0x43	0.10775953
192	0xe6	-0.04181713
193	0x13	0.030558672
194	0xab	-0.13670984
195	0xfd	-0.0048250533
196	0xcb	-0.08524261
197	0x3a	0.09328437
198	0xdf	-0.053075586
199	0x78	0.19300213
200	0xe1	-0.049858887
201	0xbd	-0.10775953
202	0x02	0.0032167023
203	0x3f	0.10132612
204	0x2a	0.06755075
205	0x2a	0.06755075
206	0xe3	-0.046642184
207	0xe6	-0.04181713
208	0xf1	-0.024125267
209	0xbd	-0.10775953
210	0x38	0.09006766
211	0x10	0.025733618
212	0x54	0.1351015
213	0x5c	0.1479683
214	0xa8	-0.1415349
215	0xaf	-0.13027644
216	0x11	0.02734197
217	0xaa	-0.1383182
218	0xe1	-0.049858887
219	0x1e	0.048250534
220	0x2f	0.0755925
221	0xfa	-0.009650107
222	0xd7	-0.0659424
223	0xfe	-0.0032167023
224	0x28	0.06433404
225	0x05	0.008041755
226	0x41	0.10454282
227	0xde	-0.05468394
228	0xdd	-0.056292288
229	0x39	0.09167601
230	0x0a	0.01608351
231	0xe4	-0.04503383
232	0xac	-0.1351015
233	0x4d	0.12384304
234	0xdb	-0.05950899
235	0x1e	0.048250534
236	0xac	-0.1351015
237	0xca	-0.08685096
238	0xca	-0.08685096
239	0x49	0.11740963
240	0x08	0.012866809
241	0xe2	-0.048250534
242	0xd8	-0.06433404
243	0xea	-0.035383724
244	0xce	-0.08041756
245	0x2e	0.07398415
246	0xe9	-0.036992077
247	0xb3	-0.12384304
248	0x54	0.1351015
249	0xc1	-0.10132612
250	0xbc	-0.10936788
251	0x14	0.03216702
252	0x02	0.0032167023
253	0xc7	-0.09167601
254	0x1d	0.046642184
255	0x36	0.08685096

tfl.pseudo_qconst4 i1 [64, 99] scale=0.0014825601 zero_point=0
0	0xfe	-0.0029651201
1	0x20	0.047441922
2	0xf4	-0.01779072
3	0xfd	-0.00444768
4	0xe6	-0.038546562
5	0xe8	-0.03558144
6	0xfe	-0.0029651201
7	0xb7	-0.10822689
8	0x1f	0.04595936
9	0xfc	-0.0059302403
10	0xc6	-0.085988484
11	0x27	0.057819843
12	0xfb	-0.0074128006
13	0xd0	-0.07116288
14	0xd8	-0.059302405
15	0x00	0.0
16	0x15	0.031133762
17	0x13	0.028168641
18	0xff	-0.0014825601
19	0xe2	-0.044476803
20	0x0d	0.019273281
21	0x13	0.028168641
22	0xcf	-0.07264544
23	0xed	-0.028168641
24	0x11	0.02520352
25	0x2d	0.0667152
26	0xe7	-0.037064
27	0xfd	-0.00444768
28	0xc8	-0.08302336
29	0x1d	0.042994242
30	0xfe	-0.0029651201
31	0xed	-0.028168641
32	0xdc	-0.053372163
33	0xda	-0.056337282
34	0xe1	-0.04595936
35	0xe8	-0.03558144
36	0xe1	-0.04595936
37	0x33	0.07561056
38	0xe3	-0.042994242
39	0xce	-0.074128
40	0x07	0.01037792
41	0x04	0.0059302403
42	0xf5	-0.01630816
43	0xc0	-0.094883844
44	0xed	-0.028168641
45	0x20	0.047441922
46	0x5c	0.13639553
47	0x1e	0.044476803
48	0xc5	-0.087471046
49	0x30	0.07116288
50	0xc9	-0.0815408
51	0xef	-0.02520352
52	0xec	-0.029651202
53	0xdc	-0.053372163
54	0x2d	0.0667152
55	0xc4	-0.08895361
56	0xed	-0.028168641
57	0x29	0.060784962
58	0x09	0.013343041
59	0x2e	0.068197764
60	0x11	0.02520352
61	0xcc	-0.077093124
62	0xd4	-0.06523264
63	0x00	0.0
64	0x07	0.01037792
65	0x05	0.0074128006
66	0xe4	-0.04151168
67	0xd1	-0.069680326
68	0x3c	0.08895361
69	0x10	0.023720961
70	0xff	-0.0014825601
71	0x00	0.0
72	0x2b	0.06375008
73	0x01	0.0014825601
74	0x00	0.0
75	0x0d	0.019273281
76	0x39	0.08450592
77	0x0d	0.019273281
78	0xeb	-0.031133762
79	0x27	0.057819843
80	0xf9	-0.01037792
81	0x30	0.07116288
82	0x0c	0.01779072
83	0xfa	-0.00889536
84	0xf1	-0.022238402
85	0xfc	-0.0059302403
86	0xe5	-0.040029123
87	0xd5	-0.06375008
88	0x0c	0.01779072
89	0xe7	-0.037064
90	0x24	0.053372163
91	0xeb	-0.031133762
92	0x16	0.03261632
93	0x00	0.0
94	0x0f	0.022238402
95	0xf3	-0.019273281
96	0xf5	-0.01630816
97	0x46	0.103779204
98	0xef	-0.02520352
99	0xf1	-0.022238402
100	0xa8	-0.13046528
101	0xec	-0.029651202
102	0x09	0.013343041
103	0xf8	-0.0118604805
104	0xea	-0.03261632
105	0x14	0.029651202
106	0xb9	-0.105261765
107	0xf5	-0.01630816
108	0x12	0.026686082
109	0x3d	0.09043616
110	0xd5	-0.06375008
111	0xfa	-0.00889536
112	0x40	0.094883844
113	0x31	0.07264544
114	0xf0	-0.023720961
115	0x37	0.0815408
116	0xf3	-0.019273281
117	0x01	0.0014825601
118	0xd8	-0.059302405
119	0xc8	-0.08302336
120	0xfe	-0.0029651201
121	0x3b	0.087471046
122	0x00	0.0
123	0xec	-0.029651202
124	0x19	0.037064
125	0x13	0.028168641
126	0x10	0.023720961
127	0xad	-0.123052485
128	0x24	0.053372163
129	0xf2	-0.02075584
130	0x43	0.09933153
131	0xd9	-0.057819843
132	0xee	-0.026686082
133	0xf2	-0.02075584
134	0xce	-0.074128
135	0x1d	0.042994242
136	0x14	0.029651202
137	0xd4	-0.06523264
138	0x52	0.121569924
139	0x20	0.047441922
140	0xd2	-0.068197764
141	0xc6	-0.085988484
142	0xe8	-0.03558144
143	0xb2	-0.11563969
144	0x13	0.028168641
145	0xa0	-0.14232576
146	0x10	0.023720961
147	0x2a	0.062267523
148	0x03	0.00444768
149	0xeb	-0.031133762
150	0x40	0.094883844
151	0xfa	-0.00889536
152	0xf7	-0.013343041
153	0x26	0.056337282
154	0x9c	-0.148256
155	0x02	0.0029651201
156	0x39	0.08450592
157	0xc7	-0.08450592
158	0x0d	0.019273281
159	0xbf	-0.096366405
160	0xfd	-0.00444768
161	0x3b	0.087471046
162	0x1b	0.040029123
163	0x14	0.029651202
164	0x91	-0.16456416
165	0xd4	-0.06523264
166	0x98	-0.15418625
167	0x21	0.048924483
168	0x25	0.05485472
169	0x0a	0.014825601
170	0xfe	-0.0029651201
171	0xf5	-0.01630816
172	0xf1	-0.022238402
173	0x05	0.0074128006
174	0x30	0.07116288
175	0x3d	0.09043616
176	0xf4	-0.01779072
177	0xfc	-0.0059302403
178	0x17	0.034098882
179	0x03	0.00444768
180	0x17	0.034098882
181	0xc7	-0.08450592
182	0x12	0.026686082
183	0x1b	0.040029123
184	0xe5	-0.040029123
185	0x0a	0.014825601
186	0x3f	0.09340128
187	0x4f	0.11712225
188	0xfe	-0.0029651201
189	0xc6	-0.085988484
190	0xd9	-0.057819843
191	0xf0	-0.023720961
192	0xd7	-0.060784962
193	0x5a	0.1334304
194	0xdc	-0.053372163
195	0xce	-0.074128
196	0xbe	-0.09784897
197	0xd9	-0.057819843
198	0x02	0.0029651201
199	0x13	0.028168641
200	0x0a	0.014825601
201	0xfd	-0.00444768
202	0x39	0.08450592
203	0xe1	-0.04595936
204	0x0b	0.01630816
205	0x23	0.051889602
206	0xc8	-0.08302336
207	0x12	0.026686082
208	0xee	-0.026686082
209	0x2b	0.06375008
210	0xec	-0.029651202
211	0xd0	-0.07116288
212	0xfa	-0.00889536
213	0xf7	-0.013343041
214	0x34	0.077093124
215	0x37	0.0815408
216	0x0d	0.019273281
217	0x07	0.01037792
218	0x2d	0.0667152
219	0xe1	-0.04595936
220	0xb5	-0.111192
221	0x0b	0.01630816
222	0x1e	0.044476803
223	0x1b	0.040029123
224	0xe9	-0.034098882
225	0xf6	-0.014825601
226	0xfb	-0.0074128006
227	0x26	0.056337282
228	0x05	0.0074128006
229	0xeb	-0.031133762
230	0xb7	-0.10822689
231	0x2e	0.068197764
232	0xa7	-0.13194785
233	0xf5	-0.01630816
234	0xee	-0.026686082
235	0xb4	-0.112674564
236	0x0d	0.019273281
237	0x2c	0.06523264
238	0x0d	0.019273281
239	0x0d	0.019273281
240	0xd8	-0.059302405
241	0xe3	-0.042994242
242	0xf1	-0.022238402
243	0x00	0.0
244	0xdf	-0.048924483
245	0xf2	-0.02075584
246	0x14	0.029651202
247	0xad	-0.123052485
248	0x05	0.0074128006
249	0x2c	0.06523264
250	0xc7	-0.08450592
251	0x23	0.051889602
252	0x3c	0.08895361
253	0xca	-0.08005825
254	0xdf	-0.048924483
255	0x5a	0.1334304
