assets/models/exercise_classifier.tflite (tflite, 343300 bytes, 26 tensors)

model/fc/BiasAdd/ReadVariableOp f4 [3]
-0.010627579 0.017990032 0.066808544
00000000: 4c1f 2ebc d55f 933c ebd2 883d

arith.constant1 f4 [64, 64]
-0.021306256 0.024322873 -0.038362257 0.041294627 -0.011194783 -0.052109133 -0.004077731 0.020393131
-0.013078316 0.033376027 -0.047946986 0.052275967 0.017041214 0.027051179 0.01835202 -0.007456079
0.01777826 0.025727298 -0.013032361 0.010897783 0.0384138 0.0056056706 0.025022373 -0.04577236
-0.00432569 -0.005196831 0.059074145 0.004338104 0.009563111 -0.03823355 -0.015861616 0.04441831
-0.03251634 0.011198727 0.0020439504 0.039331008 0.0026407018 0.020197714 -0.005374313 -0.023339193
-0.03475536 -0.036156666 -0.056713257 0.020278385 -0.0041415286 -0.09007473 0.0034697987 0.018422034
-0.05794713 -0.020758344 0.028206531 0.047779474 -0.030004082 0.03637101 -0.022029988 -0.039842412
-0.053302553 -0.0063970513 -0.052245613 0.01124081 -0.05431019 -0.046835396 0.059019506 0.004615378
-0.012213554 -0.010166078 0.07539903 0.024908848 0.042055838 -0.03041714 0.09396397 -0.021437014
0.047933962 -0.05059428 0.019630916 0.021856219 0.013038954 -0.019864878 0.014134965 -0.046878394
-0.0204075 0.028195253 -0.010828952 -0.043770198 0.010746359 0.061014425 0.021301148 -0.060032513
-0.02872208 -0.056477543 0.015966918 0.05079858 -0.03974307 0.00812691 0.023508294 0.050059747
-0.040243614 0.04674227 0.042610265 -0.040567596 0.0034042562 0.06419071 0.03910357 0.037764404
-0.03765783 -0.051348258 0.020835761 0.04443169 -0.046706818 -0.017291931 -0.018377706 -0.01233476
-0.01637655 0.04018969 0.037049886 -0.036140684 0.03511936 -0.011644751 0.04907114 -0.0967617
0.010539383 0.04019777 -0.008315521 0.023637343 0.0014658276 -0.04743809 0.06328001 0.035958983
0.048806544 0.11594172 -0.0053365678 0.11610073 0.022189677 0.03515367 0.08633767 -0.048483174
0.029143421 0.03864412 -0.01814101 -0.015565787 -0.051101875 0.013333852 0.023526993 0.020264376
0.05656969 -0.05579237 -0.049975857 0.03387147 0.04923765 0.019935127 -0.049412046 -0.07838636
0.03658309 -0.017365167 0.113963805 0.11534525 0.090616256 -0.05948116 0.006110023 -0.0066043064
0.032329876 -0.027954597 -0.104778074 -0.041573588 0.029891886 -0.00042202428 -0.06463117 -0.022730976
0.086682044 0.06729524 -0.0076429658 0.10059693 0.011656138 -0.08664845 0.009747381 -0.058774408
-0.13830072 0.071903385 -0.017494483 0.09824369 -0.07531055 0.11449209 0.024133122 -0.025674932
0.073538296 0.038136877 0.007252974 0.054631785 0.08300943 0.03616099 0.06902861 -0.02833756
-0.0013056311 -0.015686458 -0.010994678 -0.0077882344 -0.0038929824 -0.042482857 -0.054266337 -5.348953e-05
-0.02089804 -0.0018294047 -0.0032998484 -0.049491353 -0.0015882654 -0.006271665 0.042283498 -0.023413332
0.030338641 0.021492615 0.014335359 -0.0056870524 -0.0055754874 -0.06217955 0.00035470468 0.07044084
-0.021830311 0.012144378 0.0041599134 0.018034512 -0.016500978 -0.050665885 -0.025874933 0.0023531117
0.00016847892 -0.052979827 -0.06796139 0.022047374 0.003557896 -0.01034314 0.007874445 0.00078266347
0.04612323 -0.00045647478 -0.040069018 0.03320388 -0.03323232 -0.0015303983 -0.002162288 0.020228008
-0.036670264 0.019716654 0.026807576 0.052448016 0.0022275762 0.046438403 0.001963808 -0.054145288
0.024687285 0.0026637393 0.015150033 -0.011419453 0.031956952 -0.059483293 -0.0066583753 -0.018396297
00000000: 758a aebc c340 c73c be21 1dbd 8e24 293d
00000010: 536a 37bc 6370 55bd 7d9e 85bb 7f0f a73c
00000020: 6f46 56bc 4db5 083d 0f64 44bd 531f 563d
00000030: 049a 8b3c 6f9a dd3c fa56 963c 2052 f4bb
00000040: b7a3 913c 0ec2 d23c af85 55bc 9d8c 323c
00000050: ca57 1d3d c6af b73b b8fb cc3c cc7b 3bbd
00000060: 85be 8dbb 2e4a aabb bbf7 713d a726 8e3b
00000070: 98ae 1c3c c89a 1cbd 38f0 81bc f9ef 353d
00000080: db2f 05bd de7a 373c ccf3 053b 8d19 213d
00000090: a00f 2d3b ad75 a53c 011b b0bb d631 bfbc
000000a0: a35b 0ebd 0319 14bd 294c 68bd db1e a63c
000000b0: a9b5 87bb 1a79 b8bd 9065 633b cee9 963c
000000c0: f859 6dbd 670d aabc 6211 e73c 69b4 433d
000000d0: 1fcb f5bc c5f9 143d 3c78 b4bc cc31 23bd
000000e0: c753 5abd 5b9e d1bb 7fff 55bd 602b 383c
000000f0: 5d74 5ebd 79d6 3fbd 70be 713d 993c 973b
00000100: 5c1b 48bc 9f8f 26bc cf6a 9a3d a40d cc3c
00000110: be42 2c3d 5e2d f9bc 2f70 c03d ad9c afbc
00000120: 6756 443d f33b 4fbd 04d1 a03c d00b b33c
00000130: 56a1 553c abbb a2bc 5796 673c 8f03 40bd
00000140: a12d a7bc bbf9 e63c eb6b 31bc 6148 33bd
00000150: 7f11 303c 43ea 793d bf7f ae3c a7e4 75bd
00000160: 914a ebbc ff54 67bd 0ecd 823c 2c12 503d
00000170: a1c9 22bd bb26 053c 7794 c03c 730b 4d3d
00000180: 7dd6 24bd d374 3f3d 1a88 2e3d 352a 26bd
00000190: f119 5f3b 6b76 833d 112b 203d d9ae 1a3d
000001a0: 193f 1abd 8d52 52bd c2af aa3c 01fe 353d
000001b0: a64f 3fbd cfa7 8dbc d88c 96bc bc17 4abc
000001c0: 1d28 86bc f29d 243d 9fc1 173d 4108 14bd
000001d0: 51d9 0f3d a0c9 3ebc d2fe 483d 002b c6bd
000001e0: 60ad 2c3c 6ba6 243d d33d 08bc 1aa3 c13c
000001f0: 0321 c03a 714e 42bd f398 813d ba49 133d
00000200: 5fe9 473d da72 ed3d 60de aebb 38c6 ed3d
00000210: 20c7 b53c 4bfd 0f3d ced1 b03d 4b96 46bd
00000220: 2fbe ee3c 4c49 1e3d 759c 94bc a507 7fbc
00000230: 3350 51bd 3b76 5a3c aebb c03c 7a01 a63c
00000240: 9fb5 673d 8a86 64bd 7cb3 4cbd cfbc 0a3d
00000250: 6bad 493d fe4e a33c 4964 4abd 0789 a0bd
00000260: 26d8 153d 6541 8ebc db65 e93d 213a ec3d
00000270: 0495 b93d 84a2 73bd 9636 c83b f068 d8bb
00000280: 556c 043d 0a01 e5bc e395 d6bd 1149 2abd
00000290: d4df f43c 2443 ddb9 595d 84bd 5036 babc
000002a0: 5b86 b13d 16d2 893d d871 fabb c305 ce3d
000002b0: 63f9 3e3c be74 b1bd 7bb3 1f3c 6fbd 70bd
000002c0: b49e 0dbe 1542 933d 9750 8fbc fd33 c93d
000002d0: 6b3c 9abd d47a ea3d d3b2 c53c 3c54 d2bc
000002e0: 3f9b 963d 6a35 1c3d 5baa ed3b 94c5 5f3d
000002f0: d900 aa3d 8c1d 143d df5e 8d3d 2c24 e8bc
00000300: b621 abba e380 80bc 0623 34bc 7234 ffbb
00000310: 6821 7fbb 8102 2ebd 6146 5ebd f259 60b8
00000320: 5e32 abbc a3c8 efba 4542 58bb 72b7 4abd
00000330: 582d d0ba 8a82 cdbb 7631 2d3d 51cd bfbc
00000340: be88 f83c 4811 b03c dbde 6a3c 745a babb
00000350: 94b2 b6bb fcaf 7ebd a8f7 b939 4a43 903d
00000360: 7bd5 b2bc 37f9 463c e24f 883b 1dbd 933c
00000370: 0f2d 87bc 0887 4fbd abf7 d3bc aa36 1a3b
00000380: b7a9 3039 6001 59bd 572f 8bbd b29c b43c
00000390: 972b 693b 4676 29bc d103 013c a82b 4d3a
000003a0: b6eb 3c3d 0253 efb9 691f 24bd cb00 083d
000003b0: 9d1e 08bd a597 c8ba 2cb5 0dbb 35b5 a53c
000003c0: 8f33 16bd d284 a13c 909b db3c bbd3 563d
000003d0: 87fc 113b 3236 3e3d 3bb3 003b 73c7 5dbd
000003e0: fd3c ca3c 2192 2e3b d837 783c a818 3bbc
000003f0: 4be5 023d c1a4 73bd 802e dabb d5b3 96bc

arith.constant2 f4 [64, 64]
0.015388013 0.029291362 -0.026584718 -0.02071445 0.05318498 -0.0012124678 0.05953915 -0.030787693
0.03815928 0.032926973 -0.08209759 -0.023817876 -0.057233173 0.025845135 0.087086216 -0.039228164
0.07045827 0.045974094 -0.06942287 -0.017210554 -0.045476217 0.040736385 -0.04452944 -0.03846017
-0.023647098 0.04823399 0.011499762 -0.06491554 -0.085223794 -0.038721 -0.009347454 0.07125879
0.025504984 -0.015180786 -0.025216497 0.046945065 -0.05648902 -0.059826486 -0.01724594 -0.019801307
-0.006657328 -0.02896627 -0.030246027 0.051974695 0.00472505 0.039645266 0.0052913097 -0.06882578
-0.0064890403 -0.03352641 0.0012657813 -0.008359937 -0.012283859 -0.051704906 0.01987158 0.04497603
-0.048362255 -0.013316604 -0.097560294 0.054425884 0.01357394 -0.021416407 0.037980806 0.023476021
0.036217608 -0.009108063 0.009700593 0.07381148 -0.011961754 -0.03595894 0.073936805 -0.028133728
0.007360142 0.006245896 -0.06385744 -0.06688001 -0.037159383 0.034013115 -0.011359937 0.0198605
0.081869386 0.022222836 0.017908018 0.00989963 0.038587913 0.013976394 -0.06392995 -0.050809253
-0.017032215 -0.025206355 0.0949487 0.07774696 0.07534657 -0.08784898 -0.033359364 -0.07399637
-0.058394898 -0.02527382 -0.009779245 0.007565632 0.039589923 0.02673256 -0.018671725 -0.046439458
0.06409475 -0.0666391 0.08534406 -0.028954666 0.0034192635 0.03941847 -0.04192356 0.002808362
-0.013700199 0.05748916 0.06313851 0.012482308 0.09766685 0.03037723 0.020394014 -0.09143549
0.042703692 0.016461018 0.0746377 -0.02852456 -0.016838199 -0.0094977645 -0.032221843 -0.018533789
0.03428792 -0.005928187 -0.025959462 -0.04780943 0.0434893 0.07254464 -0.1037883 -0.013235723
-0.105373524 -0.041892692 -0.038083162 -0.06632144 -0.0271287 0.060373705 -0.05966516 -0.11298781
0.027371038 0.003344756 -0.046719585 0.012545185 -0.032211095 -0.085454814 0.069960624 -0.07865228
-0.037695747 0.012079231 0.07081872 -0.06430926 0.10478913 0.08874764 0.02993505 -0.0026242195
-0.014963499 -0.034779985 0.052781977 0.06283822 -0.05082223 -0.10050024 -0.04297139 0.018833516
0.09198513 0.07794535 -0.11110907 0.09631022 -0.08731391 -0.02846247 -0.05029332 0.07258325
0.013929443 -0.082090974 0.05359615 -0.011484252 0.07332154 -0.02718531 -0.056332115 -0.079569764
0.11297137 0.0077283396 0.044364337 0.019369407 0.062056825 0.025209716 0.0011476177 0.0425604
0.01505507 0.05959346 0.04252611 -0.045576245 -0.011754443 -0.049469177 -0.023911301 -0.004666597
0.036433425 -0.027190482 0.018338593 -0.0127513725 0.092370905 0.0040238365 -0.009205638 -0.04256206
0.06833705 -0.0017424296 0.009713104 -0.02499758 0.025599426 0.018730743 -0.025335452 -0.005994693
-0.0059477733 -0.026135348 0.014161848 0.010723326 0.094253406 0.09404624 0.0063526947 0.0015283668
-0.0074509135 -0.008249446 -0.038542677 -0.035647076 0.03507149 -0.03753466 0.03733568 -0.008077846
0.031829868 -0.0497527 0.018040515 -0.055923656 -0.032700393 -0.02288173 -0.0014466975 0.013265554
-0.0036234087 -0.027424658 0.009122128 0.047566045 -0.016929204 -0.019286731 -0.03702058 0.030974276
0.014419688 -0.010628779 0.061023608 -0.018243562 0.02928005 0.026884729 -0.012668878 -0.016476586
00000000: 011e 7c3c 70f4 ef3c 32c8 d9bc 5ab1 a9bc
00000010: 7ed8 593d abeb 9eba 53df 733d 7936 fcbc
00000020: e84c 1c3d 6fde 063d c822 a8bd b51d c3bc
00000030: 556d 6abd 2db9 d33c 425a b23d b6ad 20bd
00000040: 6d4c 903d 554f 3c3d 942d 8ebd 26fd 8cbc
00000050: 4545 3abd 32db 263d 8164 36bd 6988 1dbd
00000060: 8fb7 c1bc 0191 453d 7f69 3c3c 70f2 84bd
00000070: d089 aebd e999 1ebd 1026 19bc 21f0 913d
00000080: d4ef d03c d5b8 78bc d492 cebc 7849 403d
00000090: 0861 67bd 9e0c 75bd 5c47 8dbc 5a36 a2bc
000000a0: b725 dabb ac4a edbc 84c6 f7bc 6be3 543d
000000b0: 98d4 9a3b 1363 223d b962 ad3b 88f4 8cbd
000000c0: 04a2 d4bb fd52 09bd 93e8 a53a 1ef8 08bc
000000d0: 3d42 49bc 86c8 53bd b9c9 a23c c938 383d
000000e0: 8017 46bd e32d 5abc b1cd c7bd aded 5e3d
000000f0: 3b65 5e3c 7671 afbc c391 1b3d c950 c03c
00000100: ea58 143d fc39 15bc 3cef 1e3c 792a 973d
00000110: 3cfb 43bc ae49 13bd 2e6c 973d b478 e6bc
00000120: 592d f13b 60aa cc3b b1c7 82bd 63f8 88bd
00000130: 7034 18bd 5651 0b3d 071f 3abc 7db2 a23c
00000140: 23ab a73d aa0c b63c d6b3 923c 0f32 223c
00000150: 5c0e 1e3d 3ffd 643c b5ed 82bd 5d1d 50bd
00000160: 2587 8bbc 8f7d cebc 7774 c23d cc39 9f3d
00000170: 4d4f 9a3d 2bea b3bd d4a3 08bd 698b 97bd
00000180: 7d2f 6fbd 0b0b cfbc 2039 20bc 1fe9 f73b
00000190: 0b29 223d 3efe da3c 72f5 98bc 4d37 3ebd
000001a0: 1c44 833d 157a 88bd dec8 ae3d 5632 edbc
000001b0: b915 603b 4375 213d 0ab8 2bbd 7f0c 383b
000001c0: cd76 60bc c179 6b3d c34e 813d 9882 4c3c
000001d0: 8f05 c83d abd9 f83c 5911 a73c 8842 bbbd
000001e0: 11ea 2e3d 42d9 863c a7db 983d 57ac e9bc
000001f0: 43f0 89bc 839c 1bbc 0dfb 03bd 2cd4 97bc
00000200: 7d71 0c3d 3d41 c2bb f0a8 d4bc d2d3 43bd
00000210: d621 323d 4992 943d f68e d4bd a5da 58bc
00000220: 13ce d7bd ac97 2bbd 17fd 1bbd 89d3 87bd
00000230: 023d debc 6b4a 773d 7463 74bd 2766 e7bd
00000240: 3a39 e03c b233 5b3b 095d 3fbd 528a 4d3c
00000250: c8ef 03bd ef02 afbd 8447 8f3d 7214 a1bd
00000260: db66 1abd f8e7 453c 6809 913d 93b4 83bd
00000270: af9b d63d 53c1 b53d 5a3a f53c 19fb 2bbb
00000280: 7729 75bc 7575 0ebd ea31 583d 53b1 803d
00000290: f82a 50bd 12d3 cdbd c502 30bd bf48 9a3c
000002a0: b362 bc3d d0a1 9f3d 278d e3bd 4b3e c53d
000002b0: a3d1 b2bd 202a e9bc 5e00 4ebd 87a6 943d
000002c0: 5238 643c 501f a8bd a387 5b3d 7228 3cbc
000002d0: 9b29 963d bab3 debc 81bc 66bd 79f5 a2bd
000002e0: 895d e73d 033e fd3b 61b7 353d 97ac 9e3c
000002f0: 4c2f 7e3d 9b84 ce3c a96b 963a d053 2e3d
00000300: 8aa9 763c 4618 743d dc2f 2e3d 28ae 3abd
00000310: b595 40bc 31a0 4abd a2e1 c3bc 41ea 98bb
00000320: 373b 153d 93be debc d13a 963c 22eb 50bc
00000330: f52c bd3d 63da 833b 3fd3 16bc 8e55 2ebd
00000340: 4cf4 8b3d 3c62 e4ba b623 1f3c bac7 ccbc
00000350: e3b5 d13c 3771 993c 4b8c cfbc 216f c4bb
00000360: 8ae5 c2bb cc19 d6bc 1907 683c e4b0 2f3c
00000370: ee07 c13d 519b c03d 442a d03b 7b53 c83a
00000380: cb26 f4bb af28 07bc edde 1dbd ab02 12bd
00000390: 1fa7 0f3d f2bd 19bd 4ced 183d f158 04bc
000003a0: 0960 023d 7dc9 4bbd b4c9 933c 3410 65bd
000003b0: d9f0 05bd 7772 bbbc 1d9f bdba c457 593c
000003c0: b676 6dbb ada9 e0bc fa74 153c 9dd4 423d
000003d0: 1daf 8abc 35ff 9dbc e4a2 17bd c4bd fd3c
000003e0: 8e40 6c3c 5524 2ebc e4f3 793d 8673 95bc
000003f0: b7dc ef3c 5d3d dc3c 2091 4fbc e8f9 86bc

arith.constant3 f4 [64, 64]
-0.06457168 -0.046709303 -0.048861906 0.026883055 -0.06904842 0.08131209 0.09755405 -0.11070565
-0.035329223 -0.004363263 -0.066467784 -0.092824094 -0.118667684 -0.02451024 0.025355304 0.14358161
-0.062622555 0.13367061 -0.09838104 0.069708124 -0.1307082 0.038670775 -0.02782806 -0.12417907
-0.09003288 -0.0077430243 0.049414523 -0.0858645 -0.0305487 0.07104128 0.07548009 0.054356087
-0.033481237 -0.08868932 0.040814646 0.020306375 0.02388917 -0.0038127925 -0.08335402 -0.038060147
0.01333772 -0.12821469 0.08073832 0.020176752 -0.056460552 -0.06685039 0.0029188131 -0.13412991
-0.020752482 -0.13252947 -0.078943804 -0.15544538 0.06870662 -0.09784601 -0.04644734 0.07371884
-0.0098131215 -0.0751939 -0.019167246 -0.062234886 -0.03478824 0.06262231 -0.09965771 0.009240342
-0.00061830104 -0.050578706 -0.0013266398 0.08155845 -0.049625948 -0.0028992682 0.046129543 -0.01906672
0.07113229 -0.14180873 -0.036004327 -0.06510849 0.13209695 -0.035859276 0.13928881 -0.0046442435
0.09920662 -0.02923622 0.028676292 0.06519621 0.03963409 0.061430477 0.031419713 0.016841704
0.07372298 0.058250993 0.13211524 0.040177125 0.07203927 0.017214142 -0.06875743 0.1488133
-0.069432534 0.14882971 -0.08523573 -0.06534483 -0.0011323361 -0.17256086 0.039170284 -0.02823398
0.11667282 -0.013165629 -0.15870878 0.11712684 0.07316347 -0.03502926 0.029565072 0.08565564
-0.094576955 0.04468753 -0.0090142675 -0.12169783 -0.046435747 0.077470146 0.14681341 -0.11566899
0.05161982 -0.058092292 0.05094926 -0.035962213 0.016727617 -0.10549377 0.0066379914 0.032916367
-0.05044523 -0.0200789 0.017250687 0.00013867594 -0.02990289 0.0484851 0.06034211 0.07459983
-0.06661062 0.052873105 -0.065244704 -0.07418578 -0.008261402 -0.07904162 -0.08779592 0.03619187
-0.1031363 0.018895261 -0.090665475 0.026029065 0.14904846 0.024300218 -0.11853768 0.016850514
-0.03206521 0.033237718 0.09993292 0.034481898 0.063882925 0.1325861 -0.12504095 0.044926584
0.156588 -0.13126644 -0.118063256 0.022094613 0.09649952 0.07562327 0.07307972 0.060798697
0.06393233 -0.024984796 -0.04359713 -0.11990952 -0.017815016 -0.055534065 -0.12700228 0.1321266
0.08659296 0.11877017 -0.077240676 -0.0017920013 0.050136976 0.010643755 0.072646014 0.0003231121
-0.06829059 -0.009843053 -0.05879693 -0.019711535 -0.10655128 -0.10242216 -0.007736447 0.0034899795
0.08914273 0.11071358 0.09412276 0.038036563 0.018867852 0.07865612 0.056503914 -0.063153096
-0.07616509 -0.11897269 0.028704105 -0.05120514 0.008504691 -0.043034256 0.05492499 -0.07754253
-0.004049065 -0.11251219 -0.07943352 -0.09333311 0.07350404 0.13511972 0.0022092946 0.038121454
0.08091158 -0.021393938 0.075863495 -0.10184375 0.13101806 0.07371632 0.050582603 0.012098942
-0.07320268 0.04846412 -0.101639 0.023151707 -0.0944361 -0.16126744 -0.0680967 -0.070168346
0.04408325 -0.07888085 -0.003708995 0.05850564 -0.06586775 0.0078067086 -0.027994426 -0.025155857
-0.044865612 -0.054526646 0.03740947 -0.0140888 -0.048910443 0.10456505 0.106251836 0.037449513
0.086672835 0.027644059 -0.023134546 -0.07413474 -0.09997709 -0.023054713 0.1413484 -0.034538813
00000000: 283e 84bd 4152 3fbd 6c23 48bd da39 dc3c
00000010: 4269 8dbd f486 a63d 6bca c73d a5b9 e2bd
00000020: 60b5 10bd b4f9 8ebb 4320 88bd 8f1a bebd
00000030: 0b08 f3bd b3c9 c8bc edb5 cf3c 0f07 133e
00000040: 4140 80bd f3e0 083e 007c c9bd 22c3 8e3d
00000050: 5fd8 05be 3f65 1e3d acf7 e3bc 9951 febd
00000060: 2963 b8bd 32b9 fdbb e266 4a3d bad9 afbd
00000070: 4441 fabc 177e 913d 4e95 9a3d 7da4 5e3d
00000080: 9f23 09bd bfa2 b5bd 422d 273d 8e59 a63c
00000090: 38b3 c33c 0be0 79bb 83b5 aabd f5e4 1bbd
000000a0: 7486 5a3c b64a 03be 225a a53d b749 a53c
000000b0: 2e43 67bd dbe8 88bd 8f49 3f3b 5a59 09be
000000c0: 1c01 aabc ceb5 07be 4aad a1bd 132d 1fbe
000000d0: 0eb6 8c3d 7d63 c8bd 913f 3ebd e7f9 963d
000000e0: 37c7 20bc 42ff 99bd a104 9dbc 02ea 7ebd
000000f0: 1d7e 0ebd 2040 803d 5719 ccbd ce64 173c
00000100: 7b15 22ba 9e2b 4fbd a5e2 adba 1e08 a73d
00000110: 9444 4bbd a601 3ebb 55f2 3c3d cf31 9cbc
00000120: cead 913d 4f36 11be 4679 13bd 9a57 85bd
00000130: 6c44 073e 2de1 12bd baa1 0e3e bd2e 98bb
00000140: d72c cb3d cc80 efbc 8bea ea3c 9785 853d
00000150: 5b57 223d 869e 7b3d f5b1 003d 9df7 893c
00000160: 13fc 963d 9898 6e3d 3849 073e c590 243d
00000170: 5389 933d ac04 8d3c b2d0 8cbd 8462 183e
00000180: a532 8ebd d166 183e 1290 aebd 83d3 85bd
00000190: e56a 94ba cbb3 30be 0571 203d f34a e7bc
000001a0: 29f2 ee3d a6b4 57bc 8e84 22be 32e0 ef3d
000001b0: bbd6 953d d77a 0fbd 7332 f23c 396c af3d
000001c0: 90b1 c1bd 450a 373d 94b0 13bc b63c f9bd
000001d0: 6933 3ebd aba8 9e3d 4156 163e dde3 ecbd
000001e0: 4e6f 533d 2ff2 6dbd 2cb0 503d 1d4d 13bd
000001f0: 5b08 893c 1e0d d8bd 8283 d93b 50d3 063d
00000200: a89f 4ebd 817c a4bc 5051 8d3c 8a69 1139
00000210: e8f6 f4bc 5098 463d 4a29 773d ccc7 983d
00000220: 266b 88bd 7891 583d 049f 85bd b7ee 97bd
00000230: d55a 07bc 93e0 a1bd 59ce b3bd ed3d 143d
00000240: 2039 d3bd 3cca 9a3c d2ae b9bd e83a d53c
00000250: 29a0 183e 4011 c73c e2c3 f2bd 170a 8a3c
00000260: cf56 03bd 4624 083d a1a9 cc3d e43c 0d3d
00000270: 0dd5 823d a7c4 073e bc0a 00be f004 383d
00000280: 9b58 203e b66a 06be 26cb f1bd c3ff b43c
00000290: 8aa1 c53d 5fe0 9a3d d2aa 953d 0e08 793d
000002a0: f4ee 823d eaac ccbc e792 32bd 1f93 f5bd
000002b0: ccf0 91bc b077 63bd e30c 02be 324c 073e
000002c0: a657 b13d c63d f33d 5c30 9ebd 96e1 eaba
000002d0: 6e5c 4d3d 2563 2e3c 6fc7 943d 5f67 a939
000002e0: f0db 8bbd c244 21bc 0dd5 70bd 167a a1bc
000002f0: 8f37 dabd b6c2 d1bd 0582 fdbb 24b8 643b
00000300: 7790 b63d cdbd e23d 6fc3 c03d 3acc 1b3d
00000310: c190 9a3c 7616 a13d a670 673d 6956 81bd
00000320: 71fc 9bbd f4a7 f3bd df24 eb3c 7bbc 51bd
00000330: 4257 0b3c b044 30bd 07f9 603d 9ece 9ebd
00000340: 05ae 84bb cb6c e6bd 0bae a2bd 6e25 bfbd
00000350: 4989 963d d35c 0a3e d0c9 103b 3e25 1c3d
00000360: f8b4 a53d 5742 afbc 525e 9b3d 7593 d0bd
00000370: 9929 063e 95f8 963d b42f 4f3d a43a 463c
00000380: 49eb 95bd 5082 463d 1c28 d0bd a6a8 bd3c
00000390: b767 c1bd 4b23 25be 4876 8bbd 6cb4 8fbd
000003a0: a390 343d 488c a1bd 9c12 73bb 9ca3 6f3d
000003b0: ace5 86bd 6bcf ff3b 9154 e5bc a813 cebc
000003c0: 01c5 37bd 5557 5fbd ac3a 193d b6d4 66bc
000003d0: 5156 48bd 3326 d63d 909a d93d a964 193d
000003e0: 8781 b13d cb75 e23c a984 bdbc f4d3 97bd
000003f0: cac0 ccbd 3ddd bcbc a3bd 103e 9278 0dbd

arith.constant4 f4 [64, 64]
0.00672209 -0.0064461697 0.018147465 0.020958176 0.07211239 0.022303404 0.055267654 -0.037599977
-0.012486919 -0.034436222 -0.028453965 -0.053882662 -0.05587117 0.08539267 0.106546 -0.0024228373
0.036483463 0.072333515 -0.019637251 -0.022611525 -0.08725267 -0.011778175 0.014680838 -0.014005943
0.0023440192 0.08288745 0.08022255 0.03113109 0.0065865326 -0.073779225 -0.016198313 0.07276166
-0.09123587 0.015531957 0.05055434 -0.0013868811 -0.08761132 -0.025870597 0.014155497 -0.01416893
0.015093475 -0.010553702 -0.08153505 0.0066256216 -0.014823899 0.032475147 0.012896119 -0.021718655
-0.10196598 -0.019874211 -0.00044048284 -0.04730058 0.04316776 0.0103300065 0.077036805 -0.0032544304
-0.028686233 -0.024051202 -0.068142414 -0.02044387 0.029337812 -0.102887206 0.01676356 -0.03586416
0.019821415 -0.07629584 0.05145554 0.078417696 -0.013555537 0.016367916 0.08976937 -0.0071204216
-0.09926328 -0.11489704 -0.059792772 -0.0830667 0.06511172 -0.04038966 0.04453578 -0.0056182225
0.01698812 0.096282706 -0.06693165 -0.0011259222 -0.08600436 -0.05067067 -0.10297622 -0.05024298
-0.09487535 0.022602707 0.074398704 0.05859924 -0.039989635 -0.009250956 0.014270485 0.074633025
0.0094095105 -0.11061656 -0.038973268 0.016846437 -0.015039896 0.04917689 0.024705652 0.044691846
0.094437025 0.033133306 0.001989534 0.060912088 -0.069297045 -0.04626555 0.023703367 0.030321883
-0.104958735 -0.057105046 0.03721203 0.01786309 0.11570398 0.06737565 0.13145338 0.005803529
0.066397406 0.108769 0.10514504 -0.07896231 -0.13535002 -0.040973026 0.030349655 -0.047181394
-0.07001158 0.0828867 0.10983355 0.03738562 0.08354713 0.13096718 0.024060793 -0.0031892378
-0.12075992 0.015474448 0.10351638 0.059878245 0.058166414 -0.038671374 0.07721988 -0.01996565
0.049980458 -0.033216376 -0.05271452 0.0493664 0.019877193 0.0003927197 -0.11173131 -0.017980386
-0.028205045 -0.09397892 -0.009908675 0.024063934 -0.04184248 0.022602577 -0.04549174 -0.02727385
-0.030509222 -0.072406866 0.011165492 -0.03505639 -0.06341634 -0.008194634 -0.014716394 -0.022858044
-0.03638689 -0.018924957 0.059366394 -0.10973796 -0.022549719 0.015180291 0.050994564 0.09319457
-0.09195695 -0.051126648 -0.023658035 0.12920763 -0.0948002 -0.0028700011 0.045440134 -0.012381222
-0.056517016 0.063039094 -0.06036106 0.0051170248 -0.02264748 -0.14162077 -0.060051743 -0.012598353
-0.04725847 -0.012210113 0.0769059 0.08338654 0.0015934423 0.03731362 -0.06890584 0.022082517
-0.10830045 0.03274194 0.100510515 -0.030065605 0.030497111 -0.038737804 -0.02179806 -0.047505874
0.048098333 -0.013251205 0.041562967 -0.07220879 0.0752769 -0.101745516 -0.005225498 0.078916885
-0.023581399 -0.05144617 0.016795218 0.10416366 -0.04221788 -0.017827539 -0.028269477 -0.04845202
-0.006565105 -0.052727234 -0.08882882 -0.00579524 0.0408198 0.0022185643 -0.0037133761 0.01125972
0.08232752 0.039800417 -0.03551339 -0.014703576 -0.020730618 0.0541487 -0.019182034 0.0018700827
-0.053881984 0.0563827 0.05571034 0.07941434 0.03760034 0.06597554 0.057419375 -0.037486173
0.025398534 -0.005481481 0.060032815 -0.0028871587 0.0016851184 -0.022473626 0.04525273 0.0070999307
00000000: fa44 dc3b 643a d3bb fea9 943c 7bb0 ab3c
00000010: a9af 933d a1b5 b63c 5660 623d 6f02 1abd
00000020: ef95 4cbc ff0c 0dbd 4a18 e9bc 11b4 5cbd
00000030: 2bd9 64bd 5ae2 ae3d ca34 da3d 77c8 1ebb
00000040: af6f 153d 9823 943d 4dde a0bc ce3b b9bc
00000050: 87b1 b2bd 3ff9 40bc e687 703c 2f79 65bc
00000060: 1e9e 193b e5c0 a93d b84b a43d a106 ff3c
00000070: d7d3 d73b 9019 97bd 53b2 84bc 1104 953d
00000080: dfd9 babd c079 7e3c 1112 4f3d 02c8 b5ba
00000090: 906d b3bd 93ee d3bc 75ec 673c cd24 68bc
000000a0: 9f4a 773c 6fe9 2cbc d9fb a6bd be1b d93b
000000b0: f0df 72bc a904 053d 3e4a 533c 52eb b1bc
000000c0: 8ad3 d0bd 3ecf a2bc 9bf0 e6b9 41be 41bd
000000d0: add0 303d 303f 293c 79c5 9d3d 4848 55bb
000000e0: 64ff eabc 0707 c5bc 408e 8bbd e779 a7bc
000000f0: da55 f03c 87b6 d2bd bc53 893c 4ce6 12bd
00000100: 8560 a23c fe40 9cbd 0bc3 523d 7599 a03d
00000110: 0b18 5ebc 0216 863c 01d9 b73d 6d52 e9bb
00000120: 8c4a cbbd 244f ebbd 44e9 74bd e01e aabd
00000130: 4b59 853d a16f 25bd 266b 363d 1119 b8bb
00000140: ab2a 8b3c de2f c53d 7613 89bd ae93 93ba
00000150: 0e23 b0bd 0c8c 4fbd 32e5 d2bd 95cb 4dbd
00000160: 024e c2bd 5029 b93c 595e 983d c205 703d
00000170: 2ccc 23bd 5291 17bc c1ce 693c 33d9 983d
00000180: 592a 1a3c ef8a e2bd 6fa2 1fbd 8a01 8a3c
00000190: e569 76bc b56d 493d 8263 ca3c cc0e 373d
000001a0: 3368 c13d cab6 073d d762 023b f47e 793d
000001b0: 9ceb 8dbd f280 3dbd 902d c23c 9965 f83c
000001c0: 9bf4 d6bd fbe6 69bd a46b 183d 9d55 923c
000001d0: 35f6 ec3d 3ffc 893d b79b 063e 882b be3b
000001e0: 5dfb 873d 48c2 de3d 4856 d73d feb6 a1bd
000001f0: 3299 0abe 55d3 27bd d79f f83c 4741 41bd
00000200: 3b62 8fbd 81c0 a93d 6af0 e03d aa21 193d
00000210: c21a ab3d 431c 063e 241b c53c 8802 51bb
00000220: fa50 f7bd 8a88 7d3c 6500 d43d e442 753d
00000230: e83f 6e3d e065 1ebd 7525 9e3d 018f a3bc
00000240: 4fb8 4c3d e50d 08bd 2eeb 57bd 6c34 4a3d
00000250: 7fd5 a23c f2e5 cd39 63d3 e4bd 9a4b 93bc
00000260: 440e e7bc 0578 c0bd ff57 22bc ba21 c53c
00000270: 0563 2bbd 0a29 b93c 8c55 3abd 696d dfbc
00000280: 7aee f9bc 0d4a 94bd 78ef 363c 4a97 0fbd
00000290: 6de0 81bd c942 06bc 081d 71bc cb40 bbbc
000002a0: 6b0a 15bd 8308 9bbc 2d2a 733d 4cbe e0bd
000002b0: 30ba b8bc c1b6 783c addf 503d cbdc be3d
000002c0: ed53 bcbd 2d6a 51bd 7fce c1bc 014f 043e
000002d0: 9b26 c2bd a116 3cbb 6f1f 3a3d 9cda 4abc
000002e0: 637e 67bd a41a 813d 293d 77bd b7ac a73b
000002f0: 3587 b9bc 0905 11be d1f8 75bd 5369 4ebc
00000300: 1992 41bd ed0c 48bc d780 9d3d 90c6 aa3d
00000310: 0ddb d03a 2bd6 183d 811e 8dbd 65e6 b43c
00000320: a0cc ddbd 6a1c 063d 75d8 cd3d 254c f6bc
00000330: 14d5 f93c 88ab 1ebd d891 b2bc 8595 42bd
00000340: c202 453d 951b 59bc ee3d 2a3d 34e2 93bd
00000350: c62a 9a3d f45f d0bd a83a abbb 2d9f a13d
00000360: c72d c1bc 38b9 52bd 2096 893c c253 d53d
00000370: a8ec 2cbd 0f0b 92bc 6495 e7bc a075 46bd
00000380: 1820 d7bb 83f8 57bd e2eb b5bd ffe5 bdbb
00000390: aa32 273d 5565 113b 1d5c 73bb b07a 383c
000003a0: 559b a83d c305 233d 7d76 11bd 45e7 70bc
000003b0: 42d3 a9bc 07cb 5d3d a423 9dbc 901d f53a
000003c0: 5bb3 5cbd 8cf1 663d 8730 643d fca3 a23d
000003d0: d002 1a3d 2f1e 873d 9430 6b3d 1a8b 19bd
000003e0: 9610 d03c ff9d b3bb f8e4 753d 7c36 3dbb
000003f0: 31df dc3a 9c1a b8bc ed5a 393d 89a6 e83b

arith.constant5 f4 [64]
-0.057377987 0.105252065 -0.10549104 -0.0017879922 -0.10566568 0.10582736 0.11589067 0.062867925
-0.010162681 0.097161576 -0.10667128 0.001142703 0.18721682 -0.018320777 0.032671228 0.17201582
-0.17219742 0.09682359 0.052902725 -0.039121144 0.1271727 0.03102003 -0.061122186 0.21976897
-0.014569573 0.071933344 0.082003504 0.033507306 0.13565856 0.062096726 -0.06127714 -0.006180141
0.087494366 0.10531944 0.2243417 0.0021317229 0.082380295 -0.06799527 0.14596494 0.1287865
-0.085903026 -0.020729166 -0.029912313 -0.054143198 -0.0073267147 0.04449694 -0.0001523234 0.16182044
0.018503342 0.19280334 0.0033747852 0.2158602 0.045380976 -0.0079425 0.023645077 0.13743863
-0.009488141 0.018607508 0.009792604 -0.030789886 0.11185021 0.085181125 0.14195433 0.0031032376
00000000: 2e05 6bbd 658e d73d b00b d8bd 105b eaba
00000010: 3f67 d8bd 04bc d83d 1658 ed3d e6c0 803d
00000020: 6081 26bc a6fc c63d 7976 dabd c0c6 953a
00000030: c4b5 3f3e 7415 96bc 44d2 053d ea24 303e
00000040: 8554 30be 724b c63d 87b0 583d 7e3d 20bd
00000050: 8f39 023e b81d fe3c 425b 7abd 1e0b 613e
00000060: 38b5 6ebc ca51 933d 74f1 a73d f53e 093d
00000070: 14ea 0a3e 2359 7e3d bdfd 7abd c882 cabb
00000080: 3f30 b33d b8b1 d73d d5b9 653e 60b4 0b3b
00000090: 00b7 a83d 1b41 8bbd d577 153e 9ce0 033e
000000a0: eded afbd 36d0 a9bc ab0a f5bc 42c5 5dbd
000000b0: f014 f0bb 6c42 363d 00b9 1fb9 42b4 253e
000000c0: 5294 973c 3d6e 453e 802b 5d3b 750a 5d3e
000000d0: 67e1 393d 4221 02bc 52b3 c13c b6bc 0c3e
000000e0: 2674 1bbc c66e 983c 2871 203c 123b fcbc
000000f0: b911 e53d 7173 ae3d 7a5c 113e b05f 4b3b

arith.constant6 f4 [64]
0.008474484 0.084352836 -0.034339733 0.08229336 -0.10860072 -0.018444046 0.20245618 0.024777798
0.14611308 0.09443393 0.1642791 0.070495024 -0.0069179833 0.01146136 0.12675741 0.042502638
0.21737693 0.12591925 -0.17235568 -0.02004736 0.15892163 0.12491161 0.07355724 0.045310237
-0.10456312 0.20203198 0.0015026741 0.05307971 0.08575116 0.00086307526 0.13045985 0.02552244
0.09851253 0.23443499 0.13513237 0.018823095 0.07211429 0.131532 -0.026299208 0.14351606
0.2585972 0.15504792 0.08044285 -0.079248905 0.10658766 -0.07130284 0.07783532 0.15273103
0.004487019 -0.10128558 -0.10303224 0.13662896 0.020036997 0.104315065 -0.024686523 -0.09647136
0.15565893 0.030337438 0.17371836 -0.09669489 -0.057234835 0.16425814 -0.03649362 -0.09976141
00000000: 90d8 0a3c 2ec1 ac3d d2a7 0cbd 6c89 a83d
00000010: 0e6a debd f817 97bc ac50 4f3e cffa ca3c
00000020: ab9e 153e 9466 c13d c838 283e b25f 903d
00000030: 40b0 e2bb 6ec8 3b3c b2cc 013e 3f17 2e3d
00000040: 0f98 5e3e faf0 003e 027e 30be 5c3a a4bc
00000050: 5abc 223e a8d1 ff3d 2ea5 963d 3a97 393d
00000060: 3025 d6bd 79e1 4e3e 60f5 c43a 1c6a 593d
00000070: 4e9e af3d 0040 623a 4497 053e 7014 d13c
00000080: f0c0 c93d ba0f 703e 2460 0a3e e432 9a3c
00000090: a8b0 933d 53b0 063e 7071 d7bc e0f5 123e
000000a0: da66 843e e2c4 1e3e 39bf a43d 404d a2bd
000000b0: a24a da3d 3907 92bd 2068 9f3d 8665 1c3e
000000c0: d807 933b d06e cfbd 9102 d3bd 76e8 0b3e
000000d0: a124 a43c 23a3 d53d 643b cabc c792 c5bd
000000e0: 0e65 1f3e 3886 f83c 3ae3 313e f807 c6bd
000000f0: 136f 6abd 4933 283e 567a 15bd b64f ccbd

arith.constant7 f4 [64]
-0.027249651 0.17244841 -0.032466523 -0.0043909657 0.013331421 0.0075484067 0.09946897 -0.015581086
-0.047013436 -0.12027159 0.0075782463 -0.093970396 0.0061728437 0.124849446 0.005333133 -0.1344457
0.12529832 -0.023348685 -0.12967984 -0.07611331 0.0018914714 -0.030271793 -0.08074883 0.046588354
-0.13959512 -0.061068602 0.033257857 -0.0042040832 0.049969003 -0.03976636 -0.033141322 0.067773394
0.1807926 0.09528421 -0.11582591 0.075854816 -0.0497776 -0.13962157 0.09629281 0.040084213
0.06888232 0.013114326 0.12529947 -0.042841572 0.051067486 -0.06511527 -0.09622531 0.05824185
-0.0088599995 -0.03240522 0.033621214 0.021549042 -0.04991464 -0.038574282 0.10943875 0.0079398975
-0.17630164 0.098825686 0.04783835 0.09540607 0.08806898 0.026016109 0.10616369 0.14366972
00000000: a93a dfbc 5196 303e 9efb 04bd 17e2 8fbb
00000010: 086c 5a3c a058 f73b 63b6 cb3d d047 7fbc
00000020: 2991 40bd f450 f6bd f052 f83b 8d73 c0bd
00000030: 9145 ca3b 11b1 ff3d 90c1 ae3b 22ac 09be
00000040: 344e 003e be45 bfbc cbca 04be 4ce1 9bbd
00000050: 40eb f73a 8dfc f7bc a55f a5bd 6ed3 3e3d
00000060: 06f2 0ebe 1223 7abd 6439 083d 68c2 89bb
00000070: 4cac 4c3d 0de2 22bd 32bf 07bd c7cc 8a3d
00000080: b221 393e 5e24 c33d 2236 edbd c559 9b3d
00000090: 99e3 4bbd f5f8 0ebe 2a35 c53d 582f 243d
000000a0: 2c12 8d3d 78dd 563c 814e 003e a57a 2fbd
000000b0: 242c 513d 285b 85bd c611 c5bd 028f 6e3d
000000c0: 8829 11bc 56bb 04bd 66b6 093d 9e87 b03c
000000d0: 4b73 4cbd 1100 1ebd 6c21 e03d 5816 023c
000000e0: 6b88 34be 1f65 ca3d 25f2 433d 4264 c33d
000000f0: 825d b43d bc1f d53c 596c d93d 281e 133e

arith.constant8 f4 [64]
0.12745942 0.2785859 0.025669947 0.025050405 -0.12146154 0.026705164 0.13396926 -0.1030485
0.11803768 0.03935726 0.030068299 0.05820278 0.14880928 0.012520008 0.23485464 0.1632659
0.19055218 0.027855154 0.20064858 0.030829389 0.2016337 0.10543503 0.07644078 0.15030028
0.083155006 0.022458741 0.19508728 0.013484983 0.20791699 0.15019466 0.13414624 0.117580794
-0.049002998 0.02472217 0.030008294 0.048048027 0.028899953 0.23509945 0.071856655 0.09784882
0.07178751 0.20465073 0.14296177 -0.124350324 0.04115691 0.26683933 -0.023868956 -0.018732924
0.28738028 -0.041574813 -0.025671374 0.12740365 -0.1870861 0.10737211 -0.07485787 0.04715476
0.16995268 -0.007512644 0.10449709 -0.083417684 -0.06395802 -0.044141814 0.07583022 0.067208596
00000000: b984 023e d0a2 8e3e c849 d23c 8236 cd3c
00000010: d4c0 f8bd cac4 da3c 3d2f 093e 180b d3bd
00000020: bdbd f13d 1435 213d cb51 f63c 0a66 6e3d
00000030: 7661 183e b820 4d3c bc7d 703e 2d2f 273e
00000040: 1c20 433e 7e30 e43c d276 4d3e ea8d fc3c
00000050: 1179 4e3e 52ee d73d fc8c 9c3d 51e8 193e
00000060: 2c4d aa3d 65fb b73c f6c4 473e 1ef0 5c3c
00000070: 31e8 543e a1cc 193e a25d 093e 33ce f03d
00000080: 5eb7 48bd 2686 ca3c f4d3 f53c 02ce 443d
00000090: 98bf ec3c e9bd 703e 9529 933d f664 c83d
000000a0: 5405 933d f68f 513e 9264 123e 62ab febd
000000b0: 2694 283d 2a9f 883e d488 c3bc ca75 99bc
000000c0: 8223 933e 5a4a 2abd c64c d2bc 1a76 023e
000000d0: 8093 3fbe e9e5 db3d 154f 99bd 5a25 413d
000000e0: 1308 2e3e a02c f6bb 9202 d63d e4d6 aabd
000000f0: 6cfc 82bd 0cce 34bd e04c 9b3d a9a4 893d

arith.constant9 f4 [64, 99]
-5.494132e-05 -0.05326223 0.0017541117 0.00019017262 0.0069291363 -0.006987852 0.0003764486 0.0635114
-0.019655537 0.00017261246 -0.0054491027 -0.015290709 -0.00089907343 0.009989765 -0.034388185 -0.0007470151
0.0011599229 0.011096614 -0.00071499636 -0.036828585 -0.036973335 0.0067302985 -0.025626749 -0.0050051073
-0.007238045 -0.00632888 -0.003160968 0.00029889864 -0.06874831 -0.015577399 -0.0009813948 -0.078146055
0.002971945 -0.009988903 -0.06435773 -0.0033923793 -0.01250486 0.055222202 -0.0003150492 -0.03593002
0.0010221152 0.0036814276 -0.006358543 -0.0398945 -0.0066778236 0.0628395 -0.05913099 -0.034349248
-0.03888858 0.05988178 -0.030285332 0.03374554 0.043125123 0.04381759 -0.056969307 0.028015377
0.018414313 -0.006817822 0.02150047 0.013636253 0.04391497 -0.045477852 -0.052453246 -0.04328121
-0.059412457 -0.003620349 0.044801753 0.03812659 0.040167436 0.013525162 0.00017530829 -0.00015366443
-0.00068417 -0.00016490788 0.00016699205 0.0034974047 0.012935163 -0.001860426 -0.01635216 0.04555496
-0.0026624664 0.00927802 -0.006122703 0.0062882993 0.00087427435 0.033400174 0.007848008 -0.003114645
-0.07163325 0.008430347 0.0031596716 0.10311963 -0.0012171125 0.015853355 0.036717337 -0.0028186627
0.0033470816 0.039775383 -0.004235087 0.0010417438 -0.11784613 -0.008268421 0.0031182866 0.055762615
0.011658041 0.0019757245 -0.021600569 0.024032678 0.0013161208 -0.06345981 -0.021726843 -0.001156895
0.0066331015 0.030059228 -0.0013632718 -0.005685731 -0.019468892 -0.00042388157 -0.11213105 -0.026311792
0.0066829375 -0.027808333 0.00795052 -0.0028402386 0.045618813 0.012197567 0.0044988324 0.0087212045
-0.020116791 -0.00093833095 -0.019508317 0.007068761 0.004240016 0.032686915 0.013155407 -0.009449535
0.04777082 0.013080102 -0.013601974 0.035581943 -0.018393133 0.020060552 -0.06774278 -0.029068982
-0.0054722596 0.012304015 -0.065420195 0.02094719 -0.07584163 -0.10089735 -0.018599179 -0.006221055
-0.003646465 0.027313886 -0.069296904 0.034103405 -0.040537182 -0.09472494 0.017764566 -0.060095612
0.00874946 -0.08259592 -0.02359549 -0.014519529 -0.11841183 -0.059407737 -0.015653118 -0.047650136
0.021610934 0.00012710526 -0.00019148552 -0.011950329 -0.00012792136 0.00018914245 0.039076198 0.030426519
-0.0018581129 0.0025864565 0.099451676 0.00053432706 0.04197273 -0.07276204 0.022086363 0.015856925
-0.028944455 -0.025850791 0.02169356 0.117222406 -0.011761337 0.014222908 0.10548958 0.018063745
0.02614426 0.07963747 -0.006092019 0.025749624 0.08491567 -0.021034362 0.009558717 -0.12566991
0.08035104 0.026797535 0.03254716 -0.057877854 0.02972334 -0.0042462572 -0.03260695 -0.01253273
0.029385477 0.07599622 -0.017270004 0.03838373 0.077789776 0.0004198548 -0.006126451 0.010051628
-0.0050439565 -0.060337424 0.009513491 0.043255918 0.03733923 0.04280767 0.025092253 0.091905706
-0.005033944 -0.008501293 0.04004869 0.024911648 0.0198738 -0.09914818 0.02062685 -0.0208769
-0.039127853 0.028993614 -0.022530079 -0.038831122 0.008039944 0.051269222 -0.08369801 0.017264884
-0.07576777 0.07248682 0.03355127 0.1003801 0.0760375 -0.118158706 0.0024815307 0.034081146
-0.0855351 -0.07687842 0.026107866 -0.113654554 0.062016338 0.000824063 0.04366298 -0.015322758
00000000: cb70 66b8 7f29 5abd 39ea e53a 1369 4739
00000010: cf0d e33b 5afa e4bb 135e c539 4412 823d
00000020: a604 a1bc 4eff 3439 638e b2bb e285 7abc
00000030: ccaf 6bba 1cac 233c a0da 0cbd 56d3 43ba
00000040: 8e08 983a 93ce 353c 986e 3bba 92d9 16bd
00000050: 5a71 17bd d689 dc3b 30ef d1bc e201 a4bb
00000060: 1f2d edbb 7e62 cfbb 3e28 4fbb 7fb5 9c39
00000070: eacb 8cbd 5938 7fbc 25a2 80ba 0a0b a0bd
00000080: f7c4 423b 7fa8 23bc fccd 83bd ae52 5ebb
00000090: 2fe1 4cbc ad30 623d 302d a5b9 5b2b 13bd
000000a0: 7ff8 853a 1b44 713b 535b d0bb 6a68 23bd
000000b0: a5d1 dabb ffb1 803d 5633 72bd ccb1 0cbd
000000c0: a249 1fbd 9946 753d f218 f8bc c338 0a3d
000000d0: f8a3 303d 137a 333d a658 69bd 8180 e53c
000000e0: 9dd9 963c 0968 dfbb c121 b03c 976a 5f3c
000000f0: 2fe0 333d fc46 3abd 37d9 56bd a347 31bd
00000100: 7a5a 73bd 6143 6dbb 0b82 373d a12a 1c3d
00000110: 9c86 243d a498 5d3c f6d2 3739 fb20 21b9
00000120: df59 33ba 1feb 2cb9 961a 2f39 b734 653b
00000130: 02ee 533c 8ad9 f3ba f7f4 85bc d697 3a3d
00000140: c67c 2ebb d602 183c f5a0 c8bb 140e ce3b
00000150: 8f2f 653a 9fce 083d ee94 003c 121f 4cbb
00000160: 74b4 92bd 701f 0a3c 7e12 4f3b 6230 d33d
00000170: 8587 9fba e5de 813c eb64 163d 50b9 38bb
00000180: b65a 5b3b 83eb 223d 7cc6 8abb 1f8b 883a
00000190: 5059 f1bd 4578 07bc 2b5c 4c3b 5767 643d
000001a0: 5e01 3f3c 287b 013b adf3 b0bc 2ee0 c43c
000001b0: b081 ac3a 38f7 81bd 7efc b1bc f4a2 97ba
000001c0: 7d5a d93b c53e f63c d0af b2ba 5e4f babb
000001d0: 3a7d 9fbc 6c3c deb9 f7a4 e5bd d48b d7bc
000001e0: 8bfc da3b 4dce e3bc e642 023c 4c23 3abb
000001f0: cbda 3a3d 4ed8 473c f16a 933b 62e3 0e3c
00000200: f8cb a4bc 53fa 75ba e8cf 9fbc 11a1 e73b
00000210: d5ef 8a3b b7e2 053d c789 573c 39d2 1abc
00000220: 56ab 433d ed4d 563c d0da 5ebc 5fbe 113d
00000230: 32ad 96bc 0756 a43c babc 8abd 1322 eebc
00000240: a450 b3bb c896 493c 06fb 85bd 7199 ab3c
00000250: db52 9bbd 45a3 cebd 4e5d 98bc fed9 cbbb
00000260: 88f9 6ebb 5fc1 df3c 89eb 8dbd 03b0 0b3d
00000270: 510a 26bd 26ff c1bd ff86 913c d126 76bd
00000280: e559 0f3c 0d28 a9bd 544b c1bc 52e3 6dbc
00000290: e781 f2bd 8755 73bd f83a 80bc ca2c 43bd
000002a0: 6a09 b13c 8f47 0539 81c9 48b9 50cb 43bc
000002b0: a122 06b9 8a54 4639 5d0e 203d 0941 f93c
000002c0: ec8b f3ba 8a81 293b 52ad cb3d 1512 0c3a
000002d0: 99eb 2b3d 4404 95bd 76ee b43c 62e6 813c
000002e0: ec1c edbc 0ac5 d3bc b1b6 b13c 4d12 f03d
000002f0: 9fb2 40bc 3307 693c ec0a d83d 6bfa 933c
00000300: 7d2c d63c f818 a33d 8f9f c7bb e0f0 d23c
00000310: 44e8 ad3d 4150 acbc 2a9c 1c3c 9daf 00be
00000320: 168f a43d 8186 db3c 2c50 053d 5411 6dbd
00000330: 5d7e f33c 3024 8bbb dd8e 05bd 1456 4dbc
00000340: d0b9 f03c e8a3 9b3d d379 8dbc 4238 1d3d
00000350: 3f50 9f3d f51f dc39 65c0 c8bb 95af 243c
00000360: c647 a5bb 6024 77bd 79de 1b3c 1e2d 313d
00000370: 05f1 183d 1857 2f3d 458e cd3c 0f39 bc3d
00000380: c8f3 a4bb 0249 0bbc 180a 243d 8313 cc3c
00000390: 61ce a23c 330e cbbd a4f9 a83c 0806 abbc
000003a0: 8744 20bd 0484 ed3c 0091 b8bc 620d 1fbd
000003b0: f8b9 033c adff 513d dd69 abbd 166f 8d3c
000003c0: 222c 9bbd f873 943d 0e6d 093d 1594 cd3d
000003d0: 8cb9 9b3d 31fd f1bd 2da1 223b ac98 0b3d
000003e0: 072d afbd 6f72 9dbd 2ae0 d53c b8c3 e8bd
000003f0: d804 7e3d ef05 583a f4d7 323d 4e0c 7bbc

arith.constant10 f4 [64, 99]
9.2035225e-05 0.023745758 -0.007651829 0.00037621596 0.055455763 -0.009883178 0.00033840112 -0.033033013
-0.005675252 0.00034745544 -0.033800717 -0.022003675 -0.0005420773 0.003227917 -0.01359468 -0.00044460993
0.050240524 -0.0024273486 -0.00038897642 0.037235107 -0.026159175 0.0019811874 -0.02445973 -0.00058777415
-0.0033820712 0.054558456 -0.001934221 0.0004267482 -0.0134030115 0.005707086 -0.0005837717 -0.031680223
-0.014591557 0.0059689023 -0.04203688 0.0005518067 -0.008524704 -0.019147204 0.0006500812 0.03840515
-0.036507007 0.0016813453 0.023777017 -0.0654536 -0.0006907581 0.0185109 0.010026928 0.021411156
-0.04659571 0.027324919 -0.019018326 0.061159857 -0.09568312 -0.010462566 -0.011190799 0.046158124
0.01697793 -0.015879368 0.01179613 0.026819853 -0.002724081 -0.058908906 -0.047122724 0.013532856
0.006845307 -0.021398656 -0.020809181 -0.050436754 0.008028565 4.1723397e-05 0.00014410367 -0.00014090401
-0.0012297663 -0.00013803525 0.00014957793 0.00651358 -0.027028065 -0.0016681589 -0.0056219124 0.0670427
-0.0018555368 0.017256226 -0.0085746655 0.006867183 -0.012827454 0.04224258 0.00089167623 0.014580651
0.051316474 0.0020339186 -0.004606099 0.055337943 0.0011464176 -0.013340421 0.060452316 -0.0019289803
-0.009468142 0.07957561 -0.0015370046 -0.00020575622 -0.12463541 0.03278014 0.00124999 -0.044072147
-0.02093913 0.0011542166 0.040443946 -0.027285822 0.0012260783 -0.079958044 -0.015471249 -0.0009078814
-0.009903694 0.0061178706 -0.0006800618 -0.064321145 -0.02150398 -0.00085671915 -0.051830687 0.003738988
0.008653679 -0.07556243 0.0012036633 0.0031101916 -0.112505965 0.002444287 0.0014117016 -0.037483755
0.004625517 -0.0009087711 0.058580212 -0.010069098 -0.0057057235 0.034004074 0.016916491 -0.014071797
0.02313886 0.0036511763 0.050352205 0.04719081 0.005054858 0.037849303 -0.078003556 0.0007817766
0.0948347 -0.032725062 -0.058787666 -0.088154964 -0.085639454 -0.027018553 0.023003776 -0.03171425
0.008354468 0.017720312 -0.10328392 -0.035906903 -0.019650564 0.049959324 -0.08418262 -0.07066224
-0.013426509 -0.080686 0.017836256 -0.11169876 -0.06534003 0.044282183 0.03342596 -0.04025204
-0.0034547115 0.00015182365 -0.00014946636 0.0015641868 -0.00017101562 0.00014523401 0.026637074 0.034043808
-0.005142893 0.006946377 0.046050865 -0.014346376 0.01869335 -0.00537312 -0.012966038 0.019849261
0.021882985 -0.008650853 -0.003934063 -0.011902502 -0.012691211 -0.004704338 0.09446197 -0.021814242
0.039402816 0.03382251 -0.005617979 0.009090257 -0.051786885 -0.0069277985 0.010886288 -0.0032389122
0.060366284 0.022436256 0.067804374 0.059088036 0.0111224605 0.053991336 0.0069002486 0.0098354835
0.037839927 0.07870066 0.0060716923 -0.0767685 -0.03717155 -0.0026418064 -0.097069524 0.08502106
0.002199367 0.08048025 -0.024419822 0.04749441 0.07337437 0.034727577 -0.017578674 0.033746365
0.039609592 0.018053317 0.06767244 0.06814198 -0.010541298 0.022454228 0.03495142 0.020309478
-0.04301329 0.015720678 0.015607587 -0.076083556 0.072359495 0.003611273 0.039212614 0.03196683
-0.016295813 0.010054233 -0.00901726 -0.081859306 -0.07777217 0.007895081 -0.0966403 0.032001037
0.020528441 0.079312816 0.080666795 -0.07189992 -0.0055804355 0.012619879 -0.06458939 0.021251703
00000000: 0903 c138 7786 c23c 32bc fabb da3e c539
00000010: 9525 633d 0eed 21bc 6e6b b139 a04d 07bd
00000020: 77f7 b9bb ae2a b639 9f72 0abd 0d41 b4bc
00000030: 311a 0eba 768b 533b 38bc 5ebc 891a e9b9
00000040: 02c9 4d3d 2714 1fbb 88ef cbb9 d783 183d
00000050: c44b d6bc cfd6 013b c65f c8bc db14 1aba
00000060: bda5 5dbb b078 5f3d b085 fdba 2dbd df39
00000070: 4e98 5bbc 8202 bb3b 4108 19ba 1fc3 01bd
00000080: 6d11 6fbc c896 c33b dd2e 2cbd 1fa7 103a
00000090: 33ab 0bbc 99da 9cbc 366a 2a3a b84e 1d3d
000000a0: 5f88 15bd 9660 dc3a 05c8 c23c 890c 86bd
000000b0: fe13 35ba 2ca4 973c fc47 243c 7366 af3c
000000c0: 25db 3ebd 82d8 df3c 52cc 9bbc c282 7a3d
000000d0: 83f5 c3bd 2f6b 2bbc 9d59 37bc 4d10 3d3d
000000e0: 4d15 8b3c 7315 82bc 8e44 413c 4fb5 db3c
000000f0: 7f86 32bb 774a 71bd c203 41bd e9b8 5d3c
00000100: 994e e03b 3c4c afbc 0478 aabc c596 4ebd
00000110: 3e8a 033c 2800 2f38 891a 1739 a2bf 13b9
00000120: 1c30 a1ba 8ebd 10b9 05d8 1c39 df6f d53b
00000130: f669 ddbc 20a6 daba 0538 b8bb af4d 893d
00000140: 7c35 f3ba ee5c 8d3c c17c 0cbc 1b06 e13b
00000150: 3e2a 52bc 8e06 2d3d 61bf 693a afe3 6e3c
00000160: 3931 523d 7e4b 053b c2ee 96bb 0aaa 623d
00000170: 6443 963a c891 5abc d99c 773d d7d5 fcba
00000180: 4420 1bbc 8af8 a23d 5175 c9ba 44c0 57b9
00000190: da40 ffbd 7844 063d b4d6 a33a ff84 34bd
000001a0: 8a88 abbc 1549 973a 8da8 253d 8486 dfbc
000001b0: 5cb4 a03a 0bc1 a3bd 1f7b 7dbc e4fe 6dba
000001c0: 1a43 22bc 6b78 c83b 2d46 32ba ceba 83bd
000001d0: 1d29 b0bc 7395 60ba 6a4c 54bd cf09 753b
000001e0: 29c8 0d3c 7ac0 9abd 3dc4 9d3a 5bd4 4b3b
000001f0: 8769 e6bd 5530 203b d808 b93a 9188 19bd
00000200: a691 973b 993a 6eba cef1 6f3d dcf8 24bc
00000210: 14f7 babb db47 0b3d 7494 8a3c 658d 66bc
00000220: b58d bd3c 9348 6f3b 1d3e 4e3d 274b 413d
00000230: 39a3 a53b df07 1b3d 54c0 9fbd 24f0 4c3a
00000240: b238 c23d b70a 06bd 56cb 70bd 978a b4bd
00000250: bd63 afbd 0356 ddbc 6a72 bc3c cde6 01bd
00000260: 2ee1 083c 302a 913c 8586 d3bd 1e13 13bd
00000270: 38fa a0bc 26a2 4c3d f067 acbd 5db7 90bd
00000280: dcfa 5bbc b43e a5bd 571d 923c 52c2 e4bd
00000290: fed0 85bd 3c61 353d a9e9 083d 53df 24bd
000002a0: 7168 62bb da32 1f39 12ba 1cb9 6605 cd3a
000002b0: a852 33b9 f549 1839 fe35 da3c 8571 0b3d
000002c0: b785 a8bb 6f9e e33b d59f 3c3d 100d 6bbc
000002d0: cc22 993c ff10 b0bb 816f 54bc eb9a a23c
000002e0: f243 b33c 4fbc 0dbc 50e9 80bb b602 43bc
000002f0: ccee 4fbc d926 9abb 4775 c13d c8b3 b2bc
00000300: d964 213d 7989 0a3d 0617 b8bb 4def 143c
00000310: 7c1e 54bd 9602 e3bb 675c 323c ee43 54bb
00000320: a342 773d 3dcc b73c 05dd 8a3d 4c06 723d
00000330: fb3a 363c 0526 5d3d 7b1b e23b 0225 213c
00000340: 0afe 1a3d d02d a13d 0cf5 c63b ce38 9dbd
00000350: 3241 18bd 2822 2dbb 63cc c6bd 861f ae3d
00000360: 4123 103b d4d2 a43d 140c c8bc 8089 423d
00000370: 4d45 963d 813e 0e3d 2701 90bc a139 0a3d
00000380: ab3d 223d 8de4 933c d997 8a3d 068e 8b3d
00000390: 69b5 2cbc eef1 b73c 3829 0f3d 1060 a63c
000003a0: b42e 30bd a7c8 803c f7b6 7f3c b2d1 9bbd
000003b0: 3731 943d 1bab 6c3b 689d 203d a7ef 023d
000003c0: cc7e 85bc 82ba 243c 21bd 13bc daa5 a7bd
000003d0: 0447 9fbd 5f5a 013c 59eb c5bd 8513 033d
000003e0: 432b a83c c26e a23d a234 a53d 4440 93bd
000003f0: 16dc b6bb 9cc3 4e3c 7147 84bd 0d18 ae3c
