assets/models/exercise_classifier.tflite (tflite, 343300 bytes, 26 tensors)

model/fc/BiasAdd/ReadVariableOp f4 [3]
0	0x3c9112ae	0.017709102
1	0x3dbb5375	0.091467775
2	0x3c3a4e70	0.01137124

arith.constant1 f4 [64, 64]
0	0x3d2d944e	0.042377762
1	0x3c31573e	0.010824023
2	0x3b143898	0.002261674
3	0x3cfe4277	0.031037552
4	0x3c560fb6	0.013065269
5	0xbccc6641	-0.024951102
6	0x3c18170e	0.00928284
7	0x3de62525	0.112375535
8	0x3ddf3d09	0.109003134
9	0x3d796e56	0.06089624
10	0xbd944424	-0.07239559
11	0x3d8af1c6	0.06784396
12	0x3d5dc877	0.054146256
13	0xbd5e1779	-0.054221604
14	0x3d2feeef	0.042952474
15	0x3d299145	0.041398305
16	0x3d1c41e5	0.03814878
17	0x3d3aceb8	0.0456073
18	0x3d6b3578	0.05742404
19	0x3b1c7100	0.0023871064
20	0x3c7d2904	0.015451673
21	0x3d024fc6	0.03181436
22	0x3c37d824	0.011220966
23	0x3e0b3723	0.13595252
24	0xbda83881	-0.08213902
25	0x3dc97d5a	0.09838362
26	0x3dbd4fea	0.09243758
27	0xbc996982	-0.018727068
28	0xbcbfd7c0	-0.023418307
29	0x394e925c	0.00019700214
30	0xbdad3ecb	-0.084592424
31	0xbd551246	-0.05201938
32	0xbd38ba3c	-0.045099482
33	0xbdf0abb7	-0.11751502
34	0x3da8dcaa	0.08245213
35	0x3c314731	0.010820196
36	0x3d9078fb	0.07054325
37	0x3c974bb7	0.01846872
38	0x3cf996af	0.03046736
39	0x3d1ad0a8	0.037796646
40	0xbd526e6a	-0.05137483
41	0x3dcea6bf	0.10090398
42	0xba4eb43e	-0.00078851345
43	0x3d0313a6	0.03200116
44	0x3cdaebca	0.026723761
45	0xbd665748	-0.05623558
46	0xbcd0a733	-0.025470352
47	0xbd80b332	-0.06284179
48	0xbd89ec97	-0.06734579
49	0xbd99d5ec	-0.075115055
50	0x3dd87fbb	0.10571238
51	0x3d1fb9c8	0.038995534
52	0x3c851ccc	0.016249083
53	0xbd6170f5	-0.055039365
54	0x399a4782	0.00029426446
55	0xbc8e0c0b	-0.017339727
56	0x3cce33a7	0.025171114
57	0x3c769773	0.015050757
58	0xbcc86732	-0.02446327
59	0x3d6e0876	0.058113538
60	0x3df909d4	0.12160078
61	0x3d87d191	0.066317685
62	0xbc97065d	-0.018435651
63	0xbc29cc40	-0.010363638
64	0x3d03882e	0.032112293
65	0x3d872109	0.06598098
66	0xbd9440a0	-0.07238889
67	0x3d6b937f	0.05751371
68	0xbd14aa9c	-0.03629552
69	0x3df46088	0.119324744
70	0x3e015e43	0.12633614
71	0xbdadd847	-0.08488517
72	0xbdbb8fc9	-0.09158284
73	0xbc980e62	-0.018561546
74	0xbd557dd0	-0.052121937
75	0x3d2ff51b	0.04295836
76	0x3e19dd98	0.15025938
77	0xbd777f08	-0.06042388
78	0x3da109f3	0.07863226
79	0xbbd35c80	-0.006450236
80	0x3db59bc7	0.08867603
81	0x3d79221f	0.060823556
82	0xbe1cc409	-0.15309156
83	0x3c1b2ecc	0.009471606
84	0x3d9f08b7	0.07765334
85	0xbd8e40a3	-0.06945922
86	0x3d930059	0.07177801
87	0xbda91803	-0.08256533
88	0xbdba1b80	-0.090872765
89	0xbd0569fa	-0.03257177
90	0xbe0d9c0d	-0.1382906
91	0xbd4aa61d	-0.049474824
92	0xbd131633	-0.035909843
93	0x3d7bf655	0.061514217
94	0xbd78294c	-0.06058626
95	0xbcf15046	-0.029457223
96	0xbd06ca6e	-0.032907896
97	0xbd3c75a8	-0.046010643
98	0x3da7b619	0.08189029
99	0x3c6b92c0	0.01437825
100	0xbdd6d8bf	-0.1049056
101	0xbbb3084a	-0.0054636346
102	0x3d6f8f41	0.058486227
103	0x3c12ef8e	0.008968247
104	0x3dc108c1	0.09425498
105	0xbcff367e	-0.031153914
106	0x3d3e507f	0.046463486
107	0xbd58a87d	-0.052895058
108	0x3c7aeddc	0.015315499
109	0x3c2e78f4	0.010648955
110	0xbd5ea465	-0.054355998
111	0x3e027ded	0.1274335
112	0xbd45ce3c	-0.048292384
113	0xbd48e0ea	-0.04904262
114	0x3d7b1974	0.06130357
115	0xbdbb73ff	-0.09152984
116	0xbde02d1c	-0.10946104
117	0x3da2e75e	0.07954286
118	0x3bf9bf3d	0.0076216743
119	0xbdc09b8c	-0.09404668
120	0x3d85cc49	0.06533105
121	0x3da5d57b	0.08097359
122	0xbc468281	-0.0121160755
123	0xbc5715b8	-0.013127737
124	0xbd6b94fd	-0.057515133
125	0x3c8a2599	0.016863631
126	0x3d2830ee	0.041062288
127	0x3d8720b8	0.065980375
128	0x3d168c45	0.036754865
129	0x3d9f1d5a	0.0776927
130	0x3d0be2b4	0.034151748
131	0x3d380546	0.044926904
132	0xbd9d4040	-0.0767827
133	0xbc93b954	-0.018032707
134	0x3c93eb68	0.018056586
135	0x3d8b8916	0.068132564
136	0x3b3c5d1b	0.0028742019
137	0xbc231826	-0.009954488
138	0xbcc6e9e9	-0.024281459
139	0xbb0b46fb	-0.0021252024
140	0x3d82acc6	0.0638061
141	0xbd876f79	-0.066130586
142	0xbd81c237	-0.06335872
143	0x3d17689f	0.03696501
144	0xbcba9277	-0.022774918
145	0x3d34f617	0.044180002
146	0x3b0dc010	0.002162937
147	0xbd4bab83	-0.049724113
148	0x3da7450e	0.08167468
149	0x3dd5953c	0.10428855
150	0xbccf30e5	-0.02529187
151	0x3d90d21e	0.07071327
152	0xbd67b83d	-0.056572188
153	0x3d687c6a	0.056759275
154	0xbda2f79e	-0.079573855
155	0xbdc25a85	-0.094899215
156	0x3d4ea673	0.050451707
157	0x3d330ca6	0.043713234
158	0xbd0cb92d	-0.034356285
159	0x3c07dc7b	0.008292313
160	0xbd0a85ce	-0.033819012
161	0xbcedfd55	-0.029051462
162	0xbd4c5219	-0.049882982
163	0x3d8e0a88	0.069356024
164	0xbdb78bd1	-0.08962215
165	0x3d732fc2	0.059371717
166	0xbdc7ce5c	-0.09756157
167	0xbd9f49c1	-0.07777739
168	0x3d1a0f02	0.03761197
169	0x3d17cc59	0.037060115
170	0xbd96045c	-0.0732505
171	0x3d7beb0c	0.061503455
172	0xbd1f4504	-0.038884178
173	0x3d5b4423	0.053531777
174	0x3d68dc8d	0.05685096
175	0x3dc7c62d	0.09754596
176	0xbd0f026a	-0.03491441
177	0x3d8370b3	0.0641798
178	0x3c18d006	0.00932694
179	0x3d5a1403	0.05324174
180	0xbd969332	-0.07352294
181	0x3dc18531	0.09449232
182	0x3cba2081	0.022720577
183	0xbdbeb44e	-0.09311734
184	0x3dad7192	0.084689274
185	0xbddaad7f	-0.10677623
186	0xbdf96c0c	-0.121788114
187	0x3d5012f0	0.05079931
188	0x3dbbf9ff	0.09178542
189	0x3d964bee	0.07338701
190	0xbc323aa0	-0.010878235
191	0x3d3d1766	0.046164893
192	0xbbcb8f5c	-0.006212158
193	0xbd67532a	-0.056475796
194	0xbdae5cf4	-0.08513823
195	0x3cb73775	0.022365311
196	0xbcd25b93	-0.025678432
197	0x3cd0f251	0.02550617
198	0xbd86a41f	-0.06574272
199	0xbd43fcb8	-0.047848433
200	0xbdcb4da7	-0.099269204
201	0xbd8c5337	-0.068518095
202	0xbd689436	-0.05678197
203	0x3cb39fa6	0.021926712
204	0xbbac5c44	-0.0052600224
205	0xbdbd41a2	-0.09241034
206	0x3d1455e7	0.036214735
207	0x3ce7fbb6	0.028318267
208	0x3d204813	0.039131235
209	0xbc0e0835	-0.008668949
210	0xbd964d13	-0.073389195
211	0x3c975b0a	0.018476028
212	0x3dbc1275	0.09183208
213	0x3d882154	0.06646982
214	0x3c935ab6	0.01798759
215	0x3ca02f63	0.019553846
216	0xbdb0c210	-0.086307645
217	0xbd434464	-0.047672644
218	0xbd32739d	-0.04356729
219	0xbd1e4585	-0.038640518
220	0xbdcbaae7	-0.099447064
221	0xbda825df	-0.08210348
222	0x3c897adf	0.016782222
223	0x3d126390	0.03573948
224	0x3cf47bd7	0.029844208
225	0xb9b20a22	-0.00033958355
226	0x3da71612	0.081585065
227	0xbb952a88	-0.0045521893
228	0xbdbaad16	-0.09115045
229	0x3ce519bd	0.027966375
230	0xbd6bb18b	-0.057542365
231	0xbcf4c1fb	-0.029877653
232	0x3d05400d	0.032531787
233	0xbd4c89a4	-0.04993595
234	0x3e0ae72b	0.13564746
235	0xb8fffbbd	-0.000122062374
236	0x3cf27b12	0.0295997
237	0xbcca9291	-0.024728091
238	0x3d0f4315	0.034976084
239	0x3dea1915	0.11430565
240	0x3cee2eaa	0.029074986
241	0x3b8fc86b	0.0043879054
242	0xbd1dda30	-0.038538158
243	0xba8e3135	-0.0010848405
244	0xbde171fc	-0.11008069
245	0x3ce2b396	0.027673524
246	0xbc4da939	-0.012552553
247	0xbc2ee52e	-0.010674758
248	0x3a927646	0.0011174164
249	0x3d2cc831	0.042183105
250	0xbd8ab073	-0.06771936
251	0xbd81dd82	-0.063410774
252	0x3ddb6d81	0.107142456
253	0xbd77da69	-0.060511027
254	0x3dad27d9	0.08454866
255	0x3dba3969	0.09092981

arith.constant2 f4 [64, 64]
0	0x3db0f8de	0.08641218
1	0x3d89f487	0.06736093
2	0x3d25bdcc	0.040464208
3	0xbd874a5e	-0.06605981
4	0x3c878bd3	0.016546166
5	0x3d4c78b5	0.049919803
6	0x3d85f80e	0.06541453
7	0x3d49dfcf	0.049285706
8	0xbd6c9f07	-0.057768848
9	0x3d85037e	0.06494807
10	0xbce0fddb	-0.027464798
11	0xbd7d29ec	-0.061807558
12	0x3dae773d	0.08518837
13	0x3ca3c1cf	0.019989876
14	0xbd818d46	-0.06325774
15	0x3c499f91	0.01230611
16	0xbd49a9f1	-0.049234334
17	0x3d6691c6	0.056291364
18	0xbd901cb5	-0.070367254
19	0xbc8b52a5	-0.017007181
20	0xbde7d5b5	-0.11320058
21	0xbcda258a	-0.026629228
22	0x3dde4254	0.10852495
23	0x3e34c71e	0.17654082
24	0xbc0580da	-0.008148396
25	0xbda84b69	-0.08217508
26	0xbcbc0bb6	-0.022954803
27	0x3d04296d	0.03226607
28	0x3cf8ce32	0.03037176
29	0x3d25e90f	0.040505465
30	0xbdd1cb21	-0.10243822
31	0x3da05c83	0.07830145
32	0x3c512bbd	0.012766776
33	0xbd9e6f85	-0.077361144
34	0xbdaa29ec	-0.08308777
35	0xbd13eecd	-0.03611641
36	0x3dd7b41f	0.10532402
37	0x3d99d76e	0.07511793
38	0xbbb6443c	-0.0055623334
39	0x3d62cebc	0.05537294
40	0x3db9e91b	0.090776645
41	0x3d60c551	0.054875676
42	0x3dcaa8d6	0.09895484
43	0x3d29d330	0.04146117
44	0x3d6fa60d	0.058507968
45	0xbda26e60	-0.079312086
46	0xbdb7e6bb	-0.08979555
47	0xbd75fb33	-0.060054015
48	0xbc6bd915	-0.014395018
49	0x3aa23d46	0.001237788
50	0x3d54c292	0.05194337
51	0x3c981b29	0.018567638
52	0x3ce0afef	0.027427642
53	0xbd48d4bb	-0.049031
54	0x3ccf04ba	0.025270808
55	0xbad4e47e	-0.0016242412
56	0xbd51cd29	-0.051221047
57	0xbca28ce0	-0.019842565
58	0x3dc053e2	0.093909994
59	0x3ccc027a	0.024903525
60	0x3df7deed	0.121030666
61	0x3d23e259	0.040010784
62	0xbd146624	-0.03623022
63	0x3de0ea5e	0.10982202
64	0x3d39f7fe	0.04540252
65	0xbc6318ac	-0.013860863
66	0x3d33f80a	0.04393772
67	0x3c9315be	0.017954703
68	0xbd46dde7	-0.048551466
69	0xbd79e5e5	-0.06101026
70	0x3d77bd04	0.060482994
71	0xbdf91463	-0.121620916
72	0xbe23b743	-0.15987878
73	0xbd828c67	-0.06374436
74	0x3c20d775	0.009816994
75	0x3d4206b9	0.047369692
76	0xbd75a35b	-0.05997024
77	0xbe017506	-0.12642297
78	0xbdd950e5	-0.106111325
79	0x3c6c0bf8	0.01440715
80	0x3d9a39a4	0.07530525
81	0x3daa20d4	0.08307043
82	0xbd0ac6d4	-0.033881024
83	0xbda2c418	-0.07947558
84	0x3de4d3f6	0.11173241
85	0x3c2f53b5	0.01070111
86	0x3d827ac6	0.063710734
87	0xbd3f72a1	-0.046740178
88	0xbcaa32e8	-0.020776227
89	0x3d428cf8	0.04749772
90	0x3d9ac374	0.07556811
91	0x3d80f433	0.06296577
92	0x3da06cf3	0.078332804
93	0xbdda80f6	-0.106691286
94	0x3b729683	0.0037015982
95	0x3d86701e	0.065643534
96	0xbd0b1225	-0.03395285
97	0x3dbdb4ab	0.09262975
98	0xbd5dfe30	-0.05419749
99	0xbca533d1	-0.02016631
100	0xbdf09fbf	-0.11749219
101	0x3dbf8973	0.09352388
102	0xbdf8339e	-0.1211922
103	0xbde8748c	-0.113503546
104	0x3d3f69b3	0.046731662
105	0xbd9441ff	-0.0723915
106	0xbc88bf49	-0.016692774
107	0xbbb68652	-0.0055702114
108	0x3c6b775c	0.014371719
109	0xbddc7efd	-0.107664086
110	0xbdffaf20	-0.12484574
111	0xbd898c51	-0.06716216
112	0x3c980f25	0.018561909
113	0x3c0fbeb6	0.008773496
114	0xbde51926	-0.11186437
115	0x3a87901d	0.0010342632
116	0x3ca858e2	0.020550195
117	0x3d133c4f	0.035946187
118	0x3bab9fce	0.005237556
119	0x3dbb8825	0.09156827
120	0x3d5b5fb4	0.053558066
121	0x3ce717e8	0.028209642
122	0xbdae1dbe	-0.085017666
123	0xbc8902fc	-0.016725056
124	0x3e11432e	0.14185783
125	0x3d9313c0	0.071815014
126	0xbb96285e	-0.004582449
127	0xbd81a356	-0.06329982
128	0xbd3ea387	-0.04654267
129	0xbd78d5f2	-0.06075091
130	0xbd507394	-0.050891474
131	0xbdd7a039	-0.10528607
132	0xbdc8040e	-0.09766398
133	0x3c84f602	0.016230587
134	0x3dbd314b	0.092379175
135	0x3d60241d	0.05472194
136	0xbd860875	-0.06544582
137	0x3d66d223	0.056352746
138	0x3d05a1ae	0.032624893
139	0xbd2b01f6	-0.041749917
140	0x3d56b7c7	0.052421357
141	0xbd1b814c	-0.037965104
142	0x3bb2c877	0.005456026
143	0x3d58fcb7	0.052975383
144	0xbcc07aec	-0.023496114
145	0x3d83dc53	0.06438508
146	0x3dc3b1e9	0.09555418
147	0xbd99d527	-0.07511359
148	0x3d76452d	0.060124565
149	0xbcac271a	-0.021014739
150	0x3ca80986	0.020512354
151	0xbd7c6c1b	-0.061626535
152	0xbd9e1316	-0.07718484
153	0xbc9768fd	-0.01848268
154	0xbdbc0e5c	-0.09182426
155	0x3dbe836f	0.09302413
156	0xbbadef8c	-0.005308097
157	0x3d2a4e01	0.041578297
158	0xbd0d7032	-0.034530826
159	0xbb4dd085	-0.0031404805
160	0x3d12a7cc	0.035804555
161	0x3ce53d7e	0.027983423
162	0x3c5773d2	0.013150172
163	0x3cb0ca3e	0.021580812
164	0xbdf4a0ff	-0.1194477
165	0x3cd1aa0f	0.025593786
166	0xbd87f591	-0.06638635
167	0xbd656f1b	-0.05601416
168	0xbdd551f4	-0.10416022
169	0xbb98b9e4	-0.0046608318
170	0x3dd3735b	0.10324737
171	0xbc1275e4	-0.00893924
172	0xbd807d90	-0.06273949
173	0x3dc84bcc	0.09780082
174	0xbdb19bcf	-0.08672296
175	0xbd4effb0	-0.05053681
176	0x3dc16af3	0.09444227
177	0x3cce724b	0.025200984
178	0x3d0a0695	0.033697683
179	0x3db12db3	0.086512946
180	0xbdf0dd5d	-0.11760972
181	0x3d94551d	0.072427966
182	0xbd79ce59	-0.060987804
183	0x3da73f34	0.08166352
184	0x3c7782a5	0.015106832
185	0x3d974290	0.07385743
186	0xbdb718da	-0.08940287
187	0xbdcccee1	-0.100003965
188	0x3d9ddb4d	0.07707844
189	0xbd3fe130	-0.046845615
190	0x3ce3d97a	0.027813662
191	0xbdae84f8	-0.085214555
192	0xbdbd7454	-0.092507035
193	0xbdd41b19	-0.10356731
194	0xbe1d6c08	-0.15373242
195	0xbe012d3b	-0.1261491
196	0xbdb80abe	-0.08986424
197	0x3d5b7d58	0.053586334
198	0x3d184e6d	0.037184168
199	0xbcec1321	-0.028817715
200	0xbdc58c6a	-0.096459225
201	0x3d404f2d	0.046950508
202	0xbd9c7027	-0.07638579
203	0x3d6c256c	0.057652876
204	0x3d46d84d	0.048546124
205	0xbd1b2008	-0.037872344
206	0xbd4f8116	-0.050660215
207	0xbd5f6d2f	-0.054547485
208	0xbd23a2a7	-0.03995004
209	0xbc9ae99c	-0.018910222
210	0xbd935eba	-0.07195802
211	0xbc558dda	-0.013034308
212	0x3d27cbf1	0.040965978
213	0x3da3e677	0.08002942
214	0xbd4e5542	-0.050374277
215	0x3c4eb98a	0.012617478
216	0x3cc72355	0.02430884
217	0xbded0270	-0.115727305
218	0xbbb1f406	-0.005430701
219	0xbd80eeb2	-0.062955275
220	0xbda3fb86	-0.08006959
221	0xbd09a19c	-0.03360139
222	0x3d1c9831	0.03823108
223	0x3db08dde	0.08620809
224	0xbd8b5d0d	-0.068048574
225	0xbdd38000	-0.103271484
226	0x3df9d724	0.12199238
227	0x3d203b1a	0.039118864
228	0xbddbdb3e	-0.107351765
229	0x3dd7df6f	0.105406635
230	0xbe0135e8	-0.1261822
231	0x3d6205a8	0.055181175
232	0xbdc9b949	-0.098497935
233	0xbd6db3ca	-0.05803279
234	0xbc990038	-0.018676862
235	0x3cde93c9	0.027170079
236	0x3d5e57a4	0.0542828
237	0x3d8e0234	0.06934014
238	0x3d273b2d	0.04082792
239	0x3e16a3b9	0.14710893
240	0x3d9de1d6	0.077090904
241	0xbdad616e	-0.08465849
242	0xbe1ff04d	-0.15619011
243	0xbdfcebde	-0.123496756
244	0x3d369c06	0.04458239
245	0x3de3dff9	0.11126704
246	0xbc008724	-0.00784472
247	0xbe12c34a	-0.1433231
248	0x3db27cfc	0.08715245
249	0x3a7aada0	0.00095626153
250	0xbdc513cf	-0.09622919
251	0xbdf7d1a3	-0.12100532
252	0x3c76e189	0.01506842
253	0x3c921ad4	0.017835058
254	0x3d6b091b	0.05738173
255	0x3d724798	0.05915031

arith.constant3 f4 [64, 64]
0	0x3d96b05a	0.07357855
1	0x3d4e7db2	0.05041284
2	0xbd5ec761	-0.05438936
3	0x3dac93c1	0.08426619
4	0xbd041889	-0.03224996
5	0xbdd13148	-0.10214478
6	0xbd5e347a	-0.054249264
7	0xbe4c8914	-0.19974166
8	0x3d9dd279	0.0770616
9	0x3d779a56	0.06044992
10	0x3dd38548	0.10328156
11	0xbc72b869	-0.014814475
12	0xbde34d14	-0.11098686
13	0xbdb85c2e	-0.09001957
14	0x3d223add	0.039606918
15	0x3d1443a1	0.03619731
16	0x3d979aaa	0.07402547
17	0x3e0edf25	0.1395231
18	0x3d9bf228	0.07614547
19	0x3da6aadc	0.081380576
20	0xbd9d25c9	-0.076732226
21	0xbd95f038	-0.07321209
22	0xbdcdd7bd	-0.100509144
23	0x3b366c60	0.0027835593
24	0xbe056ab0	-0.1302898
25	0x3dade096	0.08490102
26	0x3d41a555	0.047276814
27	0xbd895569	-0.06705744
28	0xbda0006e	-0.07812582
29	0x3d6907ab	0.05689208
30	0xbd347cca	-0.04406432
31	0x3ded8737	0.11598056
32	0xbc6dbf3e	-0.014510928
33	0x3c3ef939	0.011656099
34	0xbdfd69bd	-0.123736836
35	0xb830e749	-4.217707e-05
36	0xbde4c4b4	-0.11170331
37	0xbca24ef9	-0.019813048
38	0xbd96d520	-0.07364869
39	0xbd2383cd	-0.039920617
40	0x3dcbb859	0.09947271
41	0x3b00740f	0.0019600426
42	0xbdf14431	-0.117805846
43	0x3d8ecabb	0.069722615
44	0x3df1cab0	0.11806238
45	0xbdb24f31	-0.08706511
46	0x3d585d92	0.05282361
47	0x3c99e095	0.018783847
48	0xbc80e5cb	-0.015734574
49	0x3dbd2a48	0.0923658
50	0xbd9cdcb5	-0.07659284
51	0xbc7478dc	-0.014921393
52	0x3d12a516	0.03580197
53	0x3df84731	0.12122954
54	0xbbf49848	-0.0074644424
55	0xbdb13da1	-0.08654333
56	0xbd37396d	-0.0447325
57	0x3c58a357	0.013222537
58	0x3dc16b2c	0.094442695
59	0x3cfb1bf0	0.03065297
60	0x3dc7a269	0.09747774
61	0x3d026092	0.031830378
62	0x3c746855	0.014917453
63	0xbc141ec8	-0.009040542
64	0xbdbd8a6f	-0.0925492
65	0xbda16ed5	-0.07882468
66	0x3d8e4ad0	0.06947863
67	0xbda61d3e	-0.08111046
68	0xbdf551da	-0.119785026
69	0x3d8b49c7	0.06801181
70	0xbe17dfb1	-0.14831425
71	0x3df08ecb	0.117459856
72	0x3e1268b5	0.14297755
73	0x3d7150c1	0.058914904
74	0xbdabd362	-0.083899274
75	0x3db47a75	0.08812419
76	0xbcf0514e	-0.029335644
77	0xbda1472b	-0.07874902
78	0xbd2a6e62	-0.041609176
79	0xbdaa5e3f	-0.08318757
80	0xbb23f628	-0.0025018547
81	0xbda8baa7	-0.08238726
82	0x3c54091e	0.012941627
83	0xbb66f64a	-0.0035242015
84	0xbdfaf404	-0.122535735
85	0x3c0f74ce	0.008755876
86	0x3dda2b67	0.106528096
87	0x3e0ad392	0.1355727
88	0x3da43293	0.08017459
89	0x3dda6b1c	0.10664961
90	0x3dfffb0b	0.124990545
91	0x3caa5a17	0.020794911
92	0x3dbd2d08	0.09237105
93	0x3de9998f	0.11406242
94	0xbd27c15e	-0.040955894
95	0xbd754885	-0.059883613
96	0xbd5959a9	-0.053064022
97	0xbd3a19ad	-0.045434643
98	0x3daf2b72	0.085532084
99	0x3e18feae	0.14940903
100	0x3d354bf4	0.044261888
101	0x3df61778	0.12016195
102	0x3e0f7c24	0.140122
103	0xbd83c574	-0.064341456
104	0x3c8c64c2	0.017137889
105	0x3d4ac516	0.049504362
106	0xbcc7217f	-0.024307964
107	0x3dc85b55	0.09783045
108	0xbcad819b	-0.021179965
109	0xbcfe10b9	-0.031013833
110	0x3db0e5da	0.08637591
111	0xbd631ef8	-0.055449456
112	0x3c29fea4	0.010375652
113	0xbd8a0bd2	-0.06740536
114	0xbd93b967	-0.07213097
115	0x3d1fde4e	0.039030366
116	0xbde1f430	-0.11032903
117	0xbd90923d	-0.07059143
118	0x3c9614b1	0.018320413
119	0x3daf47e9	0.08558638
120	0x3ca49dd7	0.020094795
121	0x3d89943c	0.067177266
122	0x3cf98f43	0.03046382
123	0x3dbd8bb8	0.09255165
124	0x3d84d064	0.0648506
125	0xbce06f3a	-0.027396787
126	0xbe01ba2a	-0.12668672
127	0xbb9a78fc	-0.0047141295
128	0xbb329802	-0.0027251248
129	0xbd6e2441	-0.058140043
130	0xbc00148a	-0.007817397
131	0x3db03a80	0.08604908
132	0x3bdd9d16	0.006763111
133	0xbd99f553	-0.07517495
134	0xbda12429	-0.07868225
135	0xbc30da7d	-0.010794279
136	0x3d89c999	0.06727905
137	0xbd2145db	-0.03937326
138	0x3c51ae97	0.012797973
139	0xbd437c6a	-0.047726072
140	0xbdb3f9bf	-0.0878787
141	0x3db53534	0.08848038
142	0xbd8f39da	-0.06993456
143	0xbcac1361	-0.021005334
144	0xbcbb4904	-0.022861965
145	0xbd2ec028	-0.042663723
146	0x3c233dac	0.009963434
147	0x3d95eb09	0.0732022
148	0x3d7d0400	0.061771393
149	0xbd22b1c0	-0.039720297
150	0xbd3060ee	-0.04306119
151	0x3bdfa86c	0.0068254974
152	0x3d705cbc	0.05868219
153	0xbd808b2a	-0.062765434
154	0xbd01bd70	-0.031674802
155	0x3d658e06	0.056043647
156	0xbde66194	-0.1124908
157	0x3bb165d1	0.005413749
158	0xbd96e7a1	-0.073683985
159	0x3cca40a8	0.024689034
160	0x3b004260	0.0019570813
161	0xbd5a942b	-0.05336396
162	0x3d7ceb34	0.061747745
163	0xbd37f727	-0.044913437
164	0xbbb9b979	-0.005667862
165	0xbd4fe1b9	-0.050752375
166	0x3cdad2f3	0.026711917
167	0xbd8e9f9d	-0.069640376
168	0x3c96e697	0.0184205
169	0x3d9bd7cf	0.076095216
170	0x3cdce9d4	0.026966967
171	0x3d1b70c9	0.037949357
172	0xbd54b0b7	-0.05192634
173	0xbcdc3f70	-0.026885718
174	0x3c46d163	0.012134883
175	0x3baee6cf	0.005337573
176	0xbdfd895f	-0.12379717
177	0xbcc22aea	-0.023702104
178	0xbc55bdd0	-0.013045743
179	0x3db40438	0.08789867
180	0xbd77b2cb	-0.060473245
181	0xbde3872b	-0.111097656
182	0xb8ccc414	-9.7640004e-05
183	0x3b44c867	0.0030026676
184	0xbc3a399d	-0.011366275
185	0x3db0af67	0.08627205
186	0x3cec9c95	0.028883258
187	0xbd4a83a9	-0.049441967
188	0xbd8a86da	-0.06764002
189	0xbcc6b0fd	-0.024254316
190	0xbda6c491	-0.08142961
191	0xbc0b3510	-0.008496538
192	0x3c485c30	0.01222901
193	0xbd065b1a	-0.032801725
194	0x3d9ca447	0.07648521
195	0x3d78b4c2	0.06071926
196	0x3dbde7e1	0.09272743
197	0x3c8ba39b	0.017045787
198	0x3d7fbd9f	0.062436696
199	0xbda0d838	-0.078537405
200	0xbdb6926d	-0.08914647
201	0xbd94e2b0	-0.072698
202	0xbd7560f0	-0.0599069
203	0xbddc9f0c	-0.10772523
204	0xbdae5d7f	-0.08513927
205	0x3cbb05ed	0.022829974
206	0xbdbe3657	-0.09287708
207	0x3da676c2	0.0812812
208	0xbd536c78	-0.051617116
209	0x3d80c80c	0.06288156
210	0xbdfeb1b7	-0.1243624
211	0xbde9fb9e	-0.11424945
212	0xbdfd0d87	-0.12356096
213	0xbdfe9358	-0.12430447
214	0x3de03aae	0.10948692
215	0x3dd5669b	0.10419961
216	0xbd6133ef	-0.05498117
217	0x3c45599d	0.012045291
218	0xbc971d49	-0.018446581
219	0x3dd7347b	0.10508057
220	0xbd21aef5	-0.039473493
221	0xbc25373b	-0.010083969
222	0x3de27e48	0.110592425
223	0xbbaed020	-0.005334869
224	0x3d7e85bb	0.062139254
225	0xbcbe56ad	-0.02323469
226	0x3d3fecab	0.046856564
227	0x3dcddbfa	0.10051723
228	0x3e0c0393	0.13673238
229	0x3c65a753	0.014016944
230	0xbcc9f78f	-0.024654178
231	0x3d5992ad	0.053118397
232	0x3e263330	0.16230464
233	0x3bb7b0a0	0.005605772
234	0x3dfb767b	0.12278458
235	0xbde6a924	-0.1126273
236	0xbc5d218e	-0.01349677
237	0xbd38f686	-0.045156978
238	0xbdeaa80c	-0.11457834
239	0x3b42e816	0.0029740385
240	0x3deaa653	0.11457505
241	0xbe0f7dd3	-0.14012842
242	0xbd683ee8	-0.056700617
243	0x3dab4716	0.08363168
244	0xbc1f6453	-0.009728509
245	0x3db72ca3	0.08944061
246	0xbd29daa1	-0.041468266
247	0xbd0278a7	-0.031853344
248	0xbde7ceca	-0.11318739
249	0x3d8ff2fb	0.07028767
250	0x3dafd3ee	0.08585344
251	0xbd4f3daa	-0.050595917
252	0xbc03a68c	-0.008035313
253	0xbdf7d55e	-0.121012434
254	0xbe1554bf	-0.1458311
255	0x3d35ac25	0.044353623

arith.constant4 f4 [64, 64]
0	0xbd07566c	-0.033041403
1	0x3c8afc22	0.01696593
2	0x3d953614	0.07285705
3	0x3df8cfd5	0.12149016
4	0x3da28591	0.07935632
5	0xbd8fed36	-0.07027666
6	0xbc089c7e	-0.008338092
7	0xbb80b066	-0.0039272783
8	0xbdb1e6cd	-0.086866
9	0x3dc11c02	0.0942917
10	0xbd11970e	-0.035544448
11	0x3d189a8b	0.03725676
12	0x3dbba7e0	0.09162879
13	0x3d940238	0.07226986
14	0x3d8805ed	0.06641755
15	0x3dce4562	0.100718275
16	0x3b720c0f	0.0036933457
17	0x3dd82984	0.105547935
18	0xbd092ae1	-0.033488158
19	0xbb436b11	-0.0029818455
20	0xbd8f2671	-0.06989754
21	0xbb4fd68b	-0.003171357
22	0x3e1dfdfe	0.15428922
23	0x3c5382e3	0.012909624
24	0xbe24ab88	-0.16081059
25	0xbdbf3b3c	-0.0933747
26	0x3aeda376	0.001813038
27	0x3c23d41c	0.009999301
28	0x3dd6f9ab	0.10496839
29	0xbdbd1ba1	-0.092337854
30	0x3d30ac2f	0.043132957
31	0x3db479fa	0.08812328
32	0xbd5066d7	-0.050879326
33	0x3d055fea	0.032562174
34	0x3db9cd23	0.0907233
35	0xbd876a13	-0.06612029
36	0xbd811ecc	-0.06304702
37	0x3b8879d3	0.004164913
38	0x3d9cb4de	0.07651685
39	0xbdc270dc	-0.094941825
40	0x3be84347	0.007088098
41	0x3cadc45f	0.021211801
42	0xbda804cb	-0.08204039
43	0xbd1c272c	-0.038123295
44	0x3df5e3e7	0.120063595
45	0xbd71c3a4	-0.059024468
46	0x3d29e8c4	0.04148175
47	0x3a80c333	0.0009823799
48	0xbd9b16e2	-0.07572724
49	0xbd8abde3	-0.06774499
50	0xbd3c340b	-0.04594807
51	0x3d81faa1	0.06346632
52	0xbd03aa11	-0.03214461
53	0x3d10b6a3	0.035330426
54	0xbccf4bd3	-0.02530471
55	0xbd8cc17f	-0.06872844
56	0xbd941d28	-0.072321236
57	0x3bca52d6	0.0061744256
58	0x3d8425bf	0.06452512
59	0xbdbb632c	-0.09149775
60	0x3e121103	0.14264302
61	0xbd84c703	-0.06483271
62	0xbdfce988	-0.1234923
63	0xbd1ea725	-0.03873362
64	0x3b1454a9	0.002263347
65	0x3d4801df	0.04882991
66	0xbc1ac69a	-0.009446764
67	0x3c97fb90	0.018552572
68	0x3d03c7b0	0.03217286
69	0x3d58c565	0.052922625
70	0x3e08cfe0	0.13360548
71	0xbd8a147b	-0.067421876
72	0xbe05aa1c	-0.13053173
73	0xbdd0d973	-0.10197725
74	0xbd88ab2e	-0.06673275
75	0x3d2eeab5	0.042704303
76	0xbd2c1483	-0.04201175
77	0xbc1790e1	-0.00925085
78	0xbd739171	-0.059464876
79	0xbc5b164d	-0.013372016
80	0x3d21e237	0.039522376
81	0x3cead360	0.028665245
82	0xbdab9f3e	-0.083799824
83	0xbd37c706	-0.044867538
84	0xbb99e431	-0.004696392
85	0xbcd7ca36	-0.026341539
86	0xbdcd597a	-0.10026832
87	0x3db4e28a	0.088322714
88	0xbbb3ca26	-0.0054867445
89	0xbda4a48d	-0.08039198
90	0x3ce66eca	0.028129
91	0xbd844928	-0.06459266
92	0xbd8b0f61	-0.06790043
93	0xbcd492d8	-0.025948927
94	0x3db14779	0.086562105
95	0x3d872158	0.06598157
96	0x3c8b5f56	0.017013233
97	0x3dc2a33d	0.095037915
98	0x3d935bf1	0.07195271
99	0x3d1e8456	0.038700424
100	0x3d823489	0.063576765
101	0x3d740d00	0.05958271
102	0xbc91849e	-0.017763432
103	0xbd935276	-0.071934626
104	0xbb115f7f	-0.0022182164
105	0xbda66fe2	-0.08126809
106	0xbc3d0953	-0.011537868
107	0x3de07394	0.10959545
108	0x3bbac5a3	0.0056998297
109	0xbd73d962	-0.059533484
110	0x3db8ed47	0.09029632
111	0x3b217296	0.002463495
112	0x3d01fac9	0.031733308
113	0x3d46765a	0.048452713
114	0xbdd308a1	-0.1030438
115	0xbd656046	-0.056000017
116	0x3db3b5cd	0.0877491
117	0x3dafc428	0.08582336
118	0xbdceccd9	-0.10097665
119	0x3d479565	0.048726458
120	0xbc801735	-0.015636066
121	0x3e0316dc	0.12801689
122	0x3d45c87d	0.048286904
123	0x3d5f5402	0.054523475
124	0xbc0a0feb	-0.008426647
125	0xbd93fb0a	-0.07225616
126	0x3d2b5bbf	0.041835543
127	0xbd83e487	-0.064400725
128	0xbc1a1355	-0.009404023
129	0xbd642bff	-0.05570602
130	0xbddb3492	-0.10703386
131	0xbdb03efb	-0.086057626
132	0xbdce928b	-0.100865446
133	0xba44d921	-0.00075091614
134	0x3dd0e399	0.10199661
135	0xbcbec3e4	-0.023286767
136	0xbd7f35b8	-0.06230709
137	0x3d78853f	0.06067395
138	0x3da8e751	0.08247245
139	0xbd2da3b6	-0.042392455
140	0xbd329635	-0.04360028
141	0xbccbf38b	-0.024896404
142	0x3d8c9e33	0.068661116
143	0xbd9df3a8	-0.07712489
144	0x3d146b34	0.03623505
145	0x3c4b2da6	0.01240102
146	0x3de73350	0.11289084
147	0xbdbd81df	-0.092532866
148	0x3de1a204	0.1101723
149	0x3dee542c	0.11637148
150	0x3c2d83f0	0.010590538
151	0x3a8ef8fa	0.0010907941
152	0xbcaa744c	-0.020807408
153	0xbdb089c4	-0.08620027
154	0xbd04edac	-0.032453224
155	0x3bb2e791	0.005459734
156	0x3e1214cb	0.14265744
157	0xbd9989a8	-0.07496959
158	0xbd5ce2b8	-0.053927153
159	0xbdcbfb9e	-0.099601015
160	0x3d475438	0.0486643
161	0x3e01aeee	0.12664387
162	0xbcdac09c	-0.026703171
163	0xbd92945d	-0.07157204
164	0xbcb12853	-0.021625673
165	0x3b626949	0.0034547618
166	0x3da2e9dc	0.079547614
167	0x3db85149	0.08999879
168	0xbdf92030	-0.121643424
169	0xbdeb2f94	-0.11483684
170	0xbd58522c	-0.05281274
171	0x3d57097f	0.05249929
172	0xbd1aeb7d	-0.037822235
173	0xbca98377	-0.02069257
174	0xbcb25dcf	-0.021773247
175	0xbc895b0b	-0.016767045
176	0x3d4ee328	0.0505096
177	0xbd42c9b2	-0.047555633
178	0x3d63545a	0.055500366
179	0x3c650af0	0.0139796585
180	0xbd56e77a	-0.052466847
181	0xbcf3740c	-0.029718421
182	0xbd942025	-0.072326936
183	0x3cb991a7	0.02265246
184	0xbd9d9423	-0.076942705
185	0x3c383a30	0.011244342
186	0x3ccd0cc6	0.025030505
187	0x3d1b31fd	0.03788947
188	0xbba68c71	-0.00508266
189	0x3dc819a9	0.09770519
190	0x3d71a880	0.058998585
191	0x3ddbdef8	0.10735887
192	0xbd2bf4e6	-0.0419816
193	0x3cfa7451	0.030573042
194	0xbe0b7f90	-0.1362288
195	0xbbada355	-0.0052990117
196	0xbdad536a	-0.084631756
197	0x3dbff874	0.093735605
198	0xbd5c4f5c	-0.05378662
199	0x3e45565d	0.19271226
200	0xbd491154	-0.04908879
201	0xbddd9560	-0.10819507
202	0x3b4f0b1e	0.003159232
203	0x3dce94a7	0.10086947
204	0x3d8bd303	0.06827357
205	0x3d8951be	0.06705044
206	0xbd3df404	-0.04637529
207	0xbd2b42f1	-0.041811887
208	0xbcc0b598	-0.02352409
209	0xbddbdd2c	-0.107355446
210	0x3db972de	0.09055112
211	0x3cd519c1	0.026013257
212	0x3e0ad182	0.13556483
213	0x3e16ffc6	0.14746007
214	0xbe107438	-0.14106834
215	0xbe05b4e2	-0.13057283
216	0x3cde1d1a	0.027113486
217	0xbe0e1d4b	-0.13878362
218	0xbd496c84	-0.049175754
219	0x3d46e5f2	0.048559137
220	0x3d99d2e9	0.07510931
221	0xbc2301c2	-0.00994915
222	0xbd86b5f2	-0.06577672
223	0xbb7ab959	-0.0038257448
224	0x3d845276	0.06461041
225	0x3bed57d7	0.0072431373
226	0x3dd76aa1	0.10518385
227	0xbd60c881	-0.054878715
228	0xbd63d29c	-0.055620775
229	0x3dbaa6b4	0.09113827
230	0x3c87992c	0.01655253
231	0xbd3b057a	-0.04565952
232	0xbe0a239e	-0.1349015
233	0x3dfcf030	0.123505
234	0xbd735e25	-0.059415955
235	0x3d431cee	0.04763501
236	0xbe0a27f3	-0.13491802
237	0xbdb09658	-0.08622426
238	0xbdb25eea	-0.0870951
239	0x3df03a34	0.11729851
240	0x3c510851	0.01275833
241	0xbd44f0c3	-0.04808117
242	0xbd827c86	-0.06371407
243	0xbd131353	-0.0359071
244	0xbda53008	-0.08065802
245	0x3d980240	0.07422304
246	0xbd19445f	-0.03741872
247	0xbdfef6b3	-0.12449398
248	0x3e0a9d1c	0.13536495
249	0xbdcec9f5	-0.10097114
250	0xbde0aa98	-0.10970038
251	0x3d017530	0.0316059
252	0x3b4b670c	0.0031036763
253	0xbdbccb72	-0.092184916
254	0x3d408b8e	0.04700809
255	0x3db1157b	0.08646675

arith.constant5 f4 [64]
0	0x3e16fa8c	0.14744014
1	0x3e1d7f5a	0.15380612
2	0x3d12cf91	0.035842482
3	0x3cc604f8	0.024172291
4	0xbe36d6ca	-0.17855373
5	0x3dd3c85e	0.103409514
6	0x3dfcbd72	0.12340821
7	0x3e5ecba2	0.21757367
8	0xbe2459b9	-0.16049851
9	0x3def0800	0.11671448
10	0x3d2b7fc5	0.041869897
11	0x3c2e391e	0.010633735
12	0xbe2f2bc2	-0.17106536
13	0x3e48fd61	0.19627906
14	0xbd296ab8	-0.04136154
15	0xbcf1e2f0	-0.029527158
16	0x3dbbf447	0.091774516
17	0x3d866620	0.065624475
18	0x3d368500	0.044560432
19	0x3e10c327	0.14136945
20	0xbd9badca	-0.07601507
21	0x3dc90788	0.098158896
22	0x3e3b83c6	0.18311986
23	0x3d691b4f	0.05691081
24	0x3cf3c110	0.029755145
25	0xbbc98290	-0.0061495975
26	0x3db7c501	0.089731224
27	0x3bc93a90	0.0061410144
28	0x3e151a82	0.14560893
29	0xbca86708	-0.020556942
30	0xbcf231ce	-0.029564764
31	0x3dede981	0.11616803
32	0xbe180aac	-0.14847821
33	0xbe39950c	-0.18123263
34	0xbd43a51a	-0.047764875
35	0x3dc9754f	0.09836828
36	0x3e6fdfb4	0.2342518
37	0x3dcf6ed1	0.101285584
38	0x3dfadf0f	0.12249576
39	0x3d2ba461	0.04190481
40	0xbc876060	-0.016525447
41	0xbce48e2d	-0.027899826
42	0x3dbf15c2	0.09330322
43	0x3c87aa00	0.016560555
44	0x3aad7e20	0.0013236441
45	0x3bfc90ab	0.0077076755
46	0xbc7aa260	-0.015297502
47	0x3e085fa6	0.13317737
48	0x3d6bc0c6	0.05755689
49	0xbcd40fe0	-0.025886476
50	0xbe2e6eb6	-0.1703442
51	0x3aaa6380	0.0012999624
52	0xbd062e86	-0.032759212
53	0x3dce60b1	0.10077036
54	0xbc7fe00c	-0.015617382
55	0x3e2495b8	0.16072738
56	0x3da37a20	0.07982278
57	0xbd62f09c	-0.055405244
58	0xbd8fb55e	-0.07017015
59	0xbd3aa3e7	-0.045566466
60	0x3dd6fc8a	0.10497387
61	0x3e25e08a	0.16198936
62	0x3d3d15a2	0.04616321
63	0xbddade4f	-0.10686933

arith.constant6 f4 [64]
0	0xbaac6340	-0.0013152137
1	0x3e1ad1dd	0.15119119
2	0xbd17c308	-0.03705123
3	0x3df99f56	0.12188594
4	0xbdd0a4b8	-0.101876676
5	0x3e94f5d0	0.2909379
6	0x3e962a54	0.2932917
7	0x3dc4b2e4	0.09604433
8	0x3d7b486f	0.061348375
9	0xbbe84b30	-0.007089041
10	0xbcb4bf7a	-0.02206396
11	0x3d91ad8f	0.07113182
12	0x3e5fb45c	0.21846145
13	0x3e408832	0.18801954
14	0xbdc1bc00	-0.09459686
15	0xbda63782	-0.08116056
16	0x3e3dbda3	0.18529372
17	0x3e2a31c4	0.16620547
18	0x3d1be428	0.038059384
19	0x3db01f0c	0.08599672
20	0x3dce1afb	0.1006374
21	0xbe2598fe	-0.16171643
22	0xbdca4334	-0.09876099
23	0xbe305b1e	-0.17222258
24	0x3dbf9c38	0.09355968
25	0xbd05e06b	-0.032684725
26	0x3c3f1834	0.011663485
27	0xbdce0f86	-0.100615546
28	0x3dea0d2b	0.11428293
29	0x3db5e12c	0.08880839
30	0xbd607418	-0.054798216
31	0x3de850e4	0.11343554
32	0xbd2064d9	-0.039158676
33	0x3e3d00e7	0.18457375
34	0xbd8a5e93	-0.0675632
35	0x3de3d6c6	0.11124949
36	0x3d8382dd	0.064214446
37	0xbd88b8ff	-0.0667591
38	0x3decb458	0.11557835
39	0x3da040a9	0.07824833
40	0xbd193aa0	-0.037409425
41	0x3c3d0c87	0.011538631
42	0x3d9ce8a6	0.07661562
43	0x3d2e7e09	0.042600665
44	0x3e40ff6a	0.18847433
45	0x3e4b9477	0.19880854
46	0xbc20e56c	-0.009820323
47	0x3e0c4f00	0.13702011
48	0xbe2d1662	-0.1690307
49	0x3dbc2835	0.091873564
50	0x3cbb86e7	0.022891475
51	0x3d121804	0.035667434
52	0x3d9ffcee	0.078119144
53	0x3d55e88f	0.05222374
54	0x3cb843f8	0.022493348
55	0x3d014b91	0.031566206
56	0x3d758650	0.059942544
57	0x3e0585e4	0.13039356
58	0x3d2eb9ff	0.04265785
59	0x3cc392da	0.023873735
60	0x3dc8b671	0.09800423
61	0xbcec1963	-0.0288207
62	0x3db9fd59	0.09081525
63	0x3e0b239b	0.13587801

arith.constant7 f4 [64]
0	0xbcb36576	-0.021898966
1	0x3b0e49e0	0.0021711513
2	0xbe78b3c1	-0.2428732
3	0x3e1d97d9	0.15389957
4	0xbe2406ec	-0.16018265
5	0x3e20101e	0.15631148
6	0xbdc4fd8e	-0.09618674
7	0x3d1ed516	0.038777433
8	0x3da0722e	0.07834278
9	0x3d92335b	0.071387015
10	0x3e228f9e	0.15875098
11	0x3d8c7a2c	0.0685924
12	0xbd9e316e	-0.07724272
13	0xbd0b63d0	-0.034030735
14	0x3dcd9700	0.100385666
15	0x3cdb706e	0.02678701
16	0xbd39e3b6	-0.045383178
17	0xbe179244	-0.1480189
18	0xbc82c2e8	-0.01596208
19	0xbdfe6076	-0.12420742
20	0x3d6fcb92	0.05854375
21	0xbe45e71c	-0.19326442
22	0x3e435dae	0.19078705
23	0xbd102e20	-0.03520024
24	0x3c86df70	0.016463965
25	0xbe184de4	-0.14873463
26	0x3d0a81bf	0.03381514
27	0x3e555598	0.20833433
28	0xbdcfdc4f	-0.101494424
29	0xbe6761ac	-0.22595853
30	0xbd35378f	-0.044242438
31	0xbe0893dd	-0.13337655
32	0x3a78c500	0.00094898045
33	0xbda69b64	-0.08135107
34	0xbd8e4dd4	-0.06948438
35	0x3e491de0	0.19640303
36	0xbd56fbdc	-0.052486286
37	0x3d80ed5a	0.06295271
38	0xbe1275f1	-0.14302804
39	0x3db36445	0.08759359
40	0x3e1bb4cc	0.15205687
41	0xbe116757	-0.14199577
42	0x3e6fdb28	0.23423445
43	0x3d27d0ec	0.040970728
44	0x3e187d9a	0.14891663
45	0x3bdb0b18	0.006684672
46	0xbe264b59	-0.1623968
47	0x3da88444	0.08228353
48	0x3b4d47a0	0.003132321
49	0xbe830a54	-0.25593817
50	0xbe14ca24	-0.14530236
51	0x3e1e9e38	0.15490043
52	0x3d8049cc	0.06264076
53	0xbcd7c5f8	-0.026339516
54	0x3d8b75c3	0.06809571
55	0x3dfa2476	0.122139856
56	0xbb9b7330	-0.004743956
57	0xbd69479a	-0.05695305
58	0xbccde75a	-0.025134731
59	0xbd721bce	-0.059108548
60	0xbd5d90ff	-0.054093357
61	0xbdedbaff	-0.11607932
62	0xbddaabaf	-0.10677277
63	0x3e2d610a	0.16931549

arith.constant8 f4 [64]
0	0xbccbbc78	-0.024870142
1	0xbd93bbb8	-0.07213539
2	0xbd66ad0b	-0.05631737
3	0xbdb92e8e	-0.09042083
4	0xbc0e63d8	-0.008690797
5	0xbc2709d4	-0.010195214
6	0x3de6dcf4	0.11272612
7	0x3e3672fa	0.17817298
8	0x3d078ce0	0.033093333
9	0x3d14b61e	0.036306493
10	0x3ca61920	0.020275652
11	0xbd234973	-0.03986497
12	0x3db83de7	0.08996182
13	0x3d400e06	0.046888374
14	0xbe2bd72b	-0.16781299
15	0x3e1d627f	0.15369605
16	0x3e546746	0.2074252
17	0xbcab62cf	-0.020921139
18	0x3cfe666d	0.0310547
19	0x3d7cb23e	0.061693422
20	0x3c2a0502	0.0103771705
21	0x3e13faf2	0.14451197
22	0x3c668270	0.014069185
23	0xbcbb887a	-0.022892226
24	0x3e07a2e8	0.13245738
25	0xbdd6b658	-0.10483998
26	0x3e2e4da4	0.17021805
27	0xbb70df40	-0.003675416
28	0x3d1bc8be	0.03803324
29	0x3d123790	0.03569752
30	0xbdbd70ec	-0.09250054
31	0x3e559bfa	0.20860282
32	0xbdfcc4e1	-0.12342239
33	0x3da9ef3f	0.08297586
34	0x3ccd2be0	0.025045335
35	0x3db9d212	0.09073271
36	0x3dbfcbce	0.093650445
37	0x3d8eef92	0.06979288
38	0x3c2aa79c	0.010415938
39	0xbdd75183	-0.10513594
40	0x3e4be92b	0.19913165
41	0x3e4a7e5d	0.19774766
42	0x3dc097be	0.094039425
43	0x3d570df5	0.052503545
44	0xbdca039d	-0.098639704
45	0x3dc215c2	0.09476806
46	0x3cc0dcd2	0.023542795
47	0x3c65f192	0.014034646
48	0xbd01448e	-0.03155952
49	0x3e0d5eeb	0.1380574
50	0x3d84f571	0.06492127
51	0xbdd5157c	-0.104044884
52	0xbc9c0679	-0.019046055
53	0x3d4ed16e	0.050492696
54	0x3d14fc3e	0.03637337
55	0xbd97e5ce	-0.07416879
56	0x3e807900	0.25092316
57	0xbc9d940a	-0.01923563
58	0x3d5213d8	0.051288456
59	0xbdc3ea51	-0.09566177
60	0x3e5338fb	0.20627205
61	0xbccd9d10	-0.025099307
62	0x3eac2510	0.33622026
63	0xbd05f5fe	-0.0327053

arith.constant9 f4 [64, 99]
0	0xbb4339e5	-0.0029789147
1	0x3d447cdc	0.047970638
2	0xbc94cf09	-0.018165128
3	0xbb873eda	-0.0041273655
4	0xbd1b6392	-0.037936755
5	0xbd1252b5	-0.035723407
6	0xbb290dd4	-0.0025795596
7	0xbddc6476	-0.10761349
8	0x3d3b8714	0.045783117
9	0xbbd63776	-0.006537373
10	0xbdafc201	-0.08581925
11	0x3d6abc26	0.05730834
12	0xbbe5cb7c	-0.0070127826
13	0xbd90f2e2	-0.07077576
14	0xbd707362	-0.058703788
15	0x39a09d3d	0.0003063473
16	0x3cf9982f	0.030468075
17	0x3ce509f2	0.027958844
18	0xbb01f120	-0.001982756
19	0xbd391f85	-0.045196075
20	0x3ca3f0a8	0.020012215
21	0x3ce5663c	0.02800285
22	0xbd962560	-0.073313475
23	0xbce95b81	-0.028486015
24	0x3cce3a5b	0.02517431
25	0x3d89150e	0.06693469
26	0xbd19e29c	-0.037569627
27	0xbba5d2cb	-0.005060529
28	0xbdaa48f7	-0.08314698
29	0x3d2ea267	0.042635348
30	0xbb4bed2a	-0.0031116703
31	0xbceb3688	-0.028712526
32	0xbd59c8d7	-0.05317005
33	0xbd680781	-0.05664778
34	0xbd3bde84	-0.045866504
35	0xbd13ef35	-0.036116797
36	0xbd3d7ed2	-0.046263523
37	0x3d9c3c58	0.07628697
38	0xbd30afe0	-0.043136477
39	0xbd9708dd	-0.073747374
40	0x3c270efc	0.010196444
41	0x3bd37045	0.0064525926
42	0xbc886b39	-0.01665269
43	0xbdc35386	-0.09537415
44	0xbce1f0c1	-0.02758062
45	0x3d428c70	0.047497213
46	0x3e0b7935	0.13620456
47	0x3d364995	0.044503767
48	0xbdb2d1f7	-0.08731454
49	0x3d934022	0.07189967
50	0xbda7d267	-0.08194428
51	0xbccf6c57	-0.025320215
52	0xbcf3b709	-0.029750364
53	0xbd5cc372	-0.05389733
54	0x3d89bf2f	0.067259185
55	0xbdb74b02	-0.089498535
56	0xbce81a69	-0.028332906
57	0x3d788a94	0.060679033
58	0x3c541393	0.01294412
59	0x3d8bd959	0.06828565
60	0x3cd3358d	0.025782371
61	0xbd9d0d11	-0.07668508
62	0xbd854983	-0.06508162
63	0xb945b4f9	-0.00018854802
64	0x3c3513a8	0.01105205
65	0x3be56f20	0.0070017725
66	0xbd2c6848	-0.042091638
67	0xbd8f9dc1	-0.07012511
68	0x3db76c13	0.089561604
69	0x3cc00bc7	0.023443116
70	0xba763133	-0.00093914865
71	0xba03fac3	-0.000503462
72	0x3d81d3df	0.06339239
73	0x3a99d0b9	0.0011735178
74	0x3a1726ca	0.0005765973
75	0x3c9b2313	0.018937623
76	0x3daba53d	0.08381126
77	0x3c9ff5af	0.01952633
78	0xbcf8fcaf	-0.030393926
79	0x3d6a8d12	0.05726344
80	0xbc2e7f8a	-0.010650525
81	0x3d917c95	0.0710384
82	0x3c95d382	0.018289331
83	0xbc145282	-0.0090528745
84	0xbcb68bb9	-0.022283422
85	0xbbb0f44b	-0.0054002157
86	0xbd233ebc	-0.03985475
87	0xbd81e411	-0.06342328
88	0x3c905b55	0.017621676
89	0xbd14fabc	-0.03637193
90	0x3d5b39e8	0.05352202
91	0xbcf97732	-0.030452345
92	0x3d030e15	0.03199585
93	0x3a3a8a96	0.0007115988
94	0x3cb35d86	0.021895181
95	0xbca23173	-0.01979897
96	0xbc84bc43	-0.016203051
97	0x3dd40d64	0.103541166
98	0xbccbac8f	-0.024862556
99	0xbcb5b5f5	-0.02218149
100	0xbe06562e	-0.13118812
101	0xbcf4aa89	-0.029866474
102	0x3c5064d5	0.012719353
103	0xbc3f55b2	-0.011678146
104	0xbd058c25	-0.032604355
105	0x3cf79f1e	0.03022724
106	0xbdd7e463	-0.10541608
107	0xbc8683b7	-0.016420228
108	0x3cdc4d06	0.026892196
109	0x3dba0bbb	0.09084269
110	0xbd834228	-0.06409103
111	0xbc0fe402	-0.008782389
112	0x3dc0eab9	0.0941977
113	0x3d955277	0.072911195
114	0xbcc5def0	-0.024154156
115	0x3da63176	0.08114903
116	0xbc9f2c90	-0.019430429
117	0x3aea9c47	0.0017899357
118	0xbd7436b0	-0.059622467
119	0xbdab6ed2	-0.08370747
120	0xbb325db6	-0.00272165
121	0x3db3a2b0	0.087712646
122	0x39c31b4c	0.00037213636
123	0xbcf69109	-0.030098455
124	0x3d160296	0.03662356
125	0x3ce1af03	0.027549272
126	0x3cc52d19	0.024069356
127	0xbdfaec0d	-0.12252054
128	0x3d5ab434	0.05339451
129	0xbca4fedb	-0.020141056
130	0x3dccd8dd	0.10002301
131	0xbd6d750d	-0.057972956
132	0xbcdd695a	-0.027027775
133	0xbca5d59e	-0.020243462
134	0xbd984175	-0.0743436
135	0x3d321232	0.043474384
136	0x3cf8d3d6	0.030374449
137	0xbd86f86d	-0.06590352
138	0x3df84e0a	0.1212426
139	0x3d41302e	0.04716509
140	0xbd8c6440	-0.06855059
141	0xbdb0cfaa	-0.08633359
142	0xbd1249e4	-0.035715
143	0xbdec582b	-0.11540254
144	0x3ce1bbb3	0.027555322
145	0xbe120500	-0.1425972
146	0x3cbfd826	0.023418497
147	0x3d7e0d8e	0.062024646
148	0x3b8ee782	0.004361094
149	0xbcfe096a	-0.031010348
150	0x3dc18fe4	0.09451273
151	0xbc10c4d0	-0.008835986
152	0xbc55382a	-0.013013879
153	0x3d65bbaf	0.056087192
154	0xbe178c0c	-0.14799517
155	0x3b26e568	0.0025466327
156	0x3dae2450	0.0850302
157	0xbdae1fb8	-0.085021436
158	0x3c9ccc1c	0.019140296
159	0xbdc410fc	-0.09573552
160	0xbb86a1b8	-0.004108634
161	0x3db37351	0.08762229
162	0x3d26ab1b	0.040690523
163	0x3cf158c2	0.029461268
164	0xbe292a0f	-0.1651995
165	0xbd859fa6	-0.06524591
166	0xbe1d62fe	-0.15369794
167	0x3d47d9a7	0.048791554
168	0x3d5ef5e7	0.05443373
169	0x3c708d88	0.014682181
170	0xbb52f7ab	-0.0032191079
171	0xbc87ea94	-0.016591348
172	0xbcb1322e	-0.021630373
173	0x3c054331	0.008133695
174	0x3d9148b6	0.07093947
175	0x3db97d51	0.09057105
176	0xbc954dab	-0.018225512
177	0xbbb30960	-0.005463764
178	0x3d0c7e2c	0.034300014
179	0x3b84be7e	0.0040510288
180	0x3d0cd204	0.034379974
181	0xbdad7e3b	-0.08471342
182	0x3cdb0929	0.026737766
183	0x3d260311	0.040530268
184	0xbd210da5	-0.039319653
185	0x3c755285	0.0149732875
186	0x3dbe636e	0.092963085
187	0x3df03016	0.11727922
188	0xbb4ccdee	-0.0031250673
189	0xbdb18d39	-0.08669514
190	0xbd6e28c8	-0.05814436
191	0xbcc4c6cf	-0.02402058
192	0xbd770b2b	-0.060313385
193	0x3e08b418	0.1334995
194	0xbd5a0dd5	-0.053235848
195	0xbd982ef4	-0.074308306
196	0xbdc7590a	-0.0973378
197	0xbd6b098d	-0.057382155
198	0x3b2f3e57	0.0026740038
199	0x3ce77b18	0.028256938
200	0x3c6c0d3d	0.014407453
201	0xbb85c79f	-0.0040826346
202	0x3dac64fa	0.08417697
203	0xbd3af322	-0.045642026
204	0x3c8612f5	0.016366461
205	0x3d55dac3	0.05221058
206	0xbdab0acf	-0.08351671
207	0x3cd54d96	0.026037972
208	0xbcdd8e46	-0.02704538
209	0x3d832d5d	0.06405137
210	0xbcf6eeec	-0.030143224
211	0xbd919008	-0.0710755
212	0xbc103d86	-0.008803731
213	0xbc61a0c3	-0.013771239
214	0x3d9d2473	0.07672968
215	0x3da82d33	0.08211746
216	0x3c99aa87	0.018758072
217	0x3c2caddf	0.010539501
218	0x3d87c4cd	0.06629334
219	0xbd3e13ec	-0.046405718
220	0xbde4337d	-0.11142633
221	0x3c889677	0.01667331
222	0x3d34bed9	0.04412732
223	0x3d256acc	0.040385053
224	0xbd09a611	-0.03360564
225	0xbc7de2a6	-0.015495932
226	0xbbeb5d2b	-0.0071827373
227	0x3d6690ef	0.056290563
228	0x3be407bc	0.00695893
229	0xbcfe167d	-0.031016583
230	0xbddc471b	-0.1075575
231	0x3d8c1ae5	0.06841067
232	0xbe07dd7e	-0.13268086
233	0xbc879cd8	-0.016554281
234	0xbcdffea4	-0.027343102
235	0xbde75b13	-0.11296668
236	0x3c989b19	0.018628644
237	0x3d84792a	0.06468423
238	0x3ca36b62	0.019948665
239	0x3c9ed613	0.019389188
240	0xbd74f12c	-0.059800312
241	0xbd31fceb	-0.043454092
242	0xbcb122d9	-0.021623062
243	0x39f0c57e	0.0004592351
244	0xbd48b441	-0.04900003
245	0xbcaf067b	-0.021365395
246	0x3cef97e6	0.029247236
247	0xbdfb84c7	-0.12281185
248	0x3bf39f06	0.0074347286
249	0x3d86712f	0.06564557
250	0xbdad9616	-0.08475892
251	0x3d551aaa	0.052027382
252	0x3db6b20e	0.0892068
253	0xbda2727f	-0.07931995
254	0xbd4b563a	-0.04964278
255	0x3e07fff8	0.13281238

arith.constant10 f4 [64, 99]
0	0xbbddf67c	-0.006773768
1	0x3ca0c668	0.019625857
2	0xbd73a940	-0.05948758
3	0xbc6e9aa9	-0.014563241
4	0xbdb7485a	-0.08949347
5	0xbddabbae	-0.10680328
6	0xbc39abfb	-0.011332507
7	0x3ddc73c2	0.107642666
8	0xbda8706c	-0.08224568
9	0x3b5f94e0	0.0034115836
10	0x3d95d850	0.07316649
11	0xbdbb503c	-0.09146163
12	0x3c6c636a	0.014427999
13	0x3d6fc349	0.058535848
14	0x3cd81bdc	0.026380472
15	0x3b802c87	0.003911558
16	0xbda74fac	-0.08169493
17	0xbda55421	-0.08072687
18	0xbc434f26	-0.011920726
19	0xbdd4feaf	-0.104001395
20	0x3d56df1c	0.052458867
21	0x3abfdec1	0.0014638529
22	0x3d32ea43	0.04368044
23	0xbbcaf08d	-0.0061932267
24	0xbcdd0cc5	-0.026983628
25	0x3de42dd8	0.111415565
26	0xbd996c89	-0.074914046
27	0xbd00d785	-0.031455535
28	0xbd115540	-0.03548169
29	0xbc49bb11	-0.0123126665
30	0x3baa0a6f	0.005189232
31	0xbcb2b556	-0.021814983
32	0xbca90e4f	-0.020636706
33	0x3d55786d	0.0521168
34	0x3d9c4322	0.07629992
35	0xbd09a8b2	-0.033608146
36	0x3d4a9cfb	0.049466114
37	0x3dc57c8a	0.096428946
38	0xbd21bce3	-0.039486777
39	0xbb437c50	-0.0029828735
40	0xbd95f39b	-0.07321855
41	0x3d4a4181	0.049378876
42	0x3ce03185	0.027367363
43	0x3dcc45c8	0.09974247
44	0x3be51c81	0.0069919233
45	0xbda3db6a	-0.08000834
46	0x3de31d1d	0.11089537
47	0x3d9a190d	0.07524309
48	0xbcaac515	-0.02084593
49	0x3ddcc021	0.10778833
50	0x3da48f94	0.08035198
51	0xbc3ca900	-0.011514902
52	0x3d680c28	0.056652218
53	0xbd448a88	-0.047983676
54	0x3d013eb0	0.031553924
55	0x3df07eef	0.11742961
56	0xbd897bb7	-0.0671305
57	0x3d59d039	0.053177092
58	0xbd2fddef	-0.04293626
59	0x3b41df3e	0.0029582526
60	0x3d433cfe	0.04766559
61	0xbd954a69	-0.07289583
62	0xbcd1f62f	-0.025630085
63	0xbcde1411	-0.027109178
64	0x3da19555	0.07889811
65	0xbbd070fd	-0.0063611255
66	0x3ccb141b	0.02478986
67	0x3df4d585	0.11954788
68	0xbc92a5ac	-0.017901264
69	0xbd3007b0	-0.04297608
70	0xbb5fe859	-0.003416559
71	0xbac8d71e	-0.0015322899
72	0xbd0e8d34	-0.03480263
73	0x3b37cb6a	0.0028044828
74	0x3ad3956a	0.0016142551
75	0x3cedd586	0.02903248
76	0x3d173876	0.03691908
77	0x3c441c7a	0.01196968
78	0x3d85c580	0.06531811
79	0x3de47d00	0.11156654
80	0x3d1025e5	0.03519239
81	0xbbed72df	-0.0072463597
82	0x3d94a602	0.07258226
83	0xbbab9b03	-0.0052369847
84	0x3c8e8a4f	0.017399935
85	0x3d82dc4b	0.06389674
86	0xbc510ab7	-0.012758902
87	0x3d0ca8a2	0.03434051
88	0xb9f4190c	-0.00046557968
89	0x3cc73ffd	0.024322504
90	0xbc9fe954	-0.01952044
91	0x3d964959	0.07338209
92	0xbb6558cb	-0.0034995552
93	0xbdb90d58	-0.09035748
94	0xbc70c362	-0.01469502
95	0xbcdc4d5a	-0.026892353
96	0x3d8d5040	0.06900072
97	0x3bae47fb	0.0053186393
98	0xbcc7dcec	-0.024397336
99	0xbc385782	-0.011251332
100	0xbe0036e8	-0.12520945
101	0x3b91b823	0.0044469996
102	0x3baaf9c3	0.005217762
103	0x3d9b7552	0.075907364
104	0xbdc0602a	-0.09393342
105	0xbc04e62c	-0.008111518
106	0xbcd14b22	-0.025548521
107	0xbde3ca70	-0.11122596
108	0x3d0dfb93	0.034663748
109	0x3cafedc1	0.021475675
110	0xbd120ddd	-0.035657752
111	0x3ccdcc83	0.025121933
112	0xbdd32c65	-0.10311202
113	0xbc62b76e	-0.013837678
114	0xbd2d29d2	-0.04227621
115	0xbd1329fa	-0.035928704
116	0x3d67a7a8	0.056556374
117	0x3d0492d0	0.032366574
118	0xbcbf0a4e	-0.023320343
119	0xbe0985ec	-0.13429993
120	0x3d4236ee	0.047415666
121	0x3da2e23b	0.07953306
122	0xbda472e5	-0.08029727
123	0xbd64070a	-0.055670775
124	0x3b583004	0.0032987604
125	0x3c08e4a7	0.008355296
126	0x3d2c3fa9	0.0420529
127	0xbda71dfb	-0.08160015
128	0x3abf0ba4	0.0014575613
129	0x3ca84f27	0.020545555
130	0xbcbdbf1e	-0.02316242
131	0xbd27b5ed	-0.040944982
132	0x3d9aee1b	0.07564946
133	0x3d7a332b	0.061083954
134	0xbd1ea0c6	-0.038727544
135	0xbdddd275	-0.10831157
136	0xbc61ece0	-0.013789386
137	0xbd4e1efd	-0.05032252
138	0x3d8d302e	0.06893955
139	0xbdb7be63	-0.0897186
140	0xbd314829	-0.043281708
141	0x3cb8f1a7	0.022576166
142	0xbdc72ecd	-0.097257234
143	0x3cbe4c81	0.02322984
144	0x3e0d2752	0.13784531
145	0x3d10e810	0.035377562
146	0x3ced1f96	0.028945725
147	0xbd605fca	-0.05477885
148	0x3d40ca0a	0.04706768
149	0xbbbd91b5	-0.005785192
150	0xbd11915c	-0.035539016
151	0x3d02ffa3	0.031982075
152	0xbd303abb	-0.04302476
153	0xbdb53ef7	-0.088499
154	0x3d2ff32a	0.04295651
155	0xbc035456	-0.008015713
156	0xbb40fe34	-0.0029448392
157	0xbc0690ef	-0.008213266
158	0xbdd06dd4	-0.10177198
159	0xbc7bad54	-0.015361149
160	0xbda3cf3e	-0.07998513
161	0x3da88758	0.0822894
162	0xbdb779ad	-0.08958755
163	0x3af640c7	0.0018787616
164	0xbd898965	-0.06715659
165	0xbd04d0fa	-0.032425858
166	0x3d318def	0.04334825
167	0xbde8afdc	-0.113616675
168	0xbd44dd9c	-0.048062906
169	0x3c092761	0.008371205
170	0xbc527d92	-0.012847321
171	0xbdd4e068	-0.103943646
172	0xbc1cd14c	-0.009571385
173	0x3bb83b72	0.005622321
174	0xbb8a649f	-0.0042234208
175	0xbd8345da	-0.064098075
176	0x3d38f378	0.045154065
177	0xbdba229d	-0.09088633
178	0xbcc00ea6	-0.023444485
179	0xbb970c6e	-0.004609636
180	0x3d9a8ece	0.07546769
181	0x3df9c36f	0.12195479
182	0x3d17d9a9	0.03707281
183	0xbdb1218a	-0.08648975
184	0x3db87e48	0.09008461
185	0xbd69dc65	-0.05709495
186	0x3d7dbe1a	0.061948873
187	0x3d5aa0f3	0.05337615
188	0x3dc5ecc4	0.096643
189	0xbd9b7dc8	-0.0759235
190	0xbd2e44b8	-0.042546004
191	0xbd3538c3	-0.044243585
192	0xbd99d938	-0.07512134
193	0xbc6818dc	-0.014166083
194	0xbc788d6b	-0.015170435
195	0xbd3e33d5	-0.04643615
196	0xbdb59903	-0.08867075
197	0x3d0c8dd0	0.03431493
198	0x3c357de5	0.011077379
199	0xbd934ca7	-0.07192355
200	0x3daa9753	0.08329644
201	0x3c534e44	0.012897078
202	0xbd238dc3	-0.039930116
203	0xbd5ca511	-0.053868357
204	0x3c4ade3e	0.012382088
205	0xbc98ca03	-0.018651014
206	0xbd0a196d	-0.033715654
207	0x3c018e09	0.007907399
208	0xbd3329c2	-0.043740995
209	0x3cf74881	0.03018594
210	0x3c99d001	0.018775942
211	0x3b80d81c	0.0039320122
212	0xbcdaf05a	-0.026725937
213	0x3cb4d380	0.022073507
214	0xbdd19b2d	-0.102346756
215	0xbd497c94	-0.049191073
216	0x3bd0d90d	0.0063735307
217	0xbc0b8188	-0.008514769
218	0xbcf72e2d	-0.030173386
219	0xbd366de0	-0.04453838
220	0xbc469e1d	-0.012122658
221	0x3d2b2dda	0.041791774
222	0xbd747670	-0.059683263
223	0xbdb69e10	-0.08916867
224	0x3cf7d9ef	0.030255286
225	0x3c8cfe40	0.01721108
226	0xbe0cebf0	-0.13761878
227	0xbd8729aa	-0.06599744
228	0x3bd3409e	0.006446912
229	0x3d7a2724	0.061072484
230	0xbdc17abd	-0.094472386
231	0x3ddca659	0.10773916
232	0xbcd153a8	-0.025552586
233	0xbc6106c0	-0.0137345195
234	0xbca16771	-0.019702645
235	0xbd10f545	-0.035390157
236	0x3ca89892	0.020580564
237	0xbd9b0aab	-0.07570394
238	0xbd46df28	-0.048552662
239	0x3c1afba6	0.009459412
240	0xbd0e6e66	-0.034773253
241	0xbdb21cb3	-0.0869688
242	0x3d07f859	0.033195827
243	0x3c8bae34	0.01705084
244	0xbda90d6c	-0.08254513
245	0xbdcb258c	-0.09919271
246	0xbbddfe13	-0.006774673
247	0xbe0c0a8e	-0.13675901
248	0x3d8e42b2	0.06946315
249	0xbc59d9c8	-0.013296552
250	0xba88f115	-0.0010447825
251	0x3b922554	0.0044600163
252	0xbd1db2dc	-0.03850065
253	0xbe0666fa	-0.1312522
254	0x3da79599	0.0818283
255	0x3dc834eb	0.09775718
